S8/Weights/model_GN.pth (torch, 156657 bytes, 27 tensors)

conv1.weight f4 [10, 3, 3, 3]
000000 14 f9 8d 3d 88 9b 20 3f 8b ae 6f be a9 26 74 3e
       0.069322735 0.6273732 -0.23406427 0.23842873
000010 33 53 04 bf dc 4a 57 be db ec 01 3e f2 6a 01 bf
       -0.5168945 -0.2102465 0.1268801 -0.5055381
000020 b5 b0 5c bd 0f 1e d0 bc f7 5a e6 3d 40 ba 98 bd
       -0.05387946 -0.025404958 0.11247819 -0.07457399
000030 e2 14 51 3e 1e ed fd be 2d 0f 00 bd 50 b0 77 3e
       0.20418122 -0.4959497 -0.031264473 0.24188352
000040 03 69 d3 bd e9 a9 b0 3d a9 63 6d be f4 d1 81 3e
       -0.10322764 0.08626158 -0.23182549 0.25355494
000050 1c bb c0 3d 66 55 4f bd 04 8e 25 bf 26 79 02 3e
       0.09410688 -0.05061855 -0.64669824 0.12741527
000060 ca 46 22 3e 81 06 dc be 89 fc 12 3e 1e cf 0c 3e
       0.15847316 -0.42973712 0.14354147 0.13750884
000070 8b 83 54 bd e7 06 17 be 4c 5e 02 3f 59 a8 95 be
       -0.05188326 -0.14748727 0.50925136 -0.29230002
000080 e6 98 89 3d 99 76 d2 bd 9f 6c d0 bc 78 8a c8 3e
       0.06718616 -0.10276527 -0.02544242 0.39168143
000090 3e 14 bc 3e 04 e0 71 be ba b4 0a 3e 77 7f 99 3e
       0.36734194 -0.23620611 0.13545504 0.2998006
0000a0 8d 7e 19 bf c7 11 9a 3a 08 c7 f4 bd a2 bb 89 3d
       -0.59958726 0.0011754566 -0.11952025 0.06725241
0000b0 46 dc b0 3e 3b ed 16 3f 1e f7 43 be b4 5e 39 be
       0.34543055 0.58955735 -0.19137236 -0.18102533
0000c0 5e 1b 2c 3f d7 81 36 bf 3d ac b6 be 9c 11 d2 3d
       0.6722926 -0.7129187 -0.35678282 0.10257265
0000d0 6c e0 f3 bd f7 9d 38 3a a2 4d 13 be 8d 38 22 be
       -0.119080395 0.00070425816 -0.14385083 -0.15841885
0000e0 73 5f 0b be ac 0d 89 be 09 4d 73 3d 66 f4 10 3f
       -0.1361063 -0.26768243 0.05939964 0.5662292
0000f0 66 5b 0a be 07 db 48 3e 13 fc 2a 3d 71 4d 21 3e
       -0.13511428 0.19614802 0.041744303 0.15752198
000100 bf 8c 8c 3e bc a1 92 3d 5c 73 2a 3e 52 5f 4d 3e
       0.2745113 0.07159755 0.16645569 0.20055893
000110 21 9f 4a 3f 01 3b bf 3e e1 02 37 3e 5a 70 29 3e
       0.7914906 0.37349704 0.17872192 0.16546765
000120 76 25 69 bd c9 73 0e be 0c 06 be be 92 2a d0 be
       -0.05692049 -0.13911356 -0.37113988 -0.4065748
000130 29 f4 17 bf fc a1 2b bd 34 54 19 3e 6a 2f e0 be
       -0.59356934 -0.041902527 0.14973527 -0.43786174
000140 4b c7 0d bf 16 b7 20 bf 7a 32 de bd fb 7e 02 be
       -0.5538222 -0.62779367 -0.108494714 -0.12743752
000150 ca 4c 20 3f 67 e8 7c 3e 88 09 2a bd 15 2a c0 3d
       0.6261717 0.2469803 -0.041512996 0.093830265
000160 4c cc 27 be 62 73 9b 3b 5c 22 05 bf 7f 38 82 be
       -0.16386527 0.0047439793 -0.52005553 -0.25433728
000170 44 c6 91 bc b0 ea 5d 3f 66 e4 39 3d 0f 25 c8 bd
       -0.017794736 0.8668623 0.045383833 -0.09772693
000180 61 49 81 3e 1d 1f e2 be 13 50 b3 3d 89 86 01 bf
       0.25251296 -0.44164363 0.08755507 -0.5059591
000190 f7 cc 48 be de b7 6a 3d 51 b3 32 3f 04 5a 32 3e
       -0.19609438 0.057304256 0.69804865 0.1741715
0001a0 61 d4 79 3e b9 33 46 3e 34 fa 07 bf c1 ca df 3b
       0.24397422 0.19355668 -0.53116155 0.00682959
0001b0 91 4a 4f bd c4 a5 21 3e 7b 1c 45 3e 8b 72 7c 3e
       -0.05060822 0.15785891 0.19249146 0.2465307
0001c0 68 2e d2 bd 97 32 19 be 88 17 49 be c8 76 bd 3c
       -0.102627575 -0.14960705 -0.19637883 0.023127928
0001d0 12 59 98 be 58 3c e0 bd 82 da ae bd 6a af 77 3e
       -0.29755455 -0.1094901 -0.08537771 0.24188009
0001e0 26 99 e1 3e bc a6 79 be 39 21 c7 be d0 04 d9 bd
       0.44062155 -0.2438001 -0.38892534 -0.10596621
0001f0 8f 73 9b 3d 85 31 f8 bd 22 dc ad 3d 18 38 38 be
       0.075904004 -0.1211882 0.084892526 -0.17990148
000200 8e 36 9f bd 95 1a 2a 3f 2b 95 1f 3d 3b 3e 66 bd
       -0.07774077 0.6644681 0.038960617 -0.05621169
000210 21 be f2 3e 99 85 c6 3e 5f 92 ea 3c d2 60 8f 3c
       0.47410682 0.38773802 0.028634248 0.017502222
000220 b9 9d 5d 3f c2 a1 43 3e 0e 0b 2e 3e 69 e1 14 bd
       0.8656879 0.19104674 0.16996405 -0.03634778
000230 d2 af 61 be 8b 0f 4a bd 05 99 2a 3c 28 08 70 be
       -0.22039726 -0.04933123 0.010412459 -0.23440611
000240 a0 2b 01 bf 59 0e 44 3f 05 a0 8e 3e 40 bb 14 be
       -0.5045719 0.7658439 0.2785646 -0.14524555
000250 45 85 12 bf 39 a9 cb 3c 62 99 9d bc f6 73 0c be
       -0.57234603 0.024860965 -0.019238178 -0.1371611
000260 3d 66 27 3e 6e 5a cd be b1 d0 21 3f c8 f4 5b bc
       0.16347595 -0.40108055 0.6320906 -0.01342506
000270 10 e9 4d bd 56 18 1a bf 00 5d 2c be 13 d9 43 be
       -0.050271094 -0.60193384 -0.16832352 -0.19125776
000280 9e a8 4f 3e ab bf f5 bb f9 b7 fc bd de b9 fe be
       0.20279166 -0.0074996552 -0.123397775 -0.4975118
000290 fa ff 15 be f5 19 a3 be 8f 09 b9 be 74 af 99 be
       -0.14648429 -0.3185574 -0.36140105 -0.30016673
0002a0 24 f4 e2 bd 09 63 09 bd 7a 66 51 be d1 7f af be
       -0.110817224 -0.033541713 -0.20449248 -0.34277204
0002b0 86 eb 5a be c2 19 8b 3d a7 1b ca 3d d3 06 f1 3e
       -0.21378908 0.06792022 0.098685555 0.4707552
0002c0 d5 bc 24 bd fd 53 c7 be 1a 84 c6 3e 9a 73 32 be
       -0.040219147 -0.38931265 0.3877266 -0.17426911
0002d0 f0 25 c2 be 2b ba 46 3e 39 c3 0a 3e 22 04 99 3e
       -0.3791957 0.19406955 0.13551034 0.29885966
0002e0 46 0d 64 3f 34 a0 bb 3e c2 f1 1f be c4 84 43 3f
       0.89082754 0.36645663 -0.15619567 0.7637446
0002f0 8a 6d 92 3d fe 86 d7 3e fa 49 9a be 75 e7 82 be
       0.07149799 0.42095178 -0.30134565 -0.25567213
000300 91 e5 6d 3f ed ea 88 3e fc 92 cd 3d ce b2 0d 3e
       0.92928416 0.26741734 0.10037801 0.1383774
000310 be 04 e4 3e 50 41 a6 bb ad 1f 3f 3e e2 3e f3 be
       0.44534868 -0.005073704 0.18664427 -0.47508913
000320 62 2a ab bd 2f c6 2e 3d 93 47 ed be 80 e9 1d bc
       -0.08357693 0.04266947 -0.4634367 -0.00963819
000330 a2 ac d9 be b8 15 b8 be 11 e8 8a be ce 43 b7 3e
       -0.4251452 -0.3595407 -0.27130178 0.35793918
000340 4d 9f cb bd 2e d0 98 3e 3d c1 27 3e 19 6e 51 be
       -0.099424936 0.29846328 0.16382308 -0.20452155
000350 b4 69 02 be c9 bf bb be 2f 7b 08 bd f7 c4 71 3c
       -0.12735635 -0.36669758 -0.033320602 0.014756433
000360 66 b6 38 bf eb c4 b6 be ac d1 4c 3d c2 78 1a bd
       -0.7215332 -0.3569711 0.050004646 -0.03771282
000370 ff e5 90 be d2 0d 01 3f 74 a8 84 3e 8e 6e b1 3e
       -0.28300473 0.50411713 0.2590977 0.3465466
000380 64 34 22 3f ad fe 09 be e2 af f2 3d 4e db ad 3d
       0.6336119 -0.13476057 0.11849953 0.08489095
000390 e6 5e 0a 3f bc 72 93 be 0d 37 d0 bc a3 30 99 3e
       0.54051054 -0.28798473 -0.025416875 0.2991992
0003a0 f3 06 c2 3d 21 10 5b be 9a a0 b1 3e 6f 33 fd 3d
       0.09473982 -0.21392871 0.34692842 0.12363326
0003b0 d3 31 bd bd 45 67 73 3e fa 17 1d bf 72 f0 f1 be
       -0.09238019 0.23769863 -0.6136471 -0.47253758
0003c0 43 64 5d 3e 7a 93 03 bf 25 fe e2 be fc 24 89 3e
       0.21620278 -0.51396906 -0.44334522 0.2678603
0003d0 dd 42 8f 3e 0d df 8f 3e d5 50 10 3e f3 ac 81 3f
       0.279807 0.28099862 0.14093335 1.0130905
0003e0 74 47 17 3e 5d 6a a0 be 03 6a 5f be a6 3e 28 bc
       0.14773351 -0.3133115 -0.21817784 -0.010268843
0003f0 06 05 17 bf c8 f8 89 be 9c 14 2b be fc c2 df be
       -0.5899204 -0.26947618 -0.1670708 -0.4370345

norm1.weight f4 [10]
000000 36 93 74 3f 3d 78 8a 3f c6 6a 68 3f 53 ae 97 3f
       0.95537126 1.0817944 0.90787923 1.1850075
000010 83 62 5e 3f cf e1 8b 3f f6 ab 60 3f f5 d3 76 3f
       0.86869067 1.0928286 0.8776239 0.9641717
000020 73 35 86 3f b9 46 8b 3f
       1.0485061 1.0880958

norm1.bias f4 [10]
000000 12 28 84 bd a3 70 e1 3c 19 1b da be f6 0d 25 be
       -0.06452955 0.02751953 -0.425988 -0.16118607
000010 3d 2f 33 be 4f 1d f6 be 55 37 d2 3e b8 4a ab be
       -0.17498489 -0.48069236 0.4105784 -0.33455443
000020 49 91 22 be ab 0c aa 39
       -0.15875734 0.00032434365

conv2.weight f4 [10, 10, 3, 3]
000000 7d ea 99 3e 6c a5 30 3e 4b 85 94 3c 96 3c ab 3e
       0.30061713 0.17250603 0.018129965 0.3344466
000010 3e 49 96 be 4c be bd bd 9a f9 2d 3e 5d 05 17 be
       -0.29352754 -0.09264812 0.16989747 -0.1474814
000020 ab 65 84 bc e8 a8 86 be 33 51 9a 3d 33 e2 ef 3d
       -0.01616176 -0.2630074 0.07535019 0.11713066
000030 f6 3b 39 be 2d 27 84 3d c7 b7 14 be a8 7c f4 bd
       -0.1808928 0.06452785 -0.1452323 -0.11937839
000040 15 ba 1c bd b7 2c 1f 3e 32 d8 a9 be ba 8c 5c be
       -0.0382634 0.15544401 -0.33172756 -0.21538058
000050 15 4e ae 3e e7 e5 c3 be a3 d3 89 be fb 9c 9d 3d
       0.34043947 -0.3826134 -0.26919279 0.07695957
000060 d2 6c 87 be 6f c3 8c 3d 0c f7 a6 3e 2d 8d 5a bd
       -0.2645021 0.068732135 0.32610357 -0.053357292
000070 6c 44 1f be b2 a2 bd be 75 36 81 3e 04 88 be bd
       -0.15553445 -0.3703819 0.2523686 -0.09303287
000080 7b 2b 24 3e 2f f0 e4 3c a5 40 8f bc 8b 07 21 3e
       0.16032211 0.02794656 -0.01748688 0.15725534
000090 0f 89 98 3e 76 d9 03 bd e0 de 94 bc 76 52 b9 bd
       0.29792067 -0.03218981 -0.018172681 -0.09048931
0000a0 47 f3 88 be 9e 6b 9b bd 5a 5c 16 bd 83 ee 32 be
       -0.26748106 -0.07588886 -0.036709167 -0.17473798
0000b0 ae f9 84 bd 17 8a fd 3d c3 4d a6 3d 33 a4 91 3d
       -0.06492935 0.12379854 0.081203006 0.07111397
0000c0 1e 14 dc bc 35 1d 9b be 19 b3 9f bd b7 7f f8 bc
       -0.026865061 -0.3029572 -0.07797832 -0.030334337
0000d0 7a ca 54 39 29 e3 90 bc cb 70 a7 bd 83 ff e3 3c
       0.00020293324 -0.017686443 -0.081758104 0.027831798
0000e0 16 7a 76 3b 96 6d 03 be 62 ca d8 3e d3 a5 cd 3e
       0.003760939 -0.12834772 0.42341906 0.40165576
0000f0 d2 f5 76 bd 28 58 73 3e a4 16 37 3e 13 df 2d 3d
       -0.060293026 0.23764098 0.1787973 0.04244907
000100 58 07 3e bd 53 4e 79 bd a6 c1 2c 3e 32 fa 8c be
       -0.046393722 -0.06086571 0.16870746 -0.27534634
000110 49 a6 9c be 14 6f 0b 3e a7 ff 88 bd 80 8f c0 3d
       -0.30595616 0.13616592 -0.06689387 0.094023705
000120 15 84 de be 8f 0d 6e be 96 d7 34 3e a5 e9 c5 be
       -0.43460146 -0.2324736 0.17660365 -0.3865482
000130 72 25 37 be 93 0f 76 3e 9d d2 a0 bc 5d 2c 83 3e
       -0.17885378 0.24029379 -0.019631678 0.25619784
000140 f2 d9 b8 3e 8f e6 81 3e 5e 2a 80 3e 42 e8 90 3e
       0.3610378 0.25371215 0.25032324 0.283022
000150 07 f0 ab be c5 19 34 be 00 57 df bc 57 1d 97 be
       -0.33581564 -0.17587955 -0.027263165 -0.29514572
000160 21 f3 7f bc 5d 72 ef bd ed 0d db bc bf bf 52 3e
       -0.015621931 -0.11691735 -0.026740039 0.20580958
000170 d4 ae 93 3c 8a 3c 5e bc 77 f2 c5 bd 59 93 f7 3d
       0.0180277 -0.013564238 -0.09665387 0.12088651
000180 51 38 f2 bc c4 43 53 be 22 20 9b be 96 bd 97 3e
       -0.02956787 -0.2063132 -0.30297953 0.2963683
000190 b1 dc 3b be b3 09 d4 3c bf bc 97 3e a4 6a 15 3e
       -0.18345906 0.025883531 0.2963619 0.14591461
0001a0 4e 25 22 3e dd fa 2a 3e 5e e7 c5 3c d7 6a 11 3e
       0.15834543 0.16697259 0.024158176 0.14200912
0001b0 e6 6e a9 bd ec 29 c0 3c 34 f3 75 bd 42 0c 35 bd
       -0.08273105 0.02345749 -0.06004639 -0.044201143
0001c0 95 23 79 be 9d 11 c6 bd bc f3 dc 3d 55 01 51 3c
       -0.2432998 -0.09671328 0.10788676 0.012756665
0001d0 44 2b 6e bd dd 88 68 3e 30 0e 1e 3e fc 30 60 be
       -0.05814673 0.22708459 0.154351 -0.21893686
0001e0 10 b7 16 3d 35 46 06 be b1 86 79 bd e0 67 55 3e
       0.036795676 -0.1311272 -0.060919467 0.20840406
0001f0 b3 a5 09 be 0c c3 2a 3e 3f f7 fc 3d f9 a9 8f bd
       -0.13442115 0.16675967 0.12351846 -0.070148416
000200 f5 74 18 be d6 72 02 3e ef e1 59 3e 9f fa 2c 3e
       -0.14888366 0.12739119 0.21277593 0.1689248
000210 3b 93 ac 3d 07 b5 c7 3c 5d 43 15 3e 01 0e 42 be
       0.084265195 0.024378313 0.14576478 -0.18950655
000220 39 b2 77 3d 3c 4d 0c be b1 90 4a be 28 64 84 be
       0.0604727 -0.13701338 -0.19781758 -0.25857663
000230 3f 99 b2 bd 02 bb 0c 3e 15 c5 0e bd 01 22 cd be
       -0.087206356 0.13743213 -0.03485592 -0.40065005
000240 1e cb 18 3e 36 c9 44 3e a8 3b b0 be 12 e7 40 3e
       0.14921233 0.19217381 -0.34420514 0.18838146
000250 00 67 e0 3e ff e3 61 3d b5 75 e5 39 36 b5 1c 3e
       0.43828583 0.055149075 0.00043765982 0.15303501
000260 ac 92 11 3c 9b 5b 06 3d 01 74 90 be 13 d4 6f be
       0.008885067 0.032802206 -0.28213504 -0.23420744
000270 72 41 9b 3d db 21 f3 3c f8 99 a9 bd b0 56 58 3e
       0.07580842 0.02967923 -0.0828132 0.21126819
000280 a4 04 24 3e 8a 66 77 3e 3b b4 23 bc e3 dd 81 3e
       0.16017395 0.2416021 -0.009991701 0.253646
000290 ef a2 60 bd b3 ab df 3d 42 be 77 3d 44 34 5a 3e
       -0.054842886 0.10921421 0.06048418 0.21309
0002a0 0f 3b 0b 3e 78 76 5b bd 7e 3c 3a bc ad fa 90 3c
       0.13596748 -0.053579777 -0.0113669615 0.017697657
0002b0 5d 2d e5 3b 9a e5 e8 bd 79 7f 5f bd 1b 56 37 3e
       0.006993933 -0.11371918 -0.054564927 0.1790394
0002c0 68 0a bd bd 82 7e 2b bd 09 70 68 3e e1 da 82 3e
       -0.092305005 -0.041868694 0.22698988 0.25557616
0002d0 12 40 cd 3e 86 dc aa be db 04 c6 bd f9 e1 f4 bd
       0.40087944 -0.3337137 -0.09668895 -0.11957163
0002e0 92 2a 73 be 66 81 af 3d 7d 9a 71 bd 97 0f 45 3d
       -0.23746708 0.08569603 -0.058985222 0.04811057
0002f0 1b d0 25 bd f6 bb d7 3d 06 31 46 be 75 61 93 3c
       -0.040481668 0.105338976 -0.19354638 0.017990807
000300 51 80 3d 3d a1 dd 1d bf 58 90 32 3e 7c 2d 97 be
       0.04626495 -0.61666304 0.17437875 -0.2952689
000310 2c 7f 51 3d 8d 56 94 3e 14 6d 28 3e 9d 66 33 3d
       0.05114667 0.28972283 0.1644786 0.04379903
000320 3e aa f2 bd 6c ae 91 3e 5f 1e 67 bd 74 6f c7 be
       -0.11848877 0.28453386 -0.05642545 -0.3895222
000330 84 af 8b 3d 1b 9b ba be 52 96 85 3d 08 cd 09 3e
       0.06820586 -0.3644646 0.06522812 0.1345712
000340 2a a6 a1 be 92 d0 e8 bd 86 5f 9a be 77 d1 13 be
       -0.31572086 -0.11367907 -0.30151004 -0.14435373
000350 a7 c2 c7 3d 2a fe 8c 3d 5b 1d e3 3d 14 96 60 be
       0.09753924 0.068844154 0.110895835 -0.2193225
000360 35 d4 2f be 95 68 88 be b5 7a 06 3e d0 d3 7c ba
       -0.17170794 -0.2664229 0.13132747 -0.00096445996
000370 ad 2e 84 be c6 27 71 3d e8 62 0c 3e 22 60 4a 3e
       -0.2581686 0.05887582 0.13709605 0.19763234
000380 3a 80 59 bc c9 4c 5d 3d b4 76 a1 be cd b1 22 be
       -0.0132752005 0.054028306 -0.31535876 -0.15888138
000390 b7 bb d4 be 75 42 d9 bc d2 7c 39 bd df d7 bb be
       -0.41549465 -0.026520947 -0.045285054 -0.36688134
0003a0 b8 a5 f2 3e c4 8c 25 3e b5 a1 85 3c 5d c8 4b 3e
       0.47392058 0.16166979 0.01631246 0.19900651
0003b0 96 12 a3 3d 7e b8 07 3e 6e e8 b3 3d 4f 4f 86 be
       0.07962529 0.13253972 0.08784567 -0.26232383
0003c0 39 38 0e 3e 2f 95 38 bd fb 45 46 be e2 f6 3f be
       0.13888635 -0.045064148 -0.19362633 -0.18746522
0003d0 eb 8a 17 be bd 1d a3 bd b1 88 be 3c ae 8a c1 be
       -0.14799087 -0.079646565 0.023258539 -0.37801117
0003e0 4f 10 48 3d 21 28 ce 3d ae 44 a8 bd 68 61 79 3e
       0.048843678 0.10066248 -0.082162246 0.24353564
0003f0 2a c2 cd 3c 5c 58 0f be d1 f9 2c 3d ac 55 42 3d
       0.025116999 -0.1399855 0.04223043 0.047444984

norm2.weight f4 [10]
000000 2e d4 8b 3f 2e f5 68 3f cd bd 91 3f e4 56 6b 3f
       1.0924127 0.90999115 1.1386048 0.9192946
000010 d2 c2 7a 3f 93 bc 96 3f 32 2c 8f 3f 9f 93 94 3f
       0.9795352 1.1776298 1.1185362 1.160755
000020 7b 04 6e 3f 05 f9 72 3f
       0.92975587 0.94911224

norm2.bias f4 [10]
000000 64 a3 6e be 94 27 ed 3e 2c 3e 6e be fc a1 91 be
       -0.23304516 0.46319258 -0.23265904 -0.28443897
000010 49 18 34 3e c2 74 55 3d 0f 09 8e 3d e7 54 d2 3c
       0.17587389 0.052113302 0.069353215 0.02567525
000020 af a3 d2 3e 06 ea 86 be
       0.41140506 -0.2635042

tns1.weight f4 [16, 10, 1, 1]
000000 dc 30 b7 3e d4 ba c7 3e 9d 2f 89 bd ce c7 e6 3e
       0.35779464 0.39009726 -0.06698535 0.45074314
000010 e7 ce a6 3e 26 9a 90 3e 7e 99 99 3d 54 ec 00 bf
       0.3257973 0.28242606 0.074999794 -0.5036061
000020 fe 62 b8 be 2b 9f 17 be 97 f8 9c bc 34 43 00 bf
       -0.36013025 -0.14806812 -0.019161506 -0.50102544
000030 90 2e 9c 3e 9a b9 7e bd 16 79 15 be 87 90 f7 be
       0.30504274 -0.062188722 -0.14596972 -0.48352453
000040 61 42 79 3e 81 db e0 be ee 2d ca 3e 99 4a ee 3e
       0.24341728 -0.43917468 0.39488167 0.46541288
000050 a5 1e 35 bc a6 e6 bf bb e6 53 1b 3f 6e af 42 3e
       -0.0110546695 -0.005856353 0.60674894 0.19012234
000060 cd 0b d9 bd 81 b8 85 bd 3e 71 25 be 19 93 ed 3e
       -0.10597954 -0.06529332 -0.1615648 0.4640129
000070 9e 23 9a be 9f 1f 9f be a7 56 b1 3e 4c 40 91 be
       -0.301053 -0.31078812 0.34636423 -0.28369367
000080 22 c9 8c 3e b4 c0 90 3d f7 9b f0 3d 47 b3 85 3d
       0.27497202 0.07068005 0.11748498 0.06528335
000090 c8 a3 20 be 0b 5b 00 3d 38 8b 99 3d 7c db 0a 3f
       -0.15687478 0.031336825 0.07497257 0.54241157
0000a0 04 29 0e 3f 4d 7d f2 bd 7f b1 81 be 18 60 79 be
       0.55531335 -0.118403055 -0.2533073 -0.24353063
0000b0 47 00 ea 3e 71 c0 a9 be 93 3c 7c bb c0 0c 42 3e
       0.45703337 -0.33154634 -0.0038488253 0.18950176
0000c0 f6 8b e1 bd 9f 60 d7 3d 05 2e 17 be 4b 4e f5 bd
       -0.110130236 0.10516476 -0.14763649 -0.11977824
0000d0 bc 9b cb 3e a1 b2 82 be ec dd a0 be 11 0b 05 3f
       0.39767253 -0.25526908 -0.31419313 0.5197001
0000e0 29 20 e1 3e 2a 24 83 bd 67 5f 1e 3e 3e e1 36 bd
       0.4396985 -0.06403382 0.1546608 -0.0446484
0000f0 41 e4 98 be 03 d6 4c 3d bc 5d 6d be c6 f9 a7 bd
       -0.29861644 0.050008785 -0.23180288 -0.082019374
000100 6d 0a 09 bf b4 26 7d be fe 63 99 be fa 83 b2 3e
       -0.53531533 -0.24721795 -0.299591 0.34866315
000110 b3 b5 dd be a9 49 b7 bd fe 54 0c be de cb c4 bd
       -0.43302688 -0.089495964 -0.13704297 -0.09609197
000120 cb e9 4a be 05 3c 79 3e 6f 75 51 3e 2e a3 0f 3f
       -0.19815747 0.24339302 0.20454954 0.5610837
000130 c0 6b f6 be 31 22 b0 be 33 19 cf 3e aa 83 20 3e
       -0.48129082 -0.34401086 0.40448913 0.15675226
000140 97 53 45 be 16 36 60 3e 91 df 7d 3e 62 c0 85 3e
       -0.19270168 0.21895632 0.24792315 0.2612334
000150 1a 03 4d 3d 6c 2d d3 be d4 71 46 3f b5 02 33 3e
       0.050051786 -0.41245592 0.7751744 0.17481501
000160 12 1b 03 bf 14 42 87 3e ad b2 93 3e 83 fd db 3d
       -0.5121318 0.264176 0.28847256 0.10741713
000170 40 89 23 be f9 ab cb be 1e 01 87 be 72 60 01 be
       -0.15970325 -0.39779642 -0.2636804 -0.12634447
000180 78 8b ae 3e cc 0b 9f 3e 07 8d 85 be 4b 38 90 be
       0.3409078 0.31063688 -0.26084158 -0.28167948
000190 0a 56 d8 bd 88 e8 03 bf cf e5 c4 be 0c aa 4e be
       -0.10563286 -0.5152669 -0.3845658 -0.20182055
0001a0 41 97 1a bf 42 4b dc 3d cc 60 bc 3d 69 0a 35 bf
       -0.60387045 0.10756542 0.0919815 -0.7071901
0001b0 b8 ea b2 bd cf 6d 88 be 17 0e a8 3d 4e 4c 79 3e
       -0.08736175 -0.26646277 0.082058124 0.24345514
0001c0 ba 3c 09 3f c7 ba 13 3e 5f 71 f0 be b5 87 96 3c
       0.53608286 0.14426719 -0.46961495 0.018375257
0001d0 a4 28 fa bd 93 3a d6 be 19 cb d3 be 21 65 50 be
       -0.12214783 -0.41841564 -0.4136589 -0.20351078
0001e0 48 18 5a 3f 11 99 75 be 2c 15 ad bd f1 fd 92 3e
       0.851933 -0.23984171 -0.08451304 0.28709367
0001f0 c9 c6 8f be 6e 07 82 3e 1d 48 e0 3e 02 73 f1 bd
       -0.2808135 0.25396293 0.43805018 -0.11789514
000200 91 09 96 3e 7e cd 9b bd 5d 73 ef 3e f3 7f b4 3d
       0.29304174 -0.07607554 0.46767703 0.08813467
000210 0b b6 ef 3d 09 27 c2 3e e0 76 cb bd 42 50 20 3d
       0.11704644 0.37920406 -0.09934783 0.03913904
000220 e0 82 0c be d5 d5 13 3e fd 95 c1 be d1 21 f1 3e
       -0.137218 0.14437039 -0.37809744 0.47096112
000230 d9 08 4f bd 48 54 06 3f 5c fb c1 be 7c 2b 37 3e
       -0.050545547 0.52472353 -0.37887084 0.17887682
000240 c3 b9 25 be cb 75 07 3f 88 f2 08 be 9c eb 92 3d
       -0.16184144 0.5291411 -0.13373768 0.07173845
000250 8c 92 07 bf eb 74 79 be b1 a2 28 be 93 fc b7 be
       -0.5295799 -0.24361007 -0.16468312 -0.35934886
000260 cc 08 22 be 0b cb 0d 3f 98 36 9b 3e 81 3c b9 be
       -0.15823668 0.55387944 0.3031509 -0.36178973
000270 52 f6 b7 be 08 fc 3d be 49 8e cc be c1 e9 b3 3d
       -0.35930115 -0.18553174 -0.39952305 0.087848194

conv3.weight f4 [24, 16, 3, 3]
000000 e3 b1 07 be 61 6b ca 3d 6b 6f 8c 3d 0f 40 b1 bd
       -0.13251452 0.09883762 0.06857189 -0.08654796
000010 ca 94 19 3e fd ba 82 3d a4 34 eb bc 6d c7 bc bc
       0.14998165 0.063833214 -0.028711624 -0.023044312
000020 7e 01 4f be 89 a6 6f 3c 30 ff 21 bd 70 d8 85 3d
       -0.20215413 0.014627107 -0.039550006 0.06535423
000030 4a 3e 29 3d d2 9d 14 3e 21 94 26 3b 6e b2 59 be
       0.04131917 0.14513329 0.0025417882 -0.21259472
000040 7c 76 f8 bd ef ea 1a be 45 07 14 be 59 9a 25 3e
       -0.12131974 -0.15128683 -0.14455898 0.1617216
000050 6e 27 36 3e a0 88 25 be be 4d 47 3e cf 7b d6 3a
       0.17788479 -0.161654 0.1946325 0.0016363802
000060 a1 4b 75 3d c5 6f c2 3d 17 c9 fc 3d 4b 05 48 be
       0.05988658 0.094939746 0.12343042 -0.19533269
000070 b4 d5 9d bd 38 89 20 be 1c 7f 1c bd 8d da 40 3d
       -0.07706776 -0.15677345 -0.03820716 0.047083426
000080 e9 5a 91 bd b0 75 2b 3c 23 90 cd 3d 5e d5 03 bc
       -0.07097418 0.010465071 0.100372575 -0.008046476
000090 05 91 c4 bd d0 05 2a 3d d2 21 c6 3c 5f f6 82 3d
       -0.09597973 0.04150945 0.024186049 0.06394648
0000a0 68 83 17 3e 65 7c a9 3d ef e0 a1 bd 30 56 4b 3e
       0.14796221 0.082756795 -0.07904231 0.19857097
0000b0 76 03 fb bc 4e fd f6 bd c1 12 00 3e 50 8f 01 3e
       -0.030641299 -0.12060033 0.12507154 0.12652326
0000c0 04 9b 17 3d 95 ea 98 3e be b0 de 3c 14 9a ab bd
       0.03701307 0.29866472 0.027183887 -0.083789974
0000d0 87 59 4a bd 4a 25 37 be 03 01 3d be 6a 62 f3 3c
       -0.049401786 -0.17885318 -0.18457417 0.029710013
0000e0 d7 82 3f be 17 e4 49 bd 3c c8 a2 3d 2d c2 c2 bc
       -0.18702255 -0.04928979 0.07948348 -0.02377423
0000f0 93 0e 25 bc f8 c6 00 3e 7f 14 57 bd b6 7b 1b be
       -0.010074276 0.125759 -0.05250978 -0.1518391
000100 ad 2e 0e be aa 0a 38 be ef b7 06 3d 07 0e b4 3d
       -0.13884993 -0.17972818 0.032890256 0.08791738
000110 c2 4c ff 3d 50 df b0 bd 8a 58 db bb 73 58 e7 3b
       0.12465812 -0.086363435 -0.0066939043 0.0070601045
000120 6d 9b 35 3d ab 4e c4 3b 09 2c 8f bc dc 0b e0 bd
       0.04433768 0.0059908233 -0.017477052 -0.10939762
000130 8c f1 ad 3d 3d 05 ac 3c 14 65 09 be 13 1f 70 3c
       0.08493337 0.020998592 -0.13417464 0.014655846
000140 ac fb a8 3d f7 19 00 3b 1c 3e fe 3c 47 86 19 be
       0.082511276 0.0019546726 0.031035475 -0.14992629
000150 89 fc 1c 3e 50 c5 3e 3e 4c 17 12 bd 94 98 24 be
       0.1533071 0.18629956 -0.03566675 -0.16073829
000160 c5 7f 4c bd e3 ab 71 be 26 16 14 bc 74 a3 54 3e
       -0.049926538 -0.23600726 -0.009038484 0.20765477
000170 d1 fd 8c bc 40 4f 46 3d 61 bb 48 3e 5b f9 72 3d
       -0.017210873 0.048415422 0.1960273 0.059319835
000180 54 43 ca bd 69 d9 74 bc 1f 82 33 be 10 a8 87 bd
       -0.09876123 -0.014944413 -0.17530106 -0.06623852
000190 25 f7 ac 3e d7 99 20 3e e7 2f 9e ba 54 d2 c3 3e
       0.33782306 0.15683685 -0.0012068719 0.38246405
0001a0 0f 9d 08 bd e6 d4 a6 3d 99 5b 78 3e 4b 73 b0 bd
       -0.033352908 0.08146076 0.24253692 -0.086157404
0001b0 78 ef 08 3c 2c 89 1d 3e d1 02 8a 3c 9b 7b 0f 3e
       0.008357875 0.15384358 0.016847046 0.14011995
0001c0 6b b9 82 3e 2d 34 40 3c de 03 76 bd 4f 3c 02 3e
       0.25532088 0.01173119 -0.06006228 0.12718318
0001d0 d5 49 47 be ee 88 9d bd 2e a7 fa 3d 62 c6 17 3d
       -0.19461758 -0.07692133 0.12238918 0.037054427
0001e0 41 0b 54 ba b1 f5 0b 3e de ef 4f 3c 93 53 55 bd
       -0.0008088835 0.13667943 0.012691466 -0.052081656
0001f0 30 71 38 3e 3a ec a5 3d 35 c7 e9 bd 8e 58 27 bd
       0.18011928 0.08101697 -0.11414949 -0.040855937
000200 88 59 03 be 72 79 48 ba d5 fd f9 3d 1e d3 52 bd
       -0.12827122 -0.00076474913 0.12206618 -0.05147087
000210 29 d5 e1 bb f7 52 50 bd 84 be 9c bd 82 bf d2 bd
       -0.0068918657 -0.05086037 -0.076535255 -0.102904335
000220 32 88 ff bd 0a a1 c3 bd 3a b9 6b bd 8a b5 f8 bc
       -0.12477149 -0.095522 -0.057549693 -0.030360002
000230 9c c4 c9 3d c8 16 66 3c ae 94 29 3d 63 12 c6 bd
       0.098519534 0.014043517 0.041401558 -0.09671476
000240 6c d2 bf bc a7 a7 db 3c ed ba 38 bd f1 f3 d9 3c
       -0.023415767 0.026813341 -0.04510014 0.026605578
000250 40 48 23 3d b9 7b e1 3c c3 c0 33 bc 66 08 b3 3d
       0.039863825 0.027524816 -0.010971251 0.08741836
000260 92 e2 5b 3d eb a1 b2 3c cf 18 19 be f6 ab 96 bc
       0.05368287 0.021805724 -0.1495087 -0.018392544
000270 54 e8 04 3e 03 dc 8a bc 96 11 83 bd bc 5d ea 3d
       0.12979251 -0.016950613 -0.063998386 0.1144366
000280 5f 31 0f 3e 5e 36 5f 3e 8d 7b 74 3d 3e f6 1b bd
       0.13983677 0.21798083 0.05968814 -0.03807663
000290 b8 54 47 3d bf 0c eb 39 83 ea 9f bd a5 57 b4 3c
       0.04866478 0.0004483219 -0.078084014 0.022014448
0002a0 2d 18 86 3d 39 55 7f 3d 21 88 24 be 1f 4a b8 bc
       0.0654758 0.062337134 -0.16067554 -0.022496281
0002b0 ec b0 a1 3b 75 46 50 3d 49 b0 70 bd fc 86 fc bd
       0.004934421 0.050848443 -0.05876187 -0.12330434
0002c0 84 b5 b3 bd 28 27 67 bc 41 a4 40 bd da 39 2a 3e
       -0.08774856 -0.014108457 -0.047031645 0.16623631
0002d0 ef 6d a5 3b 18 05 6b 3d ac 9f 1a 3e b1 8b 03 be
       0.0050485055 0.057377905 0.15099972 -0.12846257
0002e0 7a b3 55 be c4 72 89 bc af 32 a7 bc 6b 23 fb bc
       -0.20869246 -0.016778357 -0.02040991 -0.030656537
0002f0 33 73 56 3e 87 51 4b 3e 7f d0 f5 bd 3e a5 2d 3e
       0.20942383 0.19855319 -0.12002658 0.16957566
000300 08 f6 5a 3c 69 08 70 3e 50 25 0e 3e 9f 89 20 3e
       0.0133643225 0.23440708 0.13881421 0.15677498
000310 8b 87 52 3c 9b 1b 26 bc e0 a9 ee 3d 63 c4 89 3d
       0.012849699 -0.010138418 0.11653495 0.06726911
000320 05 77 e5 3c 63 80 ff 3d 35 0c bf bb fe 37 1b 3e
       0.028010854 0.1247566 -0.0058303126 0.15158078
000330 88 4f 33 3e 74 81 49 3e 4b c0 48 3e ea b4 9d 3b
       0.17510808 0.19678289 0.19604604 0.0048128264
000340 30 44 22 be e5 96 c2 bd 2c 74 a4 bd 89 4c 38 be
       -0.15846324 -0.09501437 -0.080299705 -0.17997946
000350 f5 6e 71 be f3 a3 2b bd f4 5b a6 bd 5b f3 86 3d
       -0.23577483 -0.0419044 -0.081230074 0.06589385
000360 02 6d 9b bd a6 3b 96 bd 47 02 8f 3d e5 b2 6c 3b
       -0.07589151 -0.07335596 0.06982856 0.0036117372
000370 c9 06 4d 3d 30 77 42 3d 11 cc ff bc 30 20 16 39
       0.0500553 0.047476947 -0.031225236 0.00014317106
000380 d3 00 40 3e 36 f3 79 3b 30 c6 a2 bd e6 06 8c 3d
       0.18750314 0.003813935 -0.079479575 0.06837253
000390 1c 81 83 bd 98 0a 13 3d 35 53 28 3e 09 8c 24 bd
       -0.0642111 0.035898775 0.16437991 -0.04017261
0003a0 3e 67 72 bc 2d 15 2c 3e 94 b8 18 be 92 f4 46 be
       -0.014795123 0.16804953 -0.14914161 -0.19429234
0003b0 5e 9b ea bd 6f 44 e6 3c cc e8 cf 3c 38 5e f7 3c
       -0.11455415 0.028108804 0.02537956 0.030196294
0003c0 b5 df 0f 3d 95 e6 bd bc fc 27 d2 bb 68 6d 2d bd
       0.035125453 -0.02318124 -0.006413458 -0.042340666
0003d0 9b 87 2f 3d c0 87 fd 3d 0b 84 f7 3d bf 80 8c 3e
       0.042853933 0.12379408 0.12085732 0.27441975
0003e0 e8 fa 56 3e bb 71 e1 3d 26 d9 bf 3d 9f 59 fd bd
       0.2099415 0.110080205 0.0936759 -0.123706095
0003f0 c0 19 a7 3d 34 1c 9c bc 3a ba 72 3c bd 27 2a be
       0.08159208 -0.019056417 0.014814908 -0.16616721

norm3.weight f4 [24]
000000 ab f3 93 3f 01 06 62 3f 99 28 8e 3f 4b 06 8a 3f
       1.1558737 0.8829041 1.110614 1.078317
000010 20 97 88 3f 9f 65 8f 3f 0b 63 87 3f 79 00 9b 3f
       1.067112 1.1202887 1.05771 1.2109519
000020 02 27 56 3f 91 bb 5a 3f fb 4c 98 3f 12 91 6d 3f
       0.8365327 0.85442454 1.1898493 0.92799485
000030 a0 09 80 3f f3 7c 80 3f 6a ee 7a 3f 73 78 4a 3f
       1.0002937 1.0038131 0.9802004 0.7909004
000040 35 bc 83 3f 54 f6 4c 3f 09 79 69 3f 92 b6 84 3f
       1.0291811 0.80063367 0.9120031 1.0368216
000050 cb 90 92 3f b4 fb 87 3f cf 4d 83 3f 33 c2 7a 3f
       1.1450437 1.0623689 1.025812 0.97952574

norm3.bias f4 [24]
000000 ac d2 82 3d 1a db 2c 3d b8 57 6c 3e 6d 19 86 be
       0.06387839 0.04220114 0.23080337 -0.26191273
000010 47 6f 43 3e 34 fc ae 3d 79 87 96 3e af 25 8e 3e
       0.19085418 0.08544198 0.29400232 0.27763125
000020 03 27 ef be 4f e9 e3 be 39 a1 de 3e 64 4f b2 be
       -0.4670945 -0.44513938 0.43482378 -0.34826195
000030 e0 7a 0b be 67 b4 22 3e 49 52 54 3c 0c 4b 20 be
       -0.13621092 0.1588913 0.012959071 -0.15653628
000040 42 9b a3 3d 26 e3 cc bc 79 09 00 bf 8f 5a 3e 3d
       0.079885975 -0.025010657 -0.50014454 0.046473082
000050 34 23 2f 3e 45 81 95 3e 34 74 00 3e a7 d3 89 3d
       0.17103273 0.29200187 0.12544328 0.067298226

conv4.weight f4 [16, 24, 3, 3]
000000 97 fb 72 bb e9 fa 71 bd b0 1d 28 3d 99 26 74 bd
       -0.0037076229 -0.059077177 0.041043937 -0.059607122
000010 87 5c 79 be 54 ff 12 3d 87 f6 a0 bd 3a 3a 0a be
       -0.24351703 0.03588803 -0.07859521 -0.13498774
000020 3b 05 45 3d 11 91 8e bd 37 ca 02 be 82 dc a2 3b
       0.04810069 -0.06961263 -0.12772451 0.0049701342
000030 1a 0f f2 3b ef 8c 99 bd ab 5e c4 bd 72 cb 2a 3e
       0.007387054 -0.07497584 -0.09588369 0.1667917
000040 6f e2 86 3d 85 00 76 bd 17 b7 12 3e aa cf 12 ba
       0.065861575 -0.06005909 0.14327656 -0.00056004024
000050 dd 0a 7d bd 94 47 96 3b ad 2b de bd f6 cc 8d bd
       -0.06177794 0.0045861695 -0.10848174 -0.06923859
000060 fb bc 72 bd 18 47 e1 bd be 69 90 bc 65 a4 a5 bd
       -0.059262257 -0.10999888 -0.017628547 -0.080879964
000070 94 00 b3 bd 29 7d 50 3d 10 25 41 bc b7 9f 33 be
       -0.08740345 0.050900612 -0.011788622 -0.17541395
000080 8e 84 e2 bd 27 80 11 3e 79 b8 dc 3d 75 19 a2 3c
       -0.11060439 0.14209042 0.10777373 0.01978753
000090 69 df 06 3d 5d 04 74 bc 16 5e a2 3d 3b fc 80 bb
       0.032927904 -0.014893618 0.07928102 -0.003936318
0000a0 bd b1 2b be 40 ce 99 bc b2 38 03 3e ed 68 64 bd
       -0.1676702 -0.018775105 0.12814596 -0.055764128
0000b0 08 7f 91 3d d0 47 f3 bd b1 b4 8d be 29 9f a7 bd
       0.071043074 -0.118789315 -0.2767692 -0.08184654
0000c0 a9 b1 9e bd 4a e7 af be 27 94 60 be 62 99 fb 3d
       -0.0774873 -0.34356147 -0.21931516 0.12285115
0000d0 bc 01 de bd 6b ed b1 3d 79 69 b0 3c aa 86 58 3d
       -0.108401746 0.08687862 0.021534668 0.0528628
0000e0 bd c1 3d 3e c8 07 ee bd e7 ac 1d 3d 67 2a e6 3d
       0.18530937 -0.11622578 0.03849497 0.11238556
0000f0 04 ec f6 3c 46 5b 0a 3d 77 e9 ae 3c 3c e8 30 3d
       0.030141838 0.03377845 0.02135156 0.043190226
000100 53 b8 d2 3d fd 5f b8 bd 7c 83 5e 3e e8 3f 38 3e
       0.10289063 -0.09002683 0.21729845 0.17993128
000110 e8 51 86 bd 2a cf 95 3c 43 13 3b 3d 46 b6 1e 3b
       -0.06558591 0.01828726 0.045672666 0.002421753
000120 32 85 12 be 48 a7 98 3d 8a 8b 74 3d 7f b4 96 be
       -0.14308622 0.07453781 0.059703387 -0.29434583
000130 e2 8a 1c be 89 9c 0a 3e ec 9a 6d be d9 2c c5 bc
       -0.15287355 0.13536276 -0.2320363 -0.024069237
000140 07 d8 f9 3d 36 37 94 3d 0c 80 01 3b af 8b 0e 3d
       0.12199407 0.07237093 0.001976016 0.03480118
000150 6f d4 07 be 0d 1f 1d be e0 03 04 be ef 5e 63 3d
       -0.1326463 -0.15343876 -0.12892103 0.055510458
000160 eb fd a4 bc d3 4d 72 bd a6 77 db bc d0 12 50 bd
       -0.020140609 -0.05915625 -0.026790451 -0.05079919
000170 90 60 5f 3d dc 20 09 bd ec ac 1e 3d 01 c4 53 bd
       0.05453545 -0.033478603 0.03873913 -0.051700596
000180 4a 7a ed 3d 3d 1f 43 3e b1 26 e4 3d cb 9a ca 3b
       0.115955904 0.19054885 0.11140192 0.0061830035
000190 47 34 34 be be 49 0b 3d 97 85 c4 bc c8 a0 a5 be
       -0.17598067 0.034005873 -0.023989482 -0.3234923
0001a0 1e 03 56 be d6 d6 1a 3e e7 6d af bd c1 99 1c 3d
       -0.20899627 0.15121016 -0.08565884 0.03823257
0001b0 f1 1c 1d be df 5d 92 3b 7e 2c ce 3d 47 30 a3 bd
       -0.15343072 0.0044667567 0.1006708 -0.079681925
0001c0 a7 5d 3f be df 51 a2 3d 45 e5 29 3e 72 fa 10 bd
       -0.1868807 0.07925772 0.16591366 -0.035395093
0001d0 92 28 43 3d c9 e9 38 3d 3f df 31 3e 87 8f ae 3d
       0.047646113 0.04514483 0.17370318 0.085234694
0001e0 63 ce 00 bd 49 3e cd 3d a4 70 ba 3d fc e3 0c 3e
       -0.031446826 0.100216456 0.09103516 0.13758844
0001f0 93 88 d5 3d 20 7b fa 3d fb db e0 3c 77 5a 26 3e
       0.1042644 0.122305155 0.027448645 0.16245447
000200 e2 cc af 3d e9 6f d9 3d 4c 9f d4 3d a2 7c e6 3c
       0.08584 0.10617048 0.10381946 0.028135601
000210 79 bc 5d 3e f9 eb 78 3c 97 30 1d be 21 6a 12 3d
       0.21653928 0.015192979 -0.15350567 0.035745744
000220 44 79 e6 bd e7 8d b7 bd 0e 6b 29 bd 53 fe 6b be
       -0.11253598 -0.089626126 -0.04136186 -0.23046236
000230 ad 78 01 be ba 5e ea 3c 41 9c dc bd 82 1a 9d bd
       -0.1264369 0.028609622 -0.107719906 -0.076710716
000240 34 66 b2 3c d4 35 a8 bd 19 49 59 3c 7f 47 3e be
       0.02177725 -0.08213392 0.013262057 -0.18581961
000250 0a 42 e9 bd 65 b4 06 be 37 19 f4 3c d6 9a fa bb
       -0.11389549 -0.13154753 0.02979718 -0.0076478524
000260 64 8a 10 3d cf 2a 05 3d 23 6d f9 3d 2a 15 b2 3d
       0.03528823 0.03251153 0.12179019 0.08695443
000270 92 80 ee 3c f1 1a 8e bd 4c b8 aa 3c a7 b4 2f 3e
       0.029114041 -0.069387324 0.020839833 0.17158757
000280 81 9b af bc ce ef fc bc 55 b9 d0 bc 7f 8a a3 bd
       -0.021436455 -0.030876067 -0.025478998 -0.079854004
000290 82 13 d0 bd 69 0d 86 ba 43 4e 7a be 47 4f 50 be
       -0.10159971 -0.0010227385 -0.24443917 -0.20342742
0002a0 8d 4f 16 3e b7 6f 4f 3c 41 c3 21 bd 37 5c 06 3c
       0.14678784 0.012660912 -0.03949285 0.008200697
0002b0 93 b9 7e 3d 82 96 08 3e 5c c3 81 3c 61 c8 4b bd
       0.062188696 0.13338664 0.015840225 -0.049751643
0002c0 8d 58 55 3d d0 ef 38 3e 67 8b 01 3e 03 51 b0 3c
       0.0520864 0.18060231 0.12650834 0.021523004
0002d0 18 f2 14 be 65 b2 24 be 0f 71 7b bd 57 ca 1c be
       -0.14545476 -0.16083677 -0.061387118 -0.15311562
0002e0 dd b7 1f be 68 8a ec bd 96 45 20 3c 9f 2a 07 bd
       -0.15597482 -0.115498364 0.009782216 -0.03299963
0002f0 54 38 52 3d 0f 67 a9 bd d6 73 f0 bd 22 bf 16 bd
       0.05132325 -0.0827161 -0.11740844 -0.036803372
000300 3e 8f f6 3d 55 0f 64 bd 37 7f a7 bc 01 e5 c9 3d
       0.1203904 -0.055678684 -0.020446403 0.09858132
000310 01 a4 9b bd a7 ad 58 bd 3b 34 6a 3d c6 70 51 bd
       -0.07599641 -0.052899983 0.057178717 -0.05113294
000320 d4 3b 8f bd c1 51 62 3c f7 8b 21 be 1d 05 32 bd
       -0.06993833 0.013813437 -0.15776049 -0.043461908
000330 91 13 cb 3d a7 b8 e7 bd 30 73 04 be d8 08 ce bd
       0.09915841 -0.113145165 -0.12934566 -0.100602806
000340 85 c1 ca 3d f6 b0 94 3d 53 9a 76 bd 6d 43 b4 3d
       0.09900192 0.07260315 -0.06020577 0.08801923
000350 87 b2 cf 3d d2 5c 78 3b f6 01 36 bd 61 5c 22 bd
       0.10141473 0.0037897122 -0.044435464 -0.03963888
000360 44 1d 0f bd 2a 90 1c 3d 1c e2 16 bd 4b 2b 14 3e
       -0.03494002 0.038223423 -0.03683673 0.1446964
000370 8e 32 f1 bc 3e 95 8b 3a be c6 5a 3d b5 fd 5e 3d
       -0.029443052 0.0010649336 0.05341219 0.054441173
000380 91 76 4a bc c4 cf 9d 3d f4 82 00 be ca 71 1f be
       -0.01235737 0.07705644 -0.12549955 -0.15570751
000390 e5 d7 42 3d 93 3a c2 3d a2 c2 b8 bc 65 56 9e 3d
       0.047569174 0.094838284 -0.022553746 0.07731322
0003a0 a8 b3 87 3c 21 b6 22 3d 17 a4 07 be d9 3a 97 bd
       0.016565159 0.039724473 -0.13246189 -0.07384271
0003b0 36 4f ce bd 14 45 4b bd c9 4e 11 be 87 62 0b bd
       -0.10073702 -0.049626425 -0.1419021 -0.03402951
0003c0 2c 1b eb bd bd f9 10 be 84 02 19 be 1c 7e 0f be
       -0.11479792 -0.14157768 -0.14942366 -0.1401295
0003d0 f8 01 62 bd 12 3e 25 be dc 24 05 bd cb c2 9e bd
       -0.05517766 -0.16136959 -0.032505855 -0.077519976
0003e0 a0 a2 0a be c6 3c 82 3d 99 9b 7e bc e4 4d 0d be
       -0.13538599 0.06359248 -0.015540027 -0.13799244
0003f0 85 70 8c 3c d2 de 59 bd 3d 1f ac bd 81 a8 4c 3c
       0.017143497 -0.053191014 -0.08404396 0.012491346

norm4.weight f4 [16]
000000 2d f9 93 3f 61 d9 90 3f d4 4b 81 3f 0f ad 89 3f
       1.1560417 1.1316339 1.0101266 1.0755938
000010 34 1d 8d 3f be 2a 8c 3f f2 3b 84 3f c6 b0 99 3f
       1.1024537 1.0950544 1.0330794 1.2007072
000020 ef 5a 83 3f ee a7 82 3f 4d 57 82 3f 0a 53 7e 3f
       1.0262126 1.0207498 1.0182892 0.9934546
000030 a6 54 86 3f 40 94 7e 3f e8 e3 8f 3f 5d 60 83 3f
       1.0494583 0.9944496 1.1241426 1.0263783

norm4.bias f4 [16]
000000 df 9d 81 3d be 4a 9f bd 8f fc 64 bd 3c a9 be 3d
       0.0632894 -0.07777928 -0.05590492 0.09309623
000010 aa c1 a0 3c 5b 78 d5 3c 97 d6 85 bd fc 5b 8d bd
       0.019623596 0.026058367 -0.065350704 -0.0690231
000020 71 e3 85 be a1 21 2c 3e a5 09 c7 3a 1a 5b e5 bd
       -0.26150087 0.16809703 0.0015185369 -0.11199017
000030 6b d0 e4 bd 64 c9 3e 3e fe 86 47 3e de c1 e9 bd
       -0.11172565 0.18631512 0.19485089 -0.1141393

conv5.weight f4 [32, 16, 3, 3]
000000 a5 89 02 3d 16 ca 15 be 17 71 e2 bd 06 06 4f be
       0.03186955 -0.14627871 -0.110567264 -0.20217142
000010 dd 63 58 be df c2 c3 bb ff ee cb bd 6f a8 c1 bc
       -0.21131845 -0.005974158 -0.09957694 -0.023639886
000020 1c d7 42 3d a9 f2 27 bd 6d 1d c9 bb a6 a4 a1 3a
       0.047568426 -0.041002903 -0.006137541 0.0012332394
000030 1e a4 af 3d 29 0f f9 bd 6f 23 94 3d c2 47 ac bb
       0.08576225 -0.12161095 0.07233321 -0.0052575776
000040 fc 68 98 bd 0b 69 b9 bb c7 4d 13 3d 24 9c 8d 3d
       -0.07441899 -0.005658274 0.035962846 0.06914547
000050 6a 21 2a be 94 3a 1f 3d 8a b0 19 bd 5c e1 9c bc
       -0.16614309 0.038874224 -0.037521876 -0.019150428
000060 58 bb fd 3d 2d e6 22 3d bd 63 04 be e4 1f 9d 3d
       0.123892486 0.039770294 -0.12928672 0.07672098
000070 e2 96 03 bd 58 a2 17 be 3a c5 b4 bc a4 79 14 be
       -0.032126315 -0.14808023 -0.022066701 -0.14499527
000080 8e c7 dd bd 92 b1 8f bb ed 48 60 3d 75 1a fb bc
       -0.10829078 -0.0043851817 0.054757047 -0.030652264
000090 b4 8a e1 bc 0c b6 f6 bd 4b 03 a9 bd 69 23 d6 bd
       -0.02753196 -0.120464414 -0.08252581 -0.10455973
0000a0 06 97 15 be 00 13 a3 3d 7d 59 38 3d 49 aa 99 bd
       -0.14608392 0.07962608 0.045007218 -0.075031824
0000b0 02 5c fd 3c 4e 32 f2 bd 10 0c 86 3c 28 22 a3 bc
       0.030927662 -0.11826001 0.016363174 -0.019913748
0000c0 8b 9d 20 be 22 be bc bd 53 51 0c 3d 7a 2b 17 bd
       -0.15685098 -0.092159525 0.034257244 -0.036906697
0000d0 6a 17 d4 3c 74 f6 6c 3c 05 04 a1 3d 64 10 3e 3e
       0.025890071 0.014463056 0.07862095 0.1856094
0000e0 55 4f 72 3c 10 26 c7 3e 93 86 ad 3d 3b 81 1f bc
       0.014789422 0.38896227 0.084729336 -0.009735401
0000f0 73 3f 5b 3e 23 37 a7 bd dc ef de bd 57 2c 90 bd
       0.21410923 -0.08164813 -0.10885593 -0.07039707
000100 1f d0 af 3d 4b e7 08 bc 2d ab fb bd 1e bf 62 bd
       0.08584618 -0.008355926 -0.122885086 -0.055358045
000110 2a 97 88 3c 4e 87 8f bd 84 58 55 3d c0 19 8f 3d
       0.016673643 -0.07008229 0.05208637 0.06987333
000120 cc de af bd 08 f7 fd bc 96 d8 d2 3d 42 35 02 be
       -0.08587417 -0.031001583 0.10295217 -0.12715629
000130 02 ef 21 3d 52 e3 68 3c f9 42 c3 3b e5 55 89 3d
       0.039534576 0.014214354 0.0059589115 0.06705836
000140 2b fe 9a bd 66 9d 18 3e ed 9b 95 bd ac 94 e5 3b
       -0.0756801 0.14903793 -0.07305131 0.0070062485
000150 dc 57 96 3d 58 00 02 3d 18 dc 81 3d 06 6c b5 3d
       0.073409766 0.03173861 0.06340808 0.088584945
000160 03 05 0f 3e b5 0a 8d 3d a0 fd b8 3d f1 52 58 3e
       0.13966756 0.06886808 0.0903275 0.2112539
000170 0e 2a 32 3d f7 31 b7 3d 24 b2 c6 bc 9c a3 8d 3d
       0.043497138 0.08945077 -0.024254866 0.06915972
000180 a9 d5 9b bd d5 17 d0 bd 8b db 35 3a ca 0b 18 be
       -0.07609112 -0.101607956 0.00069373165 -0.14848247
000190 0b 76 ed bd b1 52 e2 3d d0 8f 73 be 04 98 bc bc
       -0.115947805 0.110509284 -0.23785329 -0.023021705
0001a0 e7 2b b2 3d 4c c9 00 bd ce 16 04 bd c2 35 8c 3e
       0.0869978 -0.03144197 -0.03224831 0.27384764
0001b0 26 f9 99 bd 5c ea 95 3d c9 9a 77 3c d4 f1 e9 bd
       -0.075182244 0.07320091 0.015112587 -0.11423078
0001c0 05 d9 07 3e 5b 22 2e 3d ab 8b f5 3c 77 ef 35 3e
       0.1326638 0.042513233 0.029973825 0.1776713
0001d0 e7 3d 83 3d e8 75 81 3d 29 b4 7e bd e1 58 a6 bc
       0.06408291 0.06321317 -0.062183533 -0.020306053
0001e0 28 07 2d 3e 91 d7 ad 3a 1a d2 a9 bc 80 20 14 3e
       0.16897261 0.0013263096 -0.020730067 0.14465523
0001f0 c6 3e f0 3d ca ac 40 3e 2d e8 12 3e 80 f7 41 be
       0.11730723 0.18815914 0.1434638 -0.1894207
000200 d7 bc 9d bd 7b 35 b7 bd fc b1 b0 bd c2 7d cd bd
       -0.07702034 -0.089457475 -0.08627698 -0.10033752
000210 e8 52 1a bd 44 97 96 bd 6e d5 fc bd 65 bc f0 bc
       -0.03767672 -0.073530704 -0.12345396 -0.029386709
000220 6a 50 11 3d 1d 4b 98 bd d2 0f c4 bc a8 5e d3 bc
       0.03547708 -0.07436202 -0.023933325 -0.025801972
000230 ca 3f a2 bd ed 06 18 bd 0a a9 2d 3c 7d e9 10 be
       -0.07922323 -0.03711598 0.010599384 -0.14151569
000240 22 64 0d be c4 59 90 be 9b 01 06 be 1b ed ec bd
       -0.13807729 -0.28193486 -0.1308655 -0.11568662
000250 4f cb 27 bd 79 a9 e4 3c 73 70 fd 3d b8 27 8f 3e
       -0.040965375 0.027912842 0.123749636 0.2795999
000260 0c 0b c8 3d 04 ae 13 3c 25 36 86 3d e6 eb 94 bd
       0.09767732 0.0090136565 0.06553296 -0.072715566
000270 5d 0b 06 3e 9d 98 bb bd fd 92 c4 bd 67 31 84 bc
       0.13090272 -0.09159968 -0.09598348 -0.016136838
000280 7f db 83 3d 1b 46 22 3e 85 65 8b 3c 3d 60 5b 3c
       0.0643835 0.15847056 0.017016182 0.013389644
000290 65 36 7a 3c 00 0d 1d 3e 55 29 2a be 23 31 18 bd
       0.015271758 0.1533699 -0.1661733 -0.037156235
0002a0 81 90 1e be e2 60 12 bd 3b ec 3a 3e 5e f4 89 3b
       -0.15484811 -0.035736926 0.18254177 0.004210039
0002b0 7e f6 b7 bd de 78 63 bb 0b 03 82 3d 3e 51 80 bd
       -0.089825615 -0.0034709494 0.06348237 -0.06265496
0002c0 ba 43 1f bd 4b b2 6a bc b6 8f 3f 3c a7 54 be 3c
       -0.03888295 -0.014324735 0.011691978 0.023233725
0002d0 dc 0f 29 3b 47 06 00 bc 50 79 a7 bc 9b b8 13 3a
       0.0025796806 -0.007813997 -0.020443588 0.00056351133
0002e0 95 71 ac bd 9a c5 19 3e 8d 7b 05 be 65 db 7d 3c
       -0.084201016 0.15016785 -0.13035412 0.015494202
0002f0 15 80 ab 3b 5c de b1 3c 3e b5 0c 3e 2b 03 ae bc
       0.0052337744 0.021712475 0.13741013 -0.021241745
000300 c9 f8 3d 3c ab 8d 26 be f5 a4 97 bd e8 d9 66 3c
       0.01159496 -0.1626498 -0.0740451 0.014090039
000310 3a 2f 8e bd 28 68 f9 bc 73 24 3f 3d 95 f2 9b 3e
       -0.069426015 -0.030445173 0.04666562 0.30458513
000320 18 c9 a0 bd 3c 4f 38 3e 1b 18 08 bd b7 19 d4 3c
       -0.078508556 0.17998976 -0.033226114 0.025891168
000330 8c 72 d7 bd 1f dc 6d bd 50 23 0a 3e 03 f8 30 3d
       -0.10519895 -0.058071252 0.13490033 0.043205272
000340 6a ea 9b 3e 3c 85 03 3e d3 4d 13 3e d8 6e 6a bd
       0.3045228 0.12843794 0.14385156 -0.057234615
000350 88 e8 ca bd d9 21 00 3c 9f 6d db bd 0b 8a fe bd
       -0.09907633 0.00782057 -0.10714268 -0.12428673
000360 04 b9 9d bd 3d f2 9a bd 5f 19 4e 3c c5 79 51 bd
       -0.077013046 -0.075657345 0.012579291 -0.05114152
000370 7c 27 3f 3d 49 f7 d1 3d ab d8 79 bb 2b 10 1d bd
       0.046668515 0.10252244 -0.003812353 -0.038345497
000380 13 bd 2f be b6 bb 88 3d 89 1c 06 be 9e b8 48 3d
       -0.1716197 0.06676428 -0.13096823 0.04900419
000390 b8 5c 47 3d 31 8b 1c 3e 6c b4 25 3e 15 9f 9f 3e
       0.048672408 0.15287472 0.16182107 0.31176057
0003a0 04 cc 66 3e f1 9c 65 3d 52 5f 07 3d 9d 37 46 3e
       0.22538763 0.056057874 0.03304989 0.19357152
0003b0 96 e9 75 3d a8 e7 33 3e dd 8c 9e bd 20 65 89 bd
       0.060037218 0.17568839 -0.07741711 -0.06708741
0003c0 96 82 5c be ba bf 61 be 31 27 29 3d ed 02 11 be
       -0.2153419 -0.22045794 0.04129714 -0.14161272
0003d0 85 60 46 be 1b dc 9a 3d c6 18 68 bc 1e 09 5e 3d
       -0.19372757 0.07561513 -0.014166063 0.054207914
0003e0 93 c4 01 3d e7 7d 8d 3d 64 7a fe bd ee 41 e1 bd
       0.03168161 0.069087796 -0.12425688 -0.10998903
0003f0 2c 8e 14 bd fb 3d 67 bd 97 27 0b bd 11 ae 73 bb
       -0.0362684 -0.056455594 -0.033973303 -0.003718261

norm5.weight f4 [32]
000000 97 4f 8d 3f 0e 00 88 3f 1b 2b 8b 3f cc ef 6e 3f
       1.1039914 1.0625017 1.087253 0.9333465
000010 09 8b 90 3f 70 c3 7a 3f 88 b1 8b 3f 01 3e 83 3f
       1.129243 0.97954464 1.0913553 1.0253297
000020 f6 1c 87 3f 47 9c 8f 3f 49 07 5c 3f a0 26 72 3f
       1.0555713 1.1219567 0.85948616 0.9459019
000030 25 c2 85 3f 49 06 62 3f 04 e2 84 3f 7b 2e 82 3f
       1.0449873 0.8829084 1.0381474 1.0170435
000040 24 fa 4d 3f bc fb 86 3f ad 49 88 3f 50 16 79 3f
       0.8045981 1.0545573 1.0647484 0.9729967
000050 1a 77 7c 3f 18 61 97 3f 36 86 75 3f 7e c6 85 3f
       0.98619235 1.1826506 0.95907915 1.04512
000060 fe 81 88 3f ce 27 85 3f 6c 6a 84 3f f7 2d 86 3f
       1.066467 1.0402772 1.0344977 1.0482777
000070 0a 5d 84 3f 3a 6c 82 3f 76 0d 69 3f 2b fe 84 3f
       1.0340893 1.0189278 0.91036165 1.0390066

norm5.bias f4 [32]
000000 a3 b6 4f be e7 d0 73 be e4 96 4f be 67 d7 07 3c
       -0.20284514 -0.23810159 -0.20272404 0.008291102
000010 80 07 95 bd 9e 91 8d 3e 1f 67 0d be 59 ae 52 bd
       -0.07276821 0.2765016 -0.13808869 -0.051435802
000020 08 e7 3f be 41 ce 9b bd d5 e8 77 3d 30 33 94 3d
       -0.18740475 -0.07607699 0.06052478 0.07236326
000030 7a 58 7e 3d 8b 41 ce 3d 08 42 d9 3b b8 82 32 3d
       0.062096097 0.10071095 0.006630186 0.043581694
000040 94 6b 0d 3e 57 5b 18 3e 84 0d 7b be cf a9 00 3d
       0.13810569 0.14878593 -0.24516875 0.031411942
000050 b8 c3 0b be 59 90 05 be ff 8a 4a be b2 ac 03 3d
       -0.1364888 -0.13043346 -0.19779585 0.032147117
000060 c4 3a 90 bd f3 50 30 bc 79 56 70 be a1 39 42 be
       -0.07042459 -0.010761487 -0.23470487 -0.18967296
000070 3b 19 16 be 75 35 d6 3d c5 23 55 3d a0 6a 88 be
       -0.14658062 0.10459415 0.052036066 -0.26643848
