S8/Weights/model_bn.pth (torch, 165249 bytes, 43 tensors)

conv1.weight f4 [10, 3, 3, 3]
-0.65263224 0.02006481 -0.15133847 -0.06778392 -0.71644545 -0.19203602 0.89503837 0.33789074
0.61867124 -0.021408627 -0.03246172 -0.05724612 0.12892449 -0.5650222 -0.24098629 0.51012975
0.22804575 0.13824797 -0.0053068358 0.20736976 0.15889634 -0.10750317 -0.76032794 -0.09655539
0.34201464 -0.17822032 0.15381902 0.35847735 0.0014788258 0.11357976 0.6360367 0.08795819
0.46609864 -0.088785 0.2620561 0.25248674 0.15668231 -0.5680644 0.07960049 0.021920523
-0.69495726 0.038489368 -0.3439898 -0.01280738 -0.024753187 0.39834678 -0.27940717 -0.17811915
0.31388667 -0.60957855 -0.32810953 0.08356171 0.01307433 -0.32849976 -0.33684626 -0.06226047
-0.22191882 -0.657633 0.45779213 0.1531391 0.32628956 0.26455817 -0.15524654 -0.35986778
0.18380272 -0.07934279 -0.6154352 0.5269024 0.46450603 0.1515926 -0.16194774 -0.156834
-0.2620644 0.17160386 -0.03269706 -0.75778246 0.420383 0.42060772 0.15456569 -0.117619775
-0.19515795 -0.014460388 0.058627468 0.13707468 -0.014272911 0.21255426 0.77210325 -0.021738607
-0.07908973 -0.03381128 -0.19175941 -0.4260739 0.103765726 -0.048382346 -0.36278325 0.39453942
0.16179304 -0.4228531 -0.048988525 -0.31075948 -0.26644668 0.17753823 -0.3585589 -0.09319638
0.75557137 0.08816557 -0.15017831 0.18707496 0.5270798 0.26269472 -0.15054311 0.40152016
-0.59233624 -0.5793563 -0.20001118 0.41494393 -0.070235856 0.38909668 0.033269458 0.023177067
0.5598768 -0.5931866 -0.5206051 -0.2928216 0.36035702 0.14654331 0.22157644 -0.07871705
-0.22466333 0.39136162 -0.45565176 -0.31622854 -0.092368595 0.2922486 0.00468489 0.46310672
0.54195505 0.44090834 -0.33088234 -0.24268995 0.05417792 -0.25731665 -0.37516105 -0.11616611
0.094902374 0.5650045 0.3218658 -0.36888874 -0.5473107 0.14148238 -0.05864619 -0.46374547
-0.013443824 0.1224964 0.4893359 0.011930614 0.05803653 -0.26629987 0.061759934 -0.18754423
-0.04924788 -0.17367917 0.3773243 -0.15274432 -0.029088408 -0.260705 -0.2367198 -0.4420602
-0.10042716 0.015580073 -0.16658661 -0.1732758 -0.1980631 0.1311533 -0.19047281 0.17715433
-0.2951211 -0.35481188 0.35315254 0.03256904 -0.3620212 0.15053083 0.21257515 -0.07243897
0.58303165 0.16963147 -0.10247513 0.8113295 0.42618236 -0.07954649 -0.39805508 -0.1657636
-0.061867595 -0.062577166 0.34225464 -0.13620938 0.12355681 -0.030861551 -0.1339448 -0.5084277
-0.15061672 -0.25989053 -0.26932153 0.32662815 -0.21616262 -0.1967786 -0.10295775 0.44979528
0.15334521 0.14462101 0.11852468 0.083703086 -0.0019391774 -0.12350809 0.10780313 -0.06535993
-0.5062784 0.3583078 -0.043023348 -0.24268647 0.20738892 0.23655544 0.13179941 0.21638359
0.3185172 -0.36349237 0.77197033 0.34161696 -0.013411525 0.098673046 -0.02430165 0.11584458
0.1160573 -0.11074893 0.044446636 0.31575406 -0.3444066 -0.3198578 -0.3156492 -0.7157697
0.08793096 -0.2647124 -0.33468974 0.28940007 -0.2929346 0.10806016 -0.14858931 0.32362458
-0.26745006 -0.38523284 -0.06346868 -0.14912388 -0.18734533 -0.3643801 -0.23265073 -0.0976734
00000000: e812 27bf f55e a43c 79f8 1abe 4cd2 8abd
00000010: f868 37bf 17a5 44be 3c21 653f 0400 ad3e
00000020: 3d61 1e3f 2561 afbc 95f6 04bd e87a 6abd
00000030: c804 043e 4ba5 10bf 1cc5 76be dd97 023f
00000040: d384 693e e090 0d3e f7e4 adbb bd58 543e
00000050: b9b5 223e 9f2a dcbd daa4 42bf d5be c5bd
00000060: 8b1c af3e 637f 36be bc82 1d3e 588a b73e
00000070: 29d5 c13a 819c e83d 4dd3 223f 6c23 b43d
00000080: 7ba4 ee3e e9d4 b5bd 382c 863e f145 813e
00000090: 5471 203e ab6c 11bf 9505 a33d ab92 b33c
000000a0: b8e8 31bf 07a7 1d3d 6e1f b0be 0cd6 51bc
000000b0: 32c7 cabc 1cf4 cb3e 750e 8fbe de64 36be
000000c0: c1b5 a03e 570d 1cbf f9fd a7be 6722 ab3d
000000d0: b735 563c 1f31 a8be 1d77 acbe d604 7fbd
000000e0: b03e 63be a35a 28bf bb63 ea3e 7fd0 1c3e
000000f0: 6d0f a73e 2b74 873e f3f8 1ebe 9740 b8be
00000100: c836 3c3e 797e a2bd 298d 1dbf 13e3 063f
00000110: bcd3 ed3e 173b 1b3e a1d5 25be 1899 20be
00000120: 4e2d 86be ecb8 2f3e 5aed 05bd 08fe 41bf
00000130: 713c d73e e559 d73e 7846 1e3e a3e2 f0bd
00000140: 7cd7 47be 43eb 6cbc 5b23 703d 4e5d 0c3e
00000150: edd8 69bc d3a7 593e 8fa8 453f 2a15 b2bc
00000160: ccf9 a1bd b27d 0abd 945c 44be 5c26 dabe
00000170: 2083 d43d 912c 46bd babe b9be 1201 ca3e
00000180: 13ad 253e 3480 d8be 31a8 48bd de1b 9fbe
00000190: b36b 88be 95cc 353e 0895 b7be bedd bebd
000001a0: 206d 413f 2690 b43d 58c8 19be 9490 3f3e
000001b0: b4ee 063f ec7f 863e f927 1abe 0d94 cd3e
000001c0: 59a3 17bf b250 14bf bbcf 4cbe 8873 d43e
000001d0: d1d7 8fbd ae37 c73e 8e45 083d d5dd bd3c
000001e0: 1654 0f3f 14db 17bf 6046 05bf b6ec 95be
000001f0: b780 b83e 730f 163e efe4 623e 6836 a1bd
00000200: 250e 66be 8d60 c83e 304b e9be b5e8 a1be
00000210: bf2b bdbd 9ca1 953e b583 993b 531c ed3e
00000220: 91bd 0a3f bdbe e13e 6969 a9be b783 78be
00000230: abe9 5d3d 02bf 83be 1c15 c0be 7fe8 edbd
00000240: 2d5c c23d 23a4 103f 98cb a43e fcde bcbe
00000250: 8e1c 0cbf c2e0 103e fd36 70bd 0c70 edbe
00000260: 7c43 5cbc 64df fa3d 3c8a fa3e 9f78 433c
00000270: b6b7 6d3d 7558 88be fcf7 7c3d 980b 40be
00000280: 25b8 49bd f4d8 31be a730 c13e 0269 1cbe
00000290: d04a eebc 207b 85be ad66 72be b755 e2be
000002a0: c1ac cdbd 9043 7f3c ae95 2abe 366f 31be
000002b0: 0ed1 4abe 0d4d 063e 4e0b 43be f267 353e
000002c0: 1d1a 97be e7a9 b5be 69d0 b43e 1d67 053d
000002d0: d85a b9be c124 1a3e 4dad 593e e25a 94bd
000002e0: 9041 153f dfb3 2d3e 7bde d1bd 4ab3 4f3f
000002f0: 9334 da3e 45e9 a2bd e0cd cbbe efbd 29be
00000300: e068 7dbd 7528 80bd 003c af3e 797a 0bbe
00000310: 5a0b fd3d 5dd1 fcbc d328 09be 5128 02bf
00000320: 453b 1abe 5f10 85be 83e4 89be ce3b a73e
00000330: bc59 5dbe 5480 49be 83db d2bd 914b e63e
00000340: 8706 1d3e 8817 143e 11bd f23d 866c ab3d
00000350: ff2b feba cff1 fcbd e3c7 dc3d 6ddb 85bd
00000360: 769b 01bf 1f74 b73e 4039 30bd cd82 78be
00000370: c35d 543e 973b 723e 6df6 063e a993 5d3e
00000380: b014 a33e ac1b babe d99f 453f 6be8 ae3e
00000390: 03bc 5bbc 1815 ca3d 4114 c7bc ec3f ed3d
000003a0: 73af ed3d 56d0 e2bd ad0d 363d 84aa a13e
000003b0: 1056 b0be 67c4 a3be c69c a1be af3c 37bf
000003c0: 2615 b43d 6288 87be 745c abbe 3f2c 943e
000003d0: 86fb 95be a54e dd3d cc27 18be 1fb2 a53e
000003e0: 37ef 88be 3d3d c5be defb 81bd eeb3 18be
000003f0: 74d7 3fbe 0790 babe fe3b 6ebe fe08 c8bd

norm1.weight f4 [10]
1.1993524 0.9868741 1.1419051 0.9398948 1.2180254 0.9639487 0.9383373 0.54438025
0.89210814 1.0901042
00000000: 6184 993f c8a3 7c3f f229 923f f29c 703f
00000010: 42e8 9b3f 58c5 763f e036 703f 815c 0b3f
00000020: 3361 643f 8988 8b3f

norm1.bias f4 [10]
-0.12086505 -0.06431092 -0.4163479 -0.2366009 -0.2637906 -0.110313386 0.04427576 0.285237
0.019534314 -0.12021116
00000000: 1888 f7bd 72b5 83bd 8d2b d5be 8247 72be
00000010: 900f 87be fceb e1bd 805a 353d 960a 923e
00000020: 6d06 a03c 4531 f6bd

norm1.running_mean f4 [10]
0.29725033 0.31747928 0.22108547 0.22893165 0.25247604 0.30050775 0.157469 0.25425467
0.30306748 0.20078495
00000000: 3231 983e a58c a23e 3b64 623e 0f6d 6a3e
00000010: 8a44 813e 27dc 993e 8e3f 213e ab2d 823e
00000020: a92b 9b3e 929a 4d3e

norm1.running_var f4 [10]
0.31266472 0.21215995 0.15770477 0.1681958 0.22053638 0.30766946 0.104540385 0.11819246
0.14709906 0.13993852
00000000: 9715 a03e 7540 593e 5c7d 213e 853b 2c3e
00000010: 4ad4 613e da86 9d3e 4519 d63d e30e f23d
00000020: 23a1 163e 0b4c 0f3e

conv2.weight f4 [10, 10, 3, 3]
0.061921865 0.121239156 0.18364349 0.33948362 0.16444115 0.06120886 -0.062131736 0.12083203
0.10651314 -0.44707632 -0.24838664 -0.11033902 0.020610077 0.08183412 -0.17408131 0.6188415
0.05555476 0.10434729 0.091092564 -0.26205775 -0.1411919 -0.19708638 0.38348576 0.04658031
-0.12709084 0.19687994 -0.15953724 -0.05570294 -0.5063649 -0.19266991 -0.035450228 -0.15562752
0.1298027 0.20706101 0.06827358 0.08389957 -0.10057007 0.11947865 -0.070433475 -0.014597093
-0.1486376 -0.11234285 -0.053917337 -0.1830584 -0.01978376 0.13701408 0.14740317 0.20930739
-0.08679591 0.119109295 -0.11240532 -0.056560434 -0.08607103 -0.0636573 -0.14158249 0.23521625
-0.009372238 -0.1365541 0.06344012 0.07814945 -0.20511432 -0.13537738 -0.04714745 -0.13902223
0.05223764 -1.8389542e-06 0.14971766 0.17849864 0.096327685 0.3094162 0.13109052 0.03885623
-0.42311358 -0.25320497 0.028331136 -0.22775462 -0.07570851 0.07857554 0.0066931816 0.32158506
0.3413394 -0.089887045 0.16351612 0.030843718 -0.19073121 0.1908665 0.07164373 -0.18928531
0.116420165 -0.20048222 -0.04017964 0.37246954 -0.23405097 -0.3341208 -0.25172108 -0.21785189
0.19868255 -0.26481372 0.04802502 0.17734982 -0.09264015 0.34872395 -0.27093574 0.2441797
0.2141361 -0.06248772 -0.04225443 -0.19151005 -0.10188 -0.08527501 -0.17933223 0.045588445
-0.61283755 0.06846151 -0.06041626 -0.30383188 0.34806976 -0.20608415 0.21190268 -0.11027587
-0.29770055 -0.18647309 0.073040254 -0.05608373 -0.05183786 0.056685075 0.045499362 -0.2908301
0.05640474 -0.41237926 0.4636658 -0.038260054 0.21777336 0.09892132 -0.17054637 -0.39925373
-0.08685396 0.098786615 -0.26252997 -0.14822517 0.023495559 -0.014924883 -0.030831413 -0.20553185
0.2520956 -0.44281676 -0.0045304275 0.1358205 -0.31330502 -0.030698333 0.06511218 -0.010645724
0.18518156 0.18688093 -0.12580189 0.37927032 -0.1925583 -0.10246707 0.33546534 -0.18887895
0.17336248 0.045853432 0.032830536 0.14891022 0.06333075 0.15702611 -0.37317416 0.0059295995
0.16450189 -0.4240453 0.24120438 0.24351725 -0.12861083 0.046100605 0.012055499 -0.2651525
-0.056899425 -0.18794711 -0.11690881 0.01689113 0.029832797 -0.14025627 -0.06887097 -0.010231421
-0.28547993 -0.025901642 -0.008758864 -0.091559574 0.040532883 0.09466057 -0.004738514 0.33954987
-0.16608968 -0.18495671 0.12712638 -0.54069066 -0.24487093 0.32443848 -0.19225174 -0.013304182
0.088907875 0.10236445 -0.032021414 -0.059223242 0.19350895 -0.25872687 0.043041192 0.16391872
0.26594934 0.12028356 -0.00781615 0.02991886 0.0036287955 0.1046557 -0.15563847 -0.015433213
-0.28186807 -0.44649917 -0.13078335 -0.1874726 -0.08230939 0.09098753 -0.1512 0.11919439
-0.03444055 0.15612642 -0.03165266 -0.1858168 -0.15008575 0.20763455 0.28865355 -0.34644964
-0.08244253 0.038502183 -0.19767429 0.034553744 0.18291193 0.0724753 0.025126185 -0.25091064
0.27274165 0.0521148 -0.04522013 -0.13353872 0.071116045 0.08104548 0.07555196 -0.02095255
0.07032232 0.11965219 -0.03838191 0.07317993 0.041267574 0.11902705 0.35461587 -0.31126216
00000000: c8a1 7d3d 3c4c f83d 0a0d 3c3e ccd0 ad3e
00000010: 4363 283e 24b6 7a3d d97d 7ebd c976 f73d
00000020: 9023 da3d 30e7 e4be 1159 7ebe 6df9 e1bd
00000030: 77d6 a83c a698 a73d 5f42 32be 666c 1e3f
00000040: 638d 633d 08b4 d53d bd8e ba3d 6f2c 86be
00000050: 9c94 10be 03d1 49be 3f58 c43e ffca 3e3d
00000060: 1a24 02be e59a 493e bb5d 23be c428 64bd
00000070: 21a1 01bf 434b 45be 4234 11bd d25c 1fbe
00000080: 00eb 043e cd07 543e 05d3 8b3d 8ad3 ab3d
00000090: aef7 cdbd 39b1 f43d 6d3f 90bd a528 6fbc
000000a0: 7434 18be 0214 e6bd 6dd8 5cbd a973 3bbe
000000b0: 8d11 a2bc 6b4d 0c3e dbf0 163e ad54 563e
000000c0: 0ec2 b1bd 93ef f33d c334 e6bd eaab 67bd
000000d0: 0246 b0bd c25e 82bd 00fb 10be 87dc 703e
000000e0: 048e 19bc d7d4 0bbe e5ec 813d d20c a03d
000000f0: 7d09 52be 5ea0 0abe af1d 41bd d85b 0ebe
00000100: 23f7 553d fcd1 f6b5 964f 193e 59c8 363e
00000110: 7347 c53d cd6b 9e3e 983c 063e b627 1f3d
00000120: 58a2 d8be 15a4 81be b316 e83c 8238 69be
00000130: 100d 9bbd 36ec a03d 7a52 db3b cca6 a43e
00000140: 0ac4 ae3e b316 b8bd c570 273e f7ab fc3c
00000150: 0b4f 43be 8272 433e f3b9 923d 02d4 41be
00000160: b26d ee3d 364b 4dbe 6893 24bd 54b4 be3e
00000170: 0fab 6fbe e211 abbe 96e1 80be 9114 5fbe
00000180: 7073 4b3e aa95 87be e2b5 443d 319b 353e
00000190: 1eba bdbd f28b b23e 17b8 8abe 3e0a 7a3e
000001a0: 7e46 5b3e 20f3 7fbd fb12 2dbd 361b 44be
000001b0: 76a6 d0bd aaa4 aebd dea2 37be f3ba 3a3d
000001c0: ece2 1cbf 8c35 8c3d 0a77 77bd da8f 9bbe
000001d0: 3336 b23e b907 53be 04fd 583e 51d8 e1bd
000001e0: 356c 98be cdf2 3ebe 2196 953d 0eb8 65bd
000001f0: f053 54bd 9c2e 683d 8a5d 3a3d afe7 94be
00000200: a808 673d 6023 d3be 9b65 ed3e 93b6 1cbd
00000210: fbff 5e3e 4397 ca3d b5a3 2ebe fc6a ccbe
00000220: 7de0 b1bd a350 ca3d 546a 86be 57c8 17be
00000230: c279 c03c 7f87 74bc 2992 fcbc f176 52be
00000240: ad12 813e e1b8 e2be fb73 94bb 8714 0b3e
00000250: 8469 a0be 127b fbbc 8959 853d 676b 2ebc
00000260: 3ca0 3d3e b75d 3f3e 36d2 00be b82f c23e
00000270: 012e 45be 41da d1bd 1dc2 ab3e 7c69 41be
00000280: ef85 313e cfd0 3b3d 5079 063d ec7b 183e
00000290: 8db3 813d 74cb 203e af10 bfbe 164d c23b
000002a0: 2f73 283e 771c d9be 48fe 763e 965c 793e
000002b0: 8fb2 03be fdd3 3c3d 6d84 453c 12c2 87be
000002c0: 5f0f 69bd 3575 40be e36d efbd 445f 8a3c
000002d0: e963 f43c 579f 0fbe 390c 8dbd b1a1 27bc
000002e0: 6d2a 92be ae2f d4bc 5781 0fbc 9683 bbbd
000002f0: cf05 263d 67dd c13d 8945 9bbb 7bd9 ad3e
00000300: 6a13 2abe 4b65 3dbe 6b2d 023e b46a 0abf
00000310: 72bf 7abe cd1c a63e a4dd 44be c9f9 59bc
00000320: 5515 b63d 74a4 d13d e328 03bd 1294 72bd
00000330: 3627 463e d977 84be f64b 303d 4fda 273e
00000340: 832a 883e 3a57 f63d 4f0f 00bc 6618 f53c
00000350: 16d1 6d3b ba55 d63d b15f 1fbe 96db 7cbc
00000360: 0351 90be 8a9b e4be 12ec 05be d1f8 3fbe
00000370: d391 a8bd ac57 ba3d 2cd4 1abe 301c f43d
00000380: 8911 0dbd 9bdf 1f3e 38a6 01bd c246 3ebe
00000390: 14b0 19be 279e 543e 66ca 933e d961 b1be
000003a0: a1d7 a8bd 77b4 1d3d 216b 4abe 3a88 0d3d
000003b0: 444d 3b3e ee6d 943d 6ed5 cd3c 5c77 80be
000003c0: cba4 8b3e 5476 553d be38 39bd 60be 08be
000003d0: 4aa5 913d 2cfb a53d fcba 9a3d afa4 abbc
000003e0: 2605 903d 350c f53d 5a36 1dbd 5cdf 953d
000003f0: 3008 293d 74c4 f33d 3690 b53e c15d 9fbe

norm2.weight f4 [10]
0.923236 1.1192374 0.9507694 0.92553014 1.0126431 1.0178374 0.8515375 1.0177351
1.0782636 1.0984366
00000000: 3259 6c3f 2c43 8f3f a065 733f 8bef 6c3f
00000010: 4a9e 813f 7f48 823f 5dfe 593f 2545 823f
00000020: 8b04 8a3f 9299 8c3f

norm2.bias f4 [10]
-0.2459464 -0.32616916 0.05246722 -0.1358868 -0.22883572 -0.09858664 0.11245212 -0.38368472
-0.11018881 0.23360014
00000000: 60d9 7bbe a5ff a6be dee7 563d e925 0bbe
00000010: e953 6abe cbe7 c9bd 4c4d e63d 5372 c4be
00000020: acaa e1bd e034 6f3e

norm2.running_mean f4 [10]
0.82435477 1.6347212 0.9753619 0.7712384 0.9179397 1.2468904 0.8006035 1.3946469
1.448267 1.6491913
00000000: ea08 533f 8b3e d13f 51b1 793f e16f 453f
00000010: 19fe 6a3f 1b9a 9f3f 5af4 4c3f ca83 b23f
00000020: d060 b93f b318 d33f

norm2.running_var f4 [10]
1.6060834 2.0056546 1.0330925 1.3533932 1.9175857 1.3607854 1.5668659 2.1980631
2.2686012 1.7774277
00000000: 2494 cd3f a55c 0040 603c 843f fd3b ad3f
00000010: 7373 f53f 372e ae3f 108f c83f 11ad 0c40
00000020: c330 1140 c082 e33f

tns1.weight f4 [16, 10, 1, 1]
-0.03001497 0.5750982 -0.15112764 -0.0022420187 0.52197754 -0.03969263 -0.19176428 -0.30317605
-0.12037618 0.27133727 -0.2154015 -0.49463633 0.15232733 -0.1601728 -0.026480235 0.09185508
0.42226717 -0.34415555 0.34282616 0.36994907 0.08501307 0.017233176 0.5250519 0.25243497
0.36960167 -0.17785706 -0.29386422 0.31405315 -0.20090626 -0.334117 0.30880305 -0.37059635
-0.1538377 -0.23060444 0.050284054 -0.41784948 -0.12621246 0.36027372 0.22307369 0.5985151
0.46687493 -0.32163313 -0.0903719 -0.21060984 -0.089876324 -0.27947527 -0.07411213 -0.030019755
-0.6082353 -0.033645775 -0.0786252 -0.39025435 0.4993013 -0.0062030596 -0.4425201 0.008044196
0.30797675 0.0898232 0.22032548 -0.23474972 -0.4922561 0.39663628 -0.0034234477 -0.32728237
-0.5263807 -0.31708762 -0.30134296 0.41151392 -0.20569803 -0.39352274 -0.20282918 0.010110192
-0.11923401 0.024354117 0.20225105 0.35241705 -0.4356812 0.044796746 0.6957762 -0.16957363
-0.17551883 0.24848177 0.107104674 0.41287526 -0.10661311 -0.46959358 0.49067295 -0.19574147
-0.037040383 0.26394415 0.43648046 0.45973352 -0.20170231 -0.13229322 0.22395223 -0.23229234
0.3246066 0.5478952 0.109280266 -0.21882503 -0.26406527 -0.071353056 -0.1300169 -0.04490063
-0.46876067 0.583172 -0.11679538 -0.34088707 -0.29121965 0.12278296 -0.113158025 0.33598554
0.47480872 -0.38568476 -0.22709985 0.14895564 0.04617807 -0.27875644 -0.29111803 -0.047710367
0.52210575 0.008871677 -0.37356654 -0.18092744 -0.23074572 0.23960778 0.19448039 -0.08947249
0.36702356 -0.49974874 0.19029379 -0.38916793 0.1299513 0.5249435 0.43923488 0.13961883
0.19644824 -0.20909621 -0.28649232 0.3489808 -0.16871576 0.3668014 -0.13940996 0.4503765
-0.13487782 0.10635403 0.2817589 -0.2089184 -0.29007915 -0.35537043 0.17405821 0.07825465
-0.4839685 0.41633728 -0.08080764 -0.17092924 -0.5772156 0.18181309 -0.19652799 -0.17424326
00000000: f4e1 f5bc a339 133f 34c1 1abe d5ee 12bb
00000010: 52a0 053f bd94 22bd db5d 44be e439 9bbe
00000020: c987 f6bd b8ec 8a3e 3692 5cbe f940 fdbe
00000030: b2fb 1b3e 5704 24be 14ed d8bc 841e bc3d
00000040: 6733 d83e 2835 b0be e986 af3e f769 bd3e
00000050: 551b ae3d 972c 8d3c cd69 063f 283f 813e
00000060: 6e3c bd3e 2920 36be 5f75 96be 93cb a03e
00000070: 5fba 4dbe 6211 abbe 6f1b 9e3e cebe bdbe
00000080: a187 1dbe 9223 6cbe a7f6 4d3d 5ef0 d5be
00000090: d73d 01be cc75 b83e 6e6d 643e 4938 193f
000000a0: 3b0a ef3e 19ad a4be e714 b9bd 1baa 57be
000000b0: 1411 b8bd 6217 8fbe 1ac8 97bd fdeb f5bc
000000c0: 4fb5 1bbf 27d0 09bd 4006 a1bd 6bcf c7be
000000d0: 6ca4 ff3e 0943 cbbb ff91 e2be cecb 033c
000000e0: 21af 9d3e 3af5 b73d 019d 613e 3b62 70be
000000f0: fe08 fcbe e913 cb3e ec5b 60bb 8e91 a7be
00000100: e3c0 06bf 4f59 a2be a049 9abe f4b1 d23e
00000110: 81a2 52be d07b c9be 74b2 4fbe 38a5 253c
00000120: f630 f4bd 4982 c73c e61a 4f3e 0270 b43e
00000130: 9b11 dfbe cb7c 373d 641e 323f b6a4 2dbe
00000140: 35bb 33be 0172 7e3e b259 db3d 6364 d33e
00000150: f957 dabd 926e f0be 7c39 fb3e 7470 48be
00000160: a8b7 17bd b023 873e 5e7a df3e 3162 eb3e
00000170: 0d8b 4ebe e077 07be bc53 653e 0bde 6dbe
00000180: d632 a63e dc42 0c3f 55ce df3d ab13 60be
00000190: 9033 87be 8d21 92bd 2623 05be b9e9 37bd
000001a0: 6601 f0be c34a 153f 6b32 efbd c088 aebe
000001b0: be1a 95be a275 fb3d 65bf e7bd 4c06 ac3e
000001c0: 211a f33e 7978 c5be dd8c 68be d487 183e
000001d0: 3725 3d3d 2ab9 8ebe 6c0d 95be f26b 43bd
000001e0: b9a8 053f 835a 113c 1d44 bfbe 0b45 39be
000001f0: 9b48 6cbe be5b 753e de25 473e 5a3d b7bd
00000200: 83ea bb3e 11df ffbe 60dc 423e 0541 c7be
00000210: f411 053e b262 063f 65e3 e03e 3df8 0e3e
00000220: ba29 493e 511d 56be 1faf 92be 9dad b23e
00000230: d3c3 2cbe 65cd bb3e 7cc1 0ebe c097 e63e
00000240: 691d 0abe 24d0 d93d b442 903e b4ee 55be
00000250: 4185 94be 1df3 b5be 513c 323e f943 a03d
00000260: b8ca f7be 292a d53e 7a7e a5bd 1308 2fbe
00000270: 67c4 13bf 362d 3a3e a23e 49be d36c 32be

conv3.weight f4 [24, 16, 3, 3]
-0.032174632 0.2636181 0.05530764 0.210506 0.073400654 -0.17633682 0.11588255 -0.09281187
-0.0018496051 0.050416738 -0.028638916 0.026309675 -0.020237386 0.06519544 0.011118536 0.035103723
0.037503507 0.04602284 -0.21153411 0.17416932 0.14530604 -0.10768048 0.22797371 0.07520972
-0.007837118 -0.043659166 0.15114422 -0.18805538 -0.21175969 -0.06215078 -0.27041608 -0.099605784
0.1450358 0.044939097 0.060749996 0.069329165 -0.082926504 -0.16718665 0.04626731 -0.022270355
0.009355629 0.13262343 0.11256626 0.19963458 0.08581474 -0.048472296 0.06774869 -0.011380063
-0.04557638 0.20632254 0.07729444 0.046570294 0.10271082 -0.12132927 -0.2738635 -0.22928052
-0.13451833 -0.0791863 -0.00038893087 -0.0043584667 0.08908347 0.2524584 0.21813191 -0.094071135
-0.05862516 -0.16368769 -0.01569088 -0.09606067 -0.042214174 -0.10872717 -0.10236164 0.04133245
-0.068998925 0.015982976 -0.042733718 0.013819721 0.20764025 -0.04459613 -0.044291206 -0.0912139
-0.032815967 0.03630429 -0.014119076 -0.015412181 0.05522029 -0.015830321 -0.05561103 0.02941252
-0.03289084 -0.013406874 -0.35948327 -0.16543087 -0.014700824 -0.1042469 -0.05123669 0.19646253
-0.005142958 0.037986726 -0.0072200405 -0.13781123 -0.0074055823 -0.06066311 -0.041479878 0.13756481
-0.011249321 -0.1355241 0.12957454 0.087399006 -0.12271902 -0.14993392 0.018326854 -0.11394842
0.059671286 0.05438219 -0.08172145 0.20754947 -0.120372444 -0.19592592 0.056099594 -0.09209351
-0.09049571 0.025097465 -0.10622055 -0.13332476 -0.053964484 0.0056199995 -0.20591198 -0.058854517
0.023425683 0.071467996 0.13909075 -0.10831732 0.062205113 0.031845883 -0.037316147 0.023124931
0.05820746 -0.008107843 -0.047772214 0.041840732 -0.004541486 0.12481437 0.10441022 -0.06007172
-0.06487429 0.07628426 0.11617696 -0.03905299 -0.0673303 -0.09342217 -0.12931114 -0.033000223
0.026584111 -0.080605686 0.117987715 -0.05771498 -0.2251619 -0.20075119 0.043121185 0.079405345
-0.03221581 -0.007825907 0.012884175 0.10713563 -0.0023374136 -0.18033552 0.11169216 0.1104778
-0.25896227 -0.043852486 -0.05025373 0.23306751 0.22741121 0.001575241 -0.04950352 -0.021832686
0.18852358 0.093553275 -0.062204067 0.025529364 0.11891836 0.22750397 0.045177005 -0.22139002
-0.077207305 0.13880377 -0.18665357 -0.17236197 0.015051452 0.052737765 -0.06286635 0.12447119
-0.19061221 -0.08033028 -0.020524975 -0.0568177 -0.114650354 0.017262753 0.07598092 -0.012822206
-0.10349541 -0.04349752 -0.15897821 -0.17008056 0.065121435 -0.009542333 0.0028318805 0.16925293
-0.050560612 -0.12720503 0.05010347 0.08039757 -0.25083444 -0.0515486 0.06911489 -0.07122204
0.024401082 0.032873023 0.21185297 0.103711136 -0.08652691 0.046900462 -0.07246799 -0.13002548
0.08931984 -0.05127042 0.09203578 0.09443688 -0.33234861 -0.14102228 -0.046133008 -0.21018985
-0.24970186 -0.09498687 -0.036919784 -0.13381113 -0.041294105 0.13844782 0.12420924 -0.039915904
-0.12330171 0.06600301 0.10317968 -0.1213153 -0.0012545113 0.260353 -0.040317956 -0.07161966
0.06021134 0.0038457979 0.055874094 0.095363386 0.036116775 0.007277183 -0.11565801 -0.02292442
00000000: 8cc9 03bd f4f8 863e 448a 623d e38e 573e
00000010: 1553 963d a491 34be d553 ed3d 2614 bebd
00000020: 736e f2ba c881 4e3d 299c eabc 6387 d73c
00000030: e0c8 a5bc 3085 853d 852a 363c ecc8 0f3d
00000040: 479d 193d 7282 3c3d 669c 58be 7159 323e
00000050: 1bcb 143e 9587 dcbd f171 693e 8e07 9a3d
00000060: 4167 00bc f4d3 32bd 8dc5 1a3e 9791 40be
00000070: 88d7 58be d191 7ebd fa73 8abe 1efe cbbd
00000080: 4484 143e 0f12 383d fdd4 783d 73fc 8d3d
00000090: 5fd5 a9bd fa32 2bbe ca82 3d3d 5270 b6bc
000000a0: 5a48 193c 70ce 073e 2489 e63d 026d 4c3e
000000b0: a3bf af3d e38a 46bd d3bf 8a3d 7273 3abc
000000c0: 4cae 3abd 3746 533e 8c4c 9e3d 7ec0 3e3d
000000d0: 0d5a d23d 7b7b f8bd d637 8cbe 83c8 6abe
000000e0: 2cbf 09be 6d2c a2bd 6be9 cbb9 78d1 8ebb
000000f0: 6571 b63d 3a42 813e f95d 5f3e 5ea8 c0bd
00000100: f020 70bd bf9d 27be 298a 80bc 75bb c4bd
00000110: c5e8 2cbd 5aac debd fba2 d1bd 374c 293d
00000120: 4f4f 8dbd bbee 823c 8d09 2fbd 1c6c 623c
00000130: a59f 543e 6eaa 36bd b26a 35bd 5ace babd
00000140: 096a 06bd cfb3 143d b253 67bc 5f83 7cbc
00000150: ac2e 623d 97ae 81bc 64c8 63bd 86f2 f03c
00000160: 8cb8 06bd 81a8 5bbc 310e b8be b666 29be
00000170: badb 70bc 667f d5bd 90dd 51bd 792d 493e
00000180: 4286 a8bb f897 1b3d 1796 ecbb 631e 0dbe
00000190: 87aa f2bb e279 78bd cee6 29bd cadd 0c3e
000001a0: 124f 38bc d4c6 0abe 30af 043e 40fe b23d
000001b0: 1c54 fbbd 4788 19be 3322 963c ca5d e9bd
000001c0: e169 743d dcbf 5e3d 935d a7bd d987 543e
000001d0: d485 f6bd cea0 48be b0c8 653d 869b bcbd
000001e0: d155 b9bd 3399 cd3c 298a d9bd 4986 08be
000001f0: dd09 5dbd f927 b83b 97da 52be 6f11 71bd
00000200: 38e7 bf3c d05d 923d ce6d 0e3e 79d5 ddbd
00000210: caca 7e3d d470 023d d1d8 18bd 7f70 bd3c
00000220: f26a 6e3d c2d6 04bc ccac 43bd 3061 2b3d
00000230: bfd0 94bb ad9e ff3d 07d5 d53d c40d 76bd
00000240: d0dc 84bd ec3a 9c3d 30ee ed3d 07f6 1fbd
00000250: 78e4 89bd 1f54 bfbd 246a 04be 3e2b 07bd
00000260: ecc6 d93c 9814 a5bd 8ba3 f13d 8b66 6cbd
00000270: d790 66be b891 4dbe d79f 303d 459f a23d
00000280: baf4 03bd 3c38 00bc 2618 533c ed69 db3d
00000290: 4b2f 19bb e0a9 38be dcbe e43d 2f42 e23d
000002a0: b496 84be aa9e 33bd dbd6 4dbd 40a9 6e3e
000002b0: 7cde 683e 5178 ce3a 34c4 4abd 76da b2bc
000002c0: 530c 413e dc98 bf3d b1c9 7ebd f522 d13c
000002d0: 788b f33d cdf6 683e 860b 393d 11b4 62be
000002e0: dd1e 9ebd 9322 0e3e 1d22 3fbe a87f 30be
000002f0: 5e9a 763c 8e03 583d 13c0 80bd c0ea fe3d
00000300: d92f 43be 3484 a4bd fe23 a8bc adb9 68bd
00000310: cecd eabd 9e6a 8d3c e29b 9b3d 3b14 52bc
00000320: 67f5 d3bd 752a 32bd 2fcb 22be 9929 2ebe
00000330: 635e 853d 7257 1cbc 1297 393b a450 2d3e
00000340: a518 4fbd 0942 02be 4c39 4d3d 7ba7 a43d
00000350: 5f6d 80be a024 53bd 1c8c 8d3d dcdc 91bd
00000360: c7e4 c73c dda5 063d fcef 583e 8166 d43d
00000370: 0535 b1bd b31a 403d 196a 94bd 6625 05be
00000380: 52ed b63d ef00 52bd 417d bc3d 1f68 c13d
00000390: 9929 aabe 2568 10be f7f5 3cbd 023c 57be
000003a0: d8b1 7fbe 7a88 c2bd 3339 17bd c905 09be
000003b0: 0224 29bd 44c5 0d3e 6a61 fe3d dc7e 23bd
000003c0: 9b85 fcbd 962c 873d de4f d33d 2874 f8bd
000003d0: 6a6e a4ba fd4c 853e 7124 25bd 54ad 92bd
000003e0: 2ba0 763d c809 7c3b 3cdc 643d e14d c33d
000003f0: 2fef 133d 6f75 ee3b 1bde ecbd fecb bbbc

norm3.weight f4 [24]
1.1298971 0.92961025 1.0183486 0.9368438 1.0132704 1.0628668 0.9389845 0.9615346
0.88422644 0.9607815 0.96685195 0.9742403 0.9277309 1.0844566 0.95672756 0.9967314
0.9663433 0.8580965 1.0503669 1.0203377 1.0623058 1.239429 1.0706816 1.1415138
00000000: 78a0 903f f0fa 6d3f 3f59 823f ffd4 6f3f
00000010: d8b2 813f 050c 883f 4a61 703f 2227 763f
00000020: aa5c 623f c7f5 753f 9c83 773f d067 793f
00000030: c67f 6d3f 79cf 8a3f 19ec 743f ca29 7f3f
00000040: 4662 773f 36ac 5b3f 6c72 863f 6d9a 823f
00000050: a3f9 873f 9ca5 9e3f 180c 893f 201d 923f

norm3.bias f4 [24]
0.059402544 0.06322933 -0.05018941 0.07351221 -0.14793472 0.017054748 -0.004872881 -0.090942904
-0.07270543 -0.09245442 -0.11829912 0.016223624 0.091044314 -0.12612738 -0.0792164 0.022435691
-0.16955216 -0.16696888 -0.07443051 -0.1339646 0.0167972 -0.027281193 0.004653599 -0.0277131
00000000: 1550 733d 617e 813d 6993 4dbd 928d 963d
00000010: 337c 17be 66b6 8b3c b0ac 9fbb 4640 babd
00000020: 96e6 94bd be58 bdbd cf46 f2bd 68e7 843c
00000030: 7175 ba3d 8927 01be 353c a2bd 0ecb b73c
00000040: 159f 2dbe e4f9 2abe 066f 98bd 042e 09be
00000050: 489a 893c cf7c dfbc 387d 983b 9506 e3bc

norm3.running_mean f4 [24]
0.3948737 0.40743488 0.19478974 2.3287766 0.39213225 0.43414724 0.5706285 0.36049625
0.37244266 1.4663339 0.36453658 0.5660334 3.3971076 0.7223706 2.7900612 0.79376775
1.0366471 2.2376866 0.47275168 0.5658418 0.43352506 0.32481486 0.43009174 0.44440323
00000000: e32c ca3e 4e9b d03e f676 473e ad0a 1540
00000010: 8fc5 c83e 8c48 de3e b614 123f f792 b83e
00000020: ceb0 be3e d4b0 bb3f 8aa4 ba3e 91e7 103f
00000030: 366a 5940 48ed 383f 5d90 3240 5d34 4b3f
00000040: dab0 843f 4236 0f40 820c f23e 02db 103f
00000050: fff6 dd3e 224e a63e fc34 dc3e d288 e33e

norm3.running_var f4 [24]
0.6240595 0.638696 0.27677125 2.680672 0.75152546 0.7903643 1.2075288 0.63148475
0.6245567 1.9100441 0.6721455 0.93901086 3.888481 1.2575538 3.138114 1.3202305
2.049951 2.9533932 0.97187334 1.148472 0.90929186 0.56205815 1.0086983 1.0774742
00000000: 5dc2 1f3f 9581 233f f6b4 8d3e 2190 2b40
00000010: f963 403f 5155 4a3f 4e90 9a3f fca8 213f
00000020: f3e2 1f3f 537c f43f ba11 2c3f 0463 703f
00000030: dfdc 7840 86f7 a03f dcd6 4840 50fd a83f
00000040: 6632 0340 6504 3d40 b1cc 783f 2101 933f
00000050: 5ac7 683f 0be3 0f3f 071d 813f adea 893f

conv4.weight f4 [16, 24, 3, 3]
-0.06325862 0.022478864 0.108884476 -0.18415366 -0.1869697 -0.008360608 -0.053156056 -0.08784085
-0.009681828 0.03879193 -0.031362586 -0.051045556 0.025176354 0.07091465 0.027452942 0.013473818
0.06919758 -0.00835261 0.12976545 0.10236943 0.05009031 0.057642784 0.065357625 -0.028930536
-0.05144187 -0.0022415149 -0.116040364 -0.06805126 -0.20885907 -0.17666 0.029253243 -0.114771925
-0.045211174 -0.026107633 0.01788707 0.068928644 -0.100907415 -0.009748309 -0.026015092 -0.110384956
-0.13691537 -0.11047854 -0.08731776 -0.15450406 -0.10958293 0.01359327 -0.018289654 -0.11773267
0.10117669 0.042712208 -0.18137445 0.13432842 0.071733765 -0.008498956 0.077577814 -0.057561103
0.05390941 0.017893981 0.1568669 0.04079349 0.08961752 0.120782435 0.024695635 0.13037135
0.044690955 0.024343373 0.16351269 0.069670334 -0.05317286 0.023516476 0.16576785 0.09415092
-0.05701144 0.075959146 -0.0444267 0.042139657 0.012431133 0.14351378 -0.020857673 -0.0166683
-0.0052314093 -0.079125024 -0.082968704 0.019037044 0.049016643 0.03099158 -0.010992262 -0.020034099
-0.09927628 -0.111461736 0.039306294 0.087078996 0.041175816 0.13622186 -0.0062501817 -0.05698231
0.07520106 -0.027455645 -0.09163137 0.15773231 -0.055557698 -0.07668105 0.17662904 -0.013515847
-0.14699748 -0.02373268 -0.027829595 -0.060468566 -0.11004098 -0.20690462 -0.2841035 0.0018493221
-0.1265425 -0.046751346 0.17844555 0.08389122 0.15481806 -0.05569098 0.10709342 -0.043180466
-0.11946562 0.17399897 0.11185036 -0.13114107 -0.015349806 0.010258017 -0.05443218 -0.1437716
-0.37894443 0.085867524 0.016340056 -0.15993252 0.22241448 0.019356536 -0.081052095 0.16690348
0.083371356 0.07233002 0.0057022483 0.033350237 0.11109451 0.039822426 0.15233096 0.2043679
0.08058746 -0.11897205 -0.0012911903 -0.005107024 0.05055093 -0.108465776 0.04919006 0.15759476
0.14645898 -0.14330773 -0.02477762 -0.043027688 -0.11677955 -0.041653477 0.034136496 0.06090649
0.034633197 -0.044507466 -0.11426869 -0.045118492 -0.081061356 -0.0020811504 -0.045937657 -0.012333513
0.030239588 0.048844855 0.07972718 0.102022395 0.1353563 0.00843869 0.059756443 0.09795848
0.08504945 0.03041675 0.10349752 0.03266486 0.18879725 0.14308587 0.05676096 0.20533867
0.023978068 0.06369382 0.05031702 0.13222148 0.18318413 0.05903251 0.013785411 0.071805805
-0.047404334 -0.0037777422 0.058518887 0.18744774 0.15104948 0.23785006 -0.12524015 0.052058116
-0.0019523092 -0.08203698 -0.01720835 0.038412187 -0.0050317375 -0.05607115 -0.03912969 -0.16829124
-0.07111659 0.007565929 -0.091291524 -0.09598035 -0.029759564 0.047829144 -0.03386239 -0.14510241
-0.17121239 0.100382954 -0.09233671 -0.09078818 0.023011448 -0.048549406 -0.08114717 0.0883034
-0.07154918 0.23435007 0.023201 0.07856265 0.12438959 0.17055932 0.073421314 0.029648798
0.16080426 0.17354089 -0.0204822 -0.05506921 -0.079193585 -0.05464613 -0.10860623 0.005165798
-0.20741017 -0.094805524 -0.084726825 -0.25710058 0.048351794 -0.022606477 -0.18513885 -0.020003771
-0.045592356 -0.10218511 -0.019486343 -0.042261828 -0.15178071 -0.19494644 -0.1103471 -0.1579607
00000000: bc8d 81bd 9825 b83c d3fe de3d c792 3cbe
00000010: fc74 3fbe eefa 08bc 2aba 59bd e7e5 b3bd
00000020: 88a0 1ebc 49e4 1e3d 0e76 00bd 2515 51bd
00000030: a43e ce3c b33b 913d fee4 e03c 4ac1 5c3c
00000040: 76b7 8d3d 63d9 08bc 3ce1 043e 10a7 d13d
00000050: 7f2b 4d3d d71a 6c3d 38da 853d bbff ecbc
00000060: b6b4 52bd 61e6 12bb 92a6 edbd 765e 8bbd
00000070: 27df 55be 5ce6 34be 7fa4 ef3c 8b0d ebbd
00000080: 5a2f 39bd addf d5bc e887 923c 762a 8d3d
00000090: 8ca8 cebd 5fb7 1fbc 9a1d d5bc 8211 e2bd
000000a0: 8b33 0cbe 9342 e2bd a7d3 b2bd 5036 1ebe
000000b0: 046d e0bd 4fb6 5e3c 2fd4 95bc d31d f1bd
000000c0: b935 cf3d fff2 2e3d 39ba 39be 648d 093e
000000d0: 27e9 923d 353f 0bbc 1ee1 9e3d 31c5 6bbd
000000e0: 1dd0 5c3d 6696 923c b7a1 203e 1317 273d
000000f0: 6489 b73d c85c f73d 804e ca3c 1180 053e
00000100: dd0d 373d c16b c73c df6f 273e 52af 8e3d
00000110: c9cb 59bd a0a5 c03c 0cbf 293e 33d2 c03d
00000120: d484 69bd 7890 9b3d c5f8 35bd a29a 2c3d
00000130: f3ab 4b3c 47f5 123e b6dd aabc f58b 88bc
00000140: 3e6c abbb 4d0c a2bd 7feb a9bd 93f3 9b3c
00000150: adc5 483d 0ee2 fd3c e318 34bc 8d1e a4bc
00000160: 5d51 cbbd 0d46 e4bd a3ff 203d 7956 b23d
00000170: f9a7 283d be7d 0b3e 53ce ccbb 4866 69bd
00000180: 0303 9a3d a9ea e0bc 3aa9 bbbd 9484 213e
00000190: 7890 63bd f40a 9dbd 3ede 343e 9271 5dbc
000001a0: 8286 16be 0a6b c2bc e4fa e3bc e3ad 77bd
000001b0: 2a5d e1bd cede 53be 0476 91be f464 f23a
000001c0: 5b94 01be 577e 3fbd 6eba 363e 29cf ab3d
000001d0: a088 1e3e 3a1c 64bd cc53 db3d 00de 30bd
000001e0: 64aa f4bd c92c 323e cd11 e53d d849 06be
000001f0: c17d 7bbc 3e11 283c 47f4 5ebd dd38 13be
00000200: 0105 c2be 50db af3d 95db 853c 5ac5 23be
00000210: 9fc0 633e 9991 9e3c a4fe a5bd bfe8 2a3e
00000220: 9abe aa3d c321 943d edd9 ba3b 429a 083d
00000230: 8585 e33d d71c 233d a6fc 1b3e d245 513e
00000240: 0a0b a53d 9ea7 f3bd 283d a9ba d358 a7bb
00000250: 7e0e 4f3d 4e23 debd 847b 493d 8560 213e
00000260: 58f9 153e 43bf 12be 6ffa cabc cd3d 30bd
00000270: 1e2a efbd d69c 2abd b6d2 0b3d 1579 793d
00000280: 8adb 0d3d 764d 36bd b405 eabd 2bce 38bd
00000290: 7f03 a6bd e963 08bb 2029 3cbd 8112 4abc
000002a0: 03b9 f73c 8b11 483d 0148 a33d 1ef1 d03d
000002b0: d89a 0a3e 6e42 0a3c 2cc3 743d 759e c83d
000002c0: 682e ae3d 8c2c f93c 82f6 d33d 97cb 053d
000002d0: 1154 413e 1a85 123e 2e7e 683d 4d44 523e
000002e0: a76d c43c e871 823d 3819 4e3d 1165 073e
000002f0: 9f94 3b3e 13cc 713d 34dc 613c ec0e 933d
00000300: 0c2b 42bd ff93 77bb 80b1 6f3d 4df2 3f3e
00000310: b7ac 1a3e f78e 733e f43e 00be e43a 553d
00000320: a0e4 ffba 0103 a8bd 87f8 8cbc 1956 1d3d
00000330: 46e1 a4bb ddaa 65bd 7446 20bd 8a54 2cbe
00000340: 93a5 91bd 9deb f73b 0df7 babd 5991 c4bd
00000350: 54ca f3bc 7ee8 433d 4ab3 0abd ba95 14be
00000360: 4d52 2fbe 9495 cd3d 071b bdbd 27ef b9bd
00000370: 8182 bc3c bedb 46bd 7d30 a6bd 6ad8 b43d
00000380: 6088 92bd 77f9 6f3e 0610 be3c 74e5 a03d
00000390: f8bf fe3d 1aa7 2e3e ea5d 963d 09e2 f23c
000003a0: dfa9 243e b4b4 313e 49ca a7bc 4090 61bd
000003b0: 3f30 a2bd 9fd4 5fbd f16c debd db45 a93b
000003c0: 5563 54be 6629 c2bd 4285 adbd b0a2 83be
000003d0: 880c 463d 3831 b9bc 0a95 3dbe f3de a3bc
000003e0: 0dbf 3abd 6d46 d1bd d3a1 9fbc bd1a 2dbd
000003f0: 676c 1bbe 0aa0 47be a9fd e1bd 73c0 21be

norm4.weight f4 [16]
0.99445784 0.96314424 1.1107872 0.9212908 1.1427246 0.993251 1.0092833 0.90462005
0.9510838 1.1292516 1.1467638 0.87416196 1.0845736 0.8805395 1.0780746 0.95734495
00000000: ca94 7e3f 9f90 763f 462e 8e3f b7d9 6b3f
00000010: cd44 923f b345 7e3f 3230 813f 2e95 673f
00000020: 3a7a 733f 518b 903f 28c9 923f 14c9 5f3f
00000030: 4fd3 8a3f 096b 613f 59fe 893f 8f14 753f

norm4.bias f4 [16]
-0.0096228765 -0.118210174 -0.23333117 0.033875976 0.17051733 -0.040258963 -0.014524468 0.026422653
0.020207003 -0.0301604 -0.14384238 0.015490935 -0.19931841 -0.102620535 -0.07366202 0.13816056
00000000: 45a9 1dbc 2d18 f2bd 5eee 6ebe 89c1 0a3d
00000010: 189c 2e3e 95e6 24bd 09f8 6dbc 5274 d83c
00000020: 2889 a53c f112 f7bc 6b4b 13be b1cd 7d3c
00000030: 201a 4cbe b72a d2bd 1ddc 96bd f679 0d3e

norm4.running_mean f4 [16]
0.67071784 0.9112755 0.96846986 0.7643382 1.1236982 1.1414238 0.9198653 0.86244065
1.0681725 1.5895199 0.9931956 0.9231463 1.0180492 0.9260085 1.0835273 0.8651747
00000000: 2ab4 2b3f 5a49 693f a4ed 773f abab 433f
00000010: 58d5 8f3f 2d1a 923f 4b7c 6b3f e9c8 5c3f
00000020: e0b9 883f 6375 cb3f 1142 7e3f 5153 6c3f
00000030: 704f 823f e50e 6d3f 06b1 8a3f 177c 5d3f

norm4.running_var f4 [16]
1.3091922 1.7811643 2.1020389 1.4295801 2.079538 2.1323645 1.533265 1.4103552
2.0730042 2.9732714 2.5282984 1.6813323 2.277309 1.8153597 2.8600597 1.4386421
00000000: 9c93 a73f 31fd e33f ce87 0640 7bfc b63f
00000010: 2717 0540 a978 0840 0742 c43f 8586 b43f
00000020: 1aac 0440 144a 3e40 a4cf 2140 e635 d73f
00000030: 6ebf 1140 b55d e83f 380b 3740 6d25 b83f

conv5.weight f4 [32, 16, 3, 3]
0.19251762 0.17043126 0.0882934 0.052235175 0.13576497 0.15824088 -0.035088122 -0.089310594
0.13186781 -0.04598517 -0.057036128 -0.14864142 0.032391075 -0.16463165 -0.049943566 0.031250414
-0.13708703 -0.26778767 -0.14210583 -0.19549417 -0.13609615 -0.135519 -0.1742484 -0.049414467
0.13718854 0.11017176 -0.017609624 0.06653118 0.019507868 -0.13170199 -0.09165927 -0.10876937
-0.10274231 -0.1915482 -0.059277005 -0.12455597 -0.050411917 0.044416152 0.018969433 -0.1986211
-0.1170809 -0.01948719 -0.11908721 -0.31814742 -0.09173921 -0.06578104 0.012754226 -0.028973626
0.06338811 -0.04963944 0.023518477 0.06868445 -0.026622912 0.05230546 -0.07803287 0.14244892
0.15331392 -0.017132187 0.03675566 0.023100937 0.04013503 -0.14552708 -0.073373094 -0.037553485
0.0036804166 0.004662358 0.087669805 0.024146007 -0.16396146 0.09534425 -0.05007209 -0.32536012
0.10205065 -0.03910514 -0.02801464 0.01811307 0.03338831 -0.08065634 -0.011873088 0.21797392
0.12073305 -0.10366253 0.004972988 0.08702305 -0.1837796 -0.22296678 0.09775624 -0.09249818
-0.15998957 -0.088711455 0.08198954 0.040220726 -0.10763129 0.21731794 0.023901304 -0.075669944
0.16731083 0.059967153 -0.05913206 -0.08133456 -0.11825002 -0.07669117 -0.009561287 -0.037414998
-0.025734195 0.08068047 -0.12380429 -0.0333322 -0.046875387 -0.048579913 0.051071364 0.08842759
0.17447945 0.00022400865 0.020178353 0.13366829 0.17066355 -0.11981882 -0.09006008 -0.16406778
0.057327304 -0.122589946 -0.11222431 -0.022534925 0.017165724 -0.08567989 0.16399722 -0.07980746
-0.08923001 0.08776758 -0.05599194 -0.15461497 0.013456854 -0.10071592 -0.12478383 -0.039930306
-0.101445705 -0.0009565022 -0.02623603 -0.07673945 0.10382428 -0.096344784 -0.046757407 -0.106178276
0.15572572 -0.09564926 -0.13994105 0.022868311 -0.0635809 -0.23271976 -0.06994404 0.0032944954
-0.16030411 0.08151907 -0.113493115 -0.06017898 0.0015361477 -0.10628268 -0.055290516 -0.0081475675
0.0077791503 -0.1066528 0.04940271 -0.09194249 0.1764079 -0.04658841 -0.03273373 0.1676545
-0.05585698 0.06682183 0.083683945 0.050169 0.11260527 0.04154544 0.09526219 0.060999475
-0.0058676866 0.06716845 0.06558561 0.11690089 -0.15717441 -0.11496167 -0.26748207 -0.16491091
-0.30321386 -0.1198805 -0.057075012 0.028329724 -0.019606909 0.0121920835 -0.06410427 -0.046517808
0.051047657 -0.09280636 -0.008703999 -0.04828776 -0.03765558 -0.017588206 0.029420054 -0.0075926655
-0.15536955 0.0738125 -0.0047810487 -0.0022513084 0.05642749 -0.11398087 -0.1635816 -0.051631108
-0.09016419 -0.11178318 0.10750621 -0.038611956 -0.10238918 0.025428578 -0.0032641091 -0.104261205
-0.010643318 -0.09878562 -0.016052166 -0.007497094 -0.119066864 -0.019416573 -0.08528305 -0.08981779
-0.06512638 -0.10968754 -0.19602281 0.005828879 -0.20338279 -0.093819715 0.047196437 -0.08081674
0.13544792 0.12717545 0.09828082 0.03745874 -0.040288165 0.25126103 -0.10864637 -0.1799662
0.16943184 -0.19280432 -0.08971096 0.07670038 -0.0100699 0.120300256 0.032538794 -0.08887688
-0.10015976 0.11474764 -0.076871015 0.07045045 -0.055912856 0.051638655 0.10051695 -0.06485352
00000000: 5723 453e 8885 2e3e 2cd3 b43d 8df4 553d
00000010: f905 0b3e e609 223e 90b8 0fbd 79e8 b6bd
00000020: 5b08 073e f25a 3cbd b79e 69bd 7535 18be
00000030: 81ac 043d 3395 28be a091 4cbd 6f00 003d
00000040: 8b60 0cbe 771b 89be 3184 11be a02f 48be
00000050: ca5c 0bbe 7ec5 0abe 2c6e 32be d366 4abd
00000060: 277b 0c3e bba1 e13d 0f42 90bc 8041 883d
00000070: f7ce 9f3c e3dc 06be dbb7 bbbd 7ac2 debd
00000080: 8f6a d2bd 3625 44be 72cc 72bd 3317 ffbd
00000090: ba7c 4ebd b6ed 353d c965 9b3c 5463 4bbe
000000a0: 1cc8 efbd 99a3 9fbc ffe3 f3bd 38e4 a2be
000000b0: c4e1 bbbd 36b8 86bd 1af7 503c 195a edbc
000000c0: a0d1 813d ba52 4bbd d2a9 c03c 6faa 8c3d
000000d0: 4b18 dabc 403e 563d b3cf 9fbd 21de 113e
000000e0: 53fe 1c3e cd58 8cbc 1a8d 163d 2d3e bd3c
000000f0: a164 243d 0d05 15be a244 96bd afd1 19bd
00000100: 2533 713b b2c6 983b 3a8c b33d d9cd c53c
00000110: 83e5 27be d943 c33d 6418 4dbd 9a95 a6be
00000120: eeff d03d b62c 20bd f57e e5bc dc61 943c
00000130: 2ec2 083d 272f a5bd 5787 42bc 8e34 5f3e
00000140: e442 f73d 054d d4bd 72f4 a23b 2439 b23d
00000150: b830 3cbe 6751 64be 6c34 c83d b06f bdbd
00000160: 4ed4 23be 5aae b5bd 22ea a73d 7dbe 243d
00000170: cb6d dcbd 9888 5e3e abcc c33c d8f8 9abd
00000180: 8853 2b3e 1ea0 753d 7534 72bd bc92 a6bd
00000190: 112d f2bd 4310 9dbd f2a6 1cbc 7840 19bd
000001a0: 85d0 d2bc cd3b a53d 1b8d fdbd 5887 08bd
000001b0: 6800 40bd bbfb 46bd 3530 513d 8619 b53d
000001c0: beaa 323e dde3 6a39 134d a53c 57e0 083e
000001d0: 6dc2 2e3e 9263 f5bd 6b71 b8bd 6201 28be
000001e0: 09d0 6a3d 7010 fbbd dcd5 e5bd 2a9b b8bc
000001f0: 229f 8c3c f078 afbd e3ee 273e 1872 a3bd
00000200: 39be b6bd 7dbf b33d ce57 65bd 6353 1ebe
00000210: 237a 5c3c 2644 cebd aa8e ffbd f68d 23bd
00000220: c4c2 cfbd c7bd 7aba f1ec d6bc 9329 9dbd
00000230: d3a1 d43d 6a50 c5bd b284 3fbd ff73 d9bd
00000240: 9076 1f3e c2e3 c3bd b54c 0fbe 5356 bb3c
00000250: b436 82bd 174e 6ebe d23e 8fbd 76e8 573b
00000260: c326 24be 78f3 a63d 146f e8bd 3c7e 76bd
00000270: 9058 c93a bcaa d9bd 4f78 62bd 607d 05bc
00000280: 3ee8 fe3b c96c dabd 7f5a 4a3d 584c bcbd
00000290: 46a4 343e 7dd3 3ebd ce13 06bd 9fad 2b3e
000002a0: 4aca 64bd e2d9 883d 7d62 ab3d 027e 4d3d
000002b0: 989d e63d 8d2b 2a3d d318 c33d 96da 793d
000002c0: b945 c0bb 9d8f 893d c051 863d bc69 ef3d
000002d0: 54f2 20be 0671 ebbd 69f3 88be 68de 28be
000002e0: d93e 9bbe e883 f5bd 7dc7 69bd bd13 e83c
000002f0: ab9e a0bc 4ec1 473c 1949 83bd 7589 3ebd
00000300: 5917 513d 4311 bebd 389b 0ebc 63c9 45bd
00000310: bd3c 1abd 2415 90bc 5302 f13c e5cb f8bb
00000320: 3219 1fbe 022b 973d 58aa 9cbb b08a 13bb
00000330: 8320 673d cd6e e9bd ef81 27be 247b 53bd
00000340: 01a8 b8bd 94ee e4bd 372c dc3d 9227 1ebd
00000350: 6bb1 d1bd 984f d03c aaea 55bb e686 d5bd
00000360: 5061 2ebc 1d50 cabd d57f 83bc 2faa f5bb
00000370: 54d9 f3bd 810f 9fbc e1a8 aebd 64f2 b7bd
00000380: fb60 85bd dca3 e0bd 34ba 48be 2e00 bf3b
00000390: 9443 50be 8d24 c0bd 0d51 413d 3f83 a5bd
000003a0: dcb2 0a3e 483a 023e 7447 c93d 566e 193d
000003b0: 3405 25bd 49a5 803e fd81 debd 0f49 38be
000003c0: 8a7f 2d3e 7f6e 45be 61ba b7bd 1715 9d3d
000003d0: 39fc 24bc fb5f f63d 6647 053d 1505 b6bd
000003e0: 8f20 cdbd d000 eb3d 8d6e 9dbd 5348 903d
000003f0: e104 65bd 0e83 533d d5db cd3d ecd1 84bd

norm5.weight f4 [32]
1.1568846 1.015066 0.99484044 0.89780307 0.9834337 0.984233 1.0043583 1.0463866
0.98344773 1.00254 0.9656908 0.9823856 0.9402387 0.9496558 0.987305 0.91772944
1.0575266 0.98124224 1.0600568 1.0019879 0.94966966 1.0418603 1.0108026 0.9779969
1.014735 0.9916808 1.0342879 0.98573446 1.020596 1.0138016 0.9630182 1.0618908
00000000: cb14 943f afed 813f ddad 7e3f 6cd6 653f
00000010: 50c2 7b3f b2f6 7b3f d08e 803f ffef 853f
00000020: 3bc3 7b3f 3b53 803f 8337 773f 9f7d 7b3f
00000030: 7cb3 703f a41c 733f 05c0 7c3f 51f0 6a3f
00000040: 085d 873f b132 7b3f f1af 873f 2441 803f
00000050: 8d1d 733f ae5b 853f fb61 813f 015e 7a3f
00000060: d6e2 813f cbde 7d3f 8c63 843f 1859 7c3f
00000070: e4a2 823f 40c4 813f 5c88 763f 0aec 873f

norm5.bias f4 [32]
-0.20689267 -0.12818989 -0.013638627 -0.27192008 -0.051524222 0.10365337 0.05577029 -0.17090957
-0.074822836 -0.002516097 -0.11744742 -0.13793467 -0.11356988 -0.2464015 -0.01042048 0.063512735
-0.050061084 -0.031887848 -0.031077005 -0.0930202 0.025676766 0.052273452 0.111801974 -0.1947095
-0.036633994 0.09187414 0.07619299 -0.071041346 -0.22779858 0.027871294 -0.034226853 -0.07334665
00000000: acdb 53be 3644 03be 8c74 5fbc 1c39 8bbe
00000010: 100b 53bd 3848 d43d 636f 643d eb02 2fbe
00000020: b73c 99bd 1ae5 24bb 4688 f0bd bf3e 0dbe
00000030: 5397 e8bd ad50 7cbe a9ba 2abc f712 823d
00000040: da0c 4dbd d59c 02bd 3495 febc 6081 bebd
00000050: 1558 d23c b01c 563d 6ff8 e43d ed61 47be
00000060: 870d 16bd 8228 bc3d 120b 9c3d 207e 91bd
00000070: 0844 69be 5752 e43c 7531 0cbd c536 96bd

norm5.running_mean f4 [32]
0.87131566 0.65358263 0.6426895 0.81789094 0.56474197 0.5732102 0.67840916 0.85574245
0.5775074 0.5995536 0.66943806 0.64965826 0.557538 0.7682004 0.8211903 0.6495325
0.6038035 0.6242763 0.6743353 0.6186859 0.5539661 0.64483845 0.7501251 0.70764714
0.91799325 0.83649606 0.8479741 0.45852923 0.6957948 0.66459465 0.5718006 0.7274786
00000000: 8b0e 5f3f 3151 273f 4d87 243f 4d61 513f
00000010: ee92 103f e7bd 123f 39ac 2d3f f011 5b3f
00000020: 86d7 133f 587c 193f 4b60 2b3f 0150 263f
00000030: cfba 0e3f c8a8 443f 8739 523f c347 263f
00000040: de92 1a3f 92d0 1f3f 3da1 2c3f 3362 1e3f
00000050: b9d0 0d3f 2214 253f 3308 403f 5d28 353f
00000060: 9b01 6b3f 9b24 563f d514 593f 58c4 ea3e
00000070: 9c1f 323f e022 2a3f 8661 123f 0a3c 3a3f

norm5.running_var f4 [32]
1.6514305 1.0382541 1.1009096 1.4327312 0.8972488 0.7718804 1.0999743 1.5913538
0.98771256 0.7830202 0.9603996 1.0016447 1.0061077 1.1249683 1.1402918 0.783677
1.0938754 0.8243104 1.1165318 1.0654428 0.69642013 1.0274101 1.2740914 1.0746118
1.290046 1.1923326 1.2444122 0.7925389 1.0815364 0.98950297 0.7236437 1.0467776
00000000: 1362 d33f 83e5 843f 9bea 8c3f bc63 b73f
00000010: 19b2 653f f499 453f f5cb 8c3f 7bb1 cb3f
00000020: bbda 7c3f 0374 483f c0dc 753f e535 803f
00000030: 23c8 803f f6fe 8f3f 15f5 913f 0e9f 483f
00000040: 1c04 8c3f 0206 533f 84ea 8e3f 6e60 883f
00000050: 9748 323f 2d82 833f 6d15 a33f e18c 893f
00000060: 3a20 a53f 5b9e 983f e648 9f3f d4e3 4a3f
00000070: c96f 8a3f 1150 7d3f b740 393f cffc 853f

tns2.weight f4 [16, 32, 1, 1]
0.6418012 0.28278494 -0.09900842 0.18596938 -0.02676246 -0.06591278 0.15848938 0.29011685
0.1360833 -0.0661777 0.16009931 0.0844286 0.022306696 0.07867763 -0.122775905 -0.095881
-0.17131346 -0.075830765 -0.09518084 -0.16577603 -0.08430377 0.0008331778 -0.16347118 0.26630417
0.04627728 -0.015078808 0.11145155 -0.17200227 -0.25812054 0.13273396 0.10964486 0.2876728
-0.08775206 -0.2599993 -0.11062192 -0.06414957 -0.26078248 -0.09020323 -0.05633386 0.37861782
0.18248732 -0.06796835 0.11537969 -0.19433537 0.09105128 -0.17380643 0.378068 0.37846276
-0.31131423 -0.13253216 0.24932331 0.06720008 -0.0784369 0.06301589 -0.2940109 -0.30201522
0.26065946 0.108348526 -0.25559816 -0.09534703 -0.1923647 0.22393578 -0.14489645 0.092660725
0.029562877 0.33052233 -0.17791818 -0.3263599 0.014921393 -0.23485346 -0.12858686 0.046284683
0.013052477 -0.03961992 0.3007039 -0.30458257 0.06754742 -0.30189162 -0.2330591 0.0073233796
0.2121421 -0.2668336 0.3291988 0.114254594 -0.022508381 -0.12030076 0.299685 0.019482372
-0.07033817 0.15261899 0.2591548 0.120088875 0.23317955 -0.19218707 -0.13705075 0.22814475
-0.28390676 -0.1551731 -0.11051287 -0.11921256 -0.19366555 -0.06752616 0.03861671 -0.010128948
-0.004115492 0.3261522 -0.010590388 -0.21900241 -0.4210377 -0.019258603 0.1015231 -0.028348863
-0.26732263 0.011673133 0.021772385 -0.28425205 0.0344821 -0.35679048 -0.04979541 0.37316412
-0.31043226 0.3702939 0.04451 -0.17470017 0.28446823 -0.2090832 -0.1580855 0.15745977
0.30053183 -0.12263383 0.31331587 0.12245055 -0.13303825 -0.13260125 -0.21194781 -0.19689488
0.21938068 0.1733616 0.12363823 -0.13894346 0.29143476 -0.30021727 -0.078874655 0.14981805
-0.28471404 0.08581232 0.071039796 -0.19417575 0.02024181 0.096709035 -0.23328212 -0.30169135
-0.12956396 0.28927764 0.005164633 0.17302461 -0.09428597 -0.35249624 -0.23580465 -0.2627533
-0.242713 0.2719081 -0.32327795 -0.35804522 -0.1299226 0.100617394 0.16995427 0.30210426
0.03393676 -0.18887271 0.022980697 0.1381207 -0.20503506 0.00897019 -0.35970035 -0.055059522
-0.13824748 0.1762678 -0.068713814 0.14907539 0.034410182 0.054866593 -0.05544896 -0.09211992
-0.09182363 -0.28001565 -0.0745314 0.008475492 -0.02769648 -0.024689456 -0.31898847 0.021764142
-0.10697087 0.07647458 0.13858624 -0.0083101755 -0.115775466 -0.17745654 -0.11211645 -0.04635056
-0.041325033 0.108835906 0.08274379 0.22329213 0.032786474 -0.14289582 -0.1771737 -0.18443482
0.18100475 -0.25855687 -0.14032465 -0.17429526 -0.21697061 0.14741273 0.0040580807 -0.06887451
-0.21139306 -0.040608514 0.36523438 0.042014066 -0.25003424 0.2921412 -0.04172458 0.33061168
0.33614215 0.19720289 -0.039142113 0.14537205 -0.053141754 0.23078063 -0.0038911826 -0.21075632
-0.18459307 0.38732737 -0.30454665 0.1371159 -0.17911658 -0.115851544 -0.10787126 -0.02236446
-0.17080995 0.055342574 -0.13353072 0.53912234 0.11083934 -0.19535576 0.26264825 0.052613765
-0.048434947 -0.007148227 0.1433461 0.27655378 0.15373054 -0.06998375 -0.07295168 -0.35954836
00000000: 154d 243f 30c9 903e edc4 cabd c26e 3e3e
00000010: f23c dbbc 48fd 86bd 0a4b 223e 328a 943e
00000020: 6c59 0b3e 2d88 87bd 13f1 233e e7e8 ac3d
00000030: 88bc b63c bd21 a13d ef71 fbbd 425d c4bd
00000040: cc6c 2fbe 294d 9bbd 2cee c2bd 31c1 29be
00000050: 74a7 acbd 9e69 5a3a fd64 27be 0559 883e
00000060: 3f8d 3d3d 1b0d 77bc b640 e43d 5d21 30be
00000070: 6028 84be 69eb 073e 7c8d e03d d949 933e
00000080: 5ab7 b3bd a11e 85be bf8d e2bd da60 83bd
00000090: 4885 85be 79bc b8bd 55be 66bd 32da c13e
000000a0: f5dd 3a3e fe32 8bbd 304c ec3d daff 46be
000000b0: 1879 ba3d 50fa 31be 2192 c13e dfc5 c13e
000000c0: 9464 9fbe 83b6 07be 9c4e 7f3e 32a0 893d
000000d0: 87a3 a0bd 7a0e 813d 9988 96be bda1 9abe
000000e0: 2875 853e d5e5 dd3d c3dd 82be 4e45 c3bd
000000f0: 40fb 44be 6c4f 653e bc5f 14be e8c4 bd3d
00000100: d92d f23c 393a a93e 2f30 36be a518 a7be
00000110: dc78 743c 6d7d 70be 46ac 03be 0295 3d3d
00000120: 0eda 553c 7f48 22bd ddf5 993e 3ff2 9bbe
00000130: 4d56 8a3d 8a91 9abe 0ba7 6ebe f6f8 ef3b
00000140: c73b 593e 6a9e 88be bf8c a83e 50fe e93d
00000150: 7f63 b8bc 3f60 f6bd 5070 993e 7f99 9f3c
00000160: 750d 90bd 2748 1c3e f0af 843e 28f1 f53d
00000170: 9fc6 6e3e b0cc 44be 0857 0cbe c79e 693e
00000180: 3a5c 91be b2e5 1ebe 9254 e2bd b725 f4bd
00000190: 4350 46be 284b 8abd 8e2c 1e3d e3f3 25bc
000001a0: 40db 86bb 6cfd a63e 4f83 2dbc 2b42 60be
000001b0: 4192 d7be 38c4 9dbc 58eb cf3d e03b e8bc
000001c0: 83de 88be ab40 3f3c 005c b23c 7c89 91be
000001d0: 1a3d 0d3d 3ead b6be 46f6 4bbd 5e0f bf3e
000001e0: faf0 9ebe 2997 bd3e 1e50 363d 9ae4 32be
000001f0: d2a5 913e e819 56be 2ae1 21be 223d 213e
00000200: 4fdf 993e 7227 fbbd f06a a03e 5bc7 fa3d
00000210: 2e3b 08be 9fc8 07be d908 59be d09e 49be
00000220: 54a5 603e b485 313e 0a36 fd3d 3247 0ebe
00000230: f036 953e 14b6 99be 0989 a1bd e769 193e
00000240: 0ac6 91be 5fbe af3d 507d 913d 02d6 46be
00000250: 27d2 a53c 630f c63d 82e1 6ebe 4a77 9abe
00000260: 6aac 04be 331c 943e 153c a93b 5d2d 313e
00000270: 0119 c1bd 637a b4be c676 71be 9a87 86be
00000280: c289 78be 8a37 8b3e b084 a5be b451 b7be
00000290: 6e0a 05be 7e10 ce3d 7e08 2e3e 69ad 9a3e
000002a0: 4601 0b3d d967 41be 0442 bc3c 836f 0d3e
000002b0: b6f4 51be b4f7 123c a52a b8be 1886 61bd
000002c0: bf90 0dbe 8c7f 343e d4b9 8cbd 38a7 183e
000002d0: b1f1 0c3d cbbb 603d 731e 63bd 5ea9 bcbd
000002e0: 070e bcbd 365e 8fbe eba3 98bd cadc 0a3c
000002f0: bae3 e2bc 8b41 cabc 7552 a3be b74a b23c
00000300: 8b13 dbbd b49e 9c3d 8de9 0d3e 6727 08bc
00000310: b01b edbd 2bb7 35be 4f9d e5bd 16da 3dbd
00000320: 7044 29bd 5ce5 de3d 9375 a93d b1a6 643e
00000330: 1c4b 063d 4853 12be 066d 35be 7bdc 3cbe
00000340: 4f59 393e 9161 84be 44b1 0fbe 757a 32be
00000350: 8b2d 5ebe 5df3 163e a6f9 843b 140e 8dbd
00000360: 6c77 58be 1d55 26bd 0000 bb3e f116 2c3d
00000370: 7d04 80be 8893 953e 65e7 2abd ef45 a93e
00000380: d31a ac3e 8eef 493e 7b53 20bd 69dc 143e
00000390: 2bab 59bd c251 6c3e 3603 7fbb 81d0 57be
000003a0: f705 3dbe c64f c63e 8aed 9bbe 1c68 0c3e
000003b0: 566a 37be 9343 edbd 9beb dcbd ac35 b7bc
000003c0: cee8 2ebe e5ae 623d 47bc 08be ec03 0a3f
000003d0: bcff e23d 570b 48be d579 863e 8881 573d
000003e0: b963 46bd ad3b eabb 52c9 123e 7598 8d3e
000003f0: 8a6b 1d3e a453 8fbd b167 95bd b916 b8be
