S8/Weights/model_LN.pth (torch, 156657 bytes, 27 tensors)

conv1.weight f4 [10, 3, 3, 3]
-0.40287822 -0.10156239 -0.40187725 0.27069902 -0.7478485 -0.17838354 0.63252825 0.42344588
0.5759773 0.034871615 -0.14911415 -0.0026076413 0.28796038 -0.72516125 -0.119700305 0.23661593
0.29151106 0.1823968 0.1581212 0.104186796 0.17418101 0.23545149 -0.8963071 -0.008115043
0.10845167 -0.18403924 0.14499524 0.3910013 0.31077558 0.1478469 1.1224314 -0.03913007
0.046915423 0.112763785 -0.24278109 -0.123998456 0.07435066 -0.22984244 0.20066223 0.32024437
-0.74273753 -0.29849142 -0.04543888 -0.08341302 -0.031500176 0.035366103 -0.1764104 0.069608085
0.2314989 -0.97566855 -0.53831315 0.24703945 0.025781287 0.025002696 0.007897316 0.056314602
-0.209889 -0.5599275 -0.012865199 0.66179836 -0.022863869 0.3482507 0.032482266 0.110455275
0.30952924 -0.050168686 -0.47838944 -0.12921812 0.74976933 0.13020745 0.03069411 -0.09040715
0.1515577 0.086247794 -0.19109176 -0.7877367 -0.601853 0.3908213 0.113476336 -0.13976978
-0.19704725 0.12133507 0.68609947 0.097259395 0.4675057 0.12778783 0.36866084 -0.3574057
-0.3895488 0.14083059 -0.13640325 -0.15880041 -0.1596031 0.42254993 -0.6412665 -0.030721633
0.10214391 -0.56563383 0.31949562 -0.4895489 -0.112827934 -0.0040508574 -0.15542646 -0.4440559
0.39138302 -0.013152068 -0.34190574 0.6220218 0.23430726 0.027713895 -0.1284209 0.066197686
-0.5327341 -0.27248308 -0.14421263 0.08504733 0.17517631 0.254614 0.015695864 0.013030611
0.38422537 -0.422646 -0.36134365 -0.18622066 0.08408603 0.23320766 0.5974197 0.19977364
-0.19093187 0.6374062 -0.07003728 -0.06310537 0.16503067 0.14686888 0.06554005 0.5778708
0.59975886 0.5603871 -0.041259114 -0.41352352 -0.3033348 -0.19088607 -0.41226524 -0.30489758
-0.06464299 0.51151127 0.45145625 -0.2420597 -0.64832735 0.02755546 -0.01944763 -0.40024135
-0.02156123 -0.025100058 0.3897891 0.06133597 0.21078096 -0.37288356 -0.02595004 -0.041793503
0.07285821 -0.13820875 0.25421193 -0.48830777 -0.1820023 -0.34920773 -0.38994953 -0.38908607
-0.17255579 0.058269992 0.04237781 0.0054232595 -0.25813562 0.051998995 0.017171677 0.2965289
-0.21583575 -0.48756316 0.32438263 -0.047039382 -0.15207084 0.010726315 0.015686134 0.23807654
0.6799548 0.1866451 -0.12624277 0.76079667 0.24506938 -0.16164845 -0.48708197 -0.19256346
0.33864278 -0.08178054 0.27457693 -0.11283682 0.27850732 0.124840096 -0.13024983 -0.49677774
-0.17028387 0.1343768 -0.33136225 0.07245493 -0.25800627 -0.21595556 -0.28160486 0.45290813
0.108889654 0.20752509 0.40636793 -0.11948084 -0.22685616 -0.13664663 -0.0007200504 -0.2568302
-0.59545857 0.2906604 0.08004491 -0.5087224 -0.15079208 0.26956913 -0.111397855 -0.06853168
0.31627187 -0.3302181 0.71346146 0.056215957 0.060319193 -0.013204275 -0.079244725 0.28393707
0.14945395 -0.16225319 0.17458835 0.51588476 -0.31667557 -0.16350915 -0.2137759 -0.51155794
0.2114334 -0.33352757 -0.32466108 -0.004771219 0.05984682 0.14582276 -0.51682264 0.44967446
0.088507146 -0.6804197 -0.15880084 0.012223145 -0.46966854 -0.090510406 -0.20512578 -0.5146236
00000000: 0e46 cebe f1ff cfbd dbc2 cdbe 1099 8a3e
00000010: 0073 3fbf 2daa 36be 5fed 213f e6cd d83e
00000020: 4073 133f 8ad5 0e3d 61b1 18be f6e4 2abb
00000030: 8b6f 933e 2ba4 39bf 6f25 f5bd 724b 723e
00000040: f040 953e 3ac6 3a3e 86ea 213e e35f d53d
00000050: 825c 323e 321a 713e 6274 65bf f5f4 04bc
00000060: e91b de3d c874 3cbe a279 143e 5331 c83e
00000070: fa1d 9f3e 2e65 173e d5ab 8f3f da46 20bd
00000080: 632a 403d b3f0 e63d 9b9b 78be e7f2 fdbd
00000090: 2945 983d d15b 6bbe 667a 4d3e 12f7 a33e
000000a0: 0c24 3ebf ded3 98be 1e1e 3abd 72d4 aabd
000000b0: 5406 01bd 0cdc 103d eea4 34be af8e 8e3d
000000c0: 0c0e 6d3e 6ac5 79bf e4ce 09bf e9f7 7c3e
000000d0: 4733 d33c 74d2 cc3c be63 013c 24aa 663d
000000e0: 24ed 56be 6957 0fbf 8ec8 52bc 9e6b 293f
000000f0: 024d bbbc ea4d b23e 200c 053d 6036 e23d
00000100: 9e7a 9e3e ae7d 4dbd 76ef f4be c151 04be
00000110: e2f0 3f3f 1a55 053e 3772 fb3c 6227 b9bd
00000120: f131 1b3e afa2 b03d 8fad 43be 1da9 49bf
00000130: 0a13 1abf bb19 c83e 4866 e83d cf1f 0fbe
00000140: c1c6 49be 857e f83d 37a4 2f3f ef2f c73d
00000150: e85c ef3e d0da 023e 1dc1 bc3e e1fd b6be
00000160: f172 c7be e535 103e 4bad 0bbe 939c 22be
00000170: ff6e 23be 7758 d83e 0b2a 24bf efab fbbc
00000180: d430 d13d 61cd 10bf ee94 a33e 27a6 fabe
00000190: 5512 e7bd 0ebd 84bb 1d28 1fbe 4c5b e3be
000001a0: 5b63 c83e c57b 57bc 450e afbe d23c 1f3f
000001b0: 3eee 6f3e 4008 e33c c580 03be a792 873d
000001c0: 4361 08bf e782 8bbe 7aac 13be 4b2d ae3d
000001d0: 6b61 333e c45c 823e 9d94 803c 587e 553c
000001e0: 30b9 c43e 0e65 d8be 0902 b9be a1b0 3ebe
000001f0: 4c35 ac3d fdcd 6e3e 7ff0 183f 7691 4c3e
00000200: a583 43be 0d2d 233f b56f 8fbd 633d 81bd
00000210: cdfd 283e cc64 163e dd39 863d 57ef 133f
00000220: cc89 193f 8775 0f3f 51ff 28bd 5bb9 d3be
00000230: b34e 9bbe a377 43be 6e14 d3be 891b 9cbe
00000240: 8b63 84bd 67f2 023f 4625 e73e 7fde 77be
00000250: c8f8 25bf fdbb e13c a350 9fbc 6fec ccbe
00000260: 2da1 b0bc a39e cdbc 7092 c73e 6d3b 7b3d
00000270: f7d6 573e 98ea bebe 2e95 d4bc aa2f 2bbd
00000280: af36 953d 9886 0dbe 1128 823e 7a03 fabe
00000290: d05e 3abe 5bcb b2be 77a7 c7be 4a36 c7be
000002a0: 77b2 30be 84ac 6e3d 5b94 2d3d 99b5 b13b
000002b0: 5a2a 84be e6fc 543d 9eab 8c3c a3d2 973e
000002c0: 0c04 5dbe e1a1 f9be 7b15 a63e 5eac 40bd
000002d0: 75b8 1bbe 6dbd 2f3c 3580 803c 56ca 733e
000002e0: 8511 2e3f e51f 3f3e c945 01be 92c3 423f
000002f0: 78f3 7a3e 2c87 25be cf62 f9be 5b2f 45be
00000300: 9662 ad3e 8e7c a7bd 5995 8c3e fe16 e7bd
00000310: 8398 8e3e 2aac ff3d 3660 05be a759 febe
00000320: e55e 2ebe 129a 093e 50a8 a9be 4063 943d
00000330: 6619 84be 7423 5dbe 832e 90be 93e3 e73e
00000340: 8a01 df3d 7581 543e 750f d03e 5fb2 f4bd
00000350: fb4c 68be 18ed 0bbe c4c1 3cba 3f7f 83be
00000360: f96f 18bf 71d1 943e 96ee a33d a23b 02bf
00000370: 3d69 1abe f704 8a3e 8f24 e4bd 565a 8cbd
00000380: 63ee a13e 5912 a9be 69a5 363f b442 663d
00000390: 4211 773d be56 58bc 0f4b a2bd 3360 913e
000003a0: 750a 193e b325 26be 4ac7 323e 0611 043f
000003b0: 4d23 a2be f16e 27be 12e8 5abe 76f5 02bf
000003c0: ff81 583e 20c4 aabe fa39 a6be e357 9cbb
000003d0: f021 753d 9052 153e 7d4e 04bf bb3b e63e
000003e0: 3c43 b53d fc2f 2ebf b09c 22be 9643 483c
000003f0: 6578 f0be 855d b9bd 7e0c 52be 5fbe 03bf

norm1.weight f4 [10]
1.1716815 0.96436614 1.0744557 1.1994079 0.9805157 0.8876551 1.0578771 0.76022995
1.0261925 1.1521621
00000000: a9f9 953f b3e0 763f c487 893f 3386 993f
00000010: 1403 7b3f 5d3d 633f 8468 873f 6e9e 423f
00000020: 475a 833f 0c7a 933f

norm1.bias f4 [10]
-0.095065445 -0.4427267 -0.29111448 -0.0366413 0.1653834 -0.14071432 0.30932072 -0.2326164
-0.006263263 0.20406412
00000000: acb1 c2bd 13ad e2be f50c 95be 3015 16bd
00000010: 445a 293e 6a17 10be 495f 9e3e fe32 6ebe
00000020: 0f3c cdbb 2ff6 503e

conv2.weight f4 [10, 10, 3, 3]
0.10446859 -0.0058417236 0.036726423 -0.040970348 -0.014232684 -0.0837942 0.012851076 0.2569077
0.29674858 -0.19735935 -0.24508941 -0.31870514 -0.19812314 -0.31537163 -0.379483 0.30041233
0.4727777 0.23639968 0.08932199 -0.086251505 -0.015239121 -0.04590869 -0.0489281 -0.13980104
0.058186904 0.17277648 0.2705458 -0.102354735 -0.25078768 -0.21153581 -0.12730092 0.05448865
-0.09664017 0.08278084 0.039041135 0.053999044 0.2421925 0.17196439 0.031614803 -0.20756352
-0.08035813 0.021568276 -0.11982826 0.07515866 -0.022332842 0.25547814 -0.0032553496 0.1329793
-0.09855163 -0.11556266 -0.22432978 -0.021186972 0.12664638 0.08553771 0.022838356 0.2101719
0.2375082 -0.13693897 -0.21040332 0.023300126 -0.10214092 -0.21033454 -0.13459653 -0.19501841
-0.054389875 -0.041992746 0.05527399 -0.06055271 -0.033197165 0.07735241 0.120137475 -0.10051832
-0.057168957 -0.17831078 -0.07099117 -0.05632409 0.117156066 -0.041085374 0.23177086 0.16783908
0.18751307 -0.024851264 0.21361639 0.20112011 -0.12021921 -0.24629945 0.04861627 -0.16430488
-0.226736 -0.2715507 -0.07257843 0.30154595 -0.18755941 -0.16061416 -0.029883005 0.22456837
0.04615942 -0.09858996 -0.08985774 -0.021019856 0.23584984 -0.03710993 -0.27072847 0.35433546
0.1960673 -0.2738663 -0.060028967 0.1259946 -0.07798301 -0.18952537 -0.08424903 0.475129
-0.38256383 -0.23353948 0.32354742 -0.031954166 -0.11570824 0.27125946 -0.31681463 0.0016503959
0.22318874 -0.4045368 -0.06442128 0.43631738 -0.06155775 -0.28475967 -0.06066321 -0.05353815
-0.027181761 -0.0087646125 0.33537248 0.16740498 -0.18096915 0.29668683 0.15723611 -0.11393202
-0.09660908 0.06288803 -0.12940161 -0.20245802 0.11902261 0.082839146 -0.041983142 -0.1420247
-0.01319068 0.13276735 -0.1933876 -0.08979752 0.22341685 -0.08715775 0.06587326 0.12426693
0.060833238 0.041764468 -0.010397062 -0.06267472 -0.029917099 -0.09351535 0.11408056 0.027721286
-0.044415243 0.12698545 -0.31391662 0.07823274 0.12710421 -0.0029613313 -0.057253726 -0.0063984515
-0.0065405383 0.1778944 -0.084911965 0.029287172 0.2032152 -0.2508925 -0.11198514 0.16604307
-0.34235397 -0.052344155 0.08211652 -0.021586683 0.068051934 -0.46064377 0.003646016 0.17604606
-0.09926062 0.03268216 0.023566637 0.123605624 -0.074868694 0.014997116 -0.37378493 -0.18604414
-0.24762627 -0.3455344 0.03066529 -0.27651343 -0.03413782 0.104169056 -0.08875884 0.13450642
0.1768426 0.030050188 -0.29876366 -0.10175412 -0.29831773 0.0725193 0.14990713 0.20527425
-0.12091752 -0.042318314 -0.1671141 -0.1202022 0.098029405 0.1414896 0.20095147 -0.08277341
-0.0063490737 -0.24434279 -0.09774418 -0.15387934 -0.22306572 0.2517573 0.08718666 0.34457105
0.15697369 0.05087929 0.048041385 -0.09549179 -0.1441804 -0.08206763 -0.0054791006 0.04351121
0.089952864 -0.025354728 -0.13378832 0.32637063 0.07792445 0.18002625 0.20415469 -0.11103421
0.15585181 0.013417764 -0.056455057 -0.021060891 -0.015829602 -0.059369255 0.16667844 -0.08652254
0.09698169 0.10682973 0.013402584 0.16118482 0.016471317 -0.13867746 0.03836633 -0.24285913
00000000: a1f3 d53d ee6b bfbb 726e 163d 86d0 27bd
00000010: 3430 69bc 4b9c abbd 528d 523c 6889 833e
00000020: 6eef 973e 9218 4abe b8f8 7abe 522d a3be
00000030: cbe0 4abe 6478 a1be 994b c2be a5cf 993e
00000040: eb0f f23e c212 723e 73ee b63d a1a4 b0bd
00000050: 82ad 79bc c00a 3cbd d568 48bd 0128 0fbe
00000060: 6455 6e3d 51ec 303e fb84 8a3e 5c9f d1bd
00000070: 3e67 80be d89c 58be 2c5b 02be 7e2f 5f3d
00000080: 48eb c5bd 0089 a93d 99e9 1f3d 1a2e 5d3d
00000090: 5001 783e 6f17 303e 867e 013d 888b 54be
000000a0: ce92 a4bd f4af b03c 8568 f5bd c9ec 993d
000000b0: 5df3 b6bc 08ce 823e b457 55bb ba2b 083e
000000c0: 70d5 c9bd 1eac ecbd b5b6 65be 4d90 adbc
000000d0: 97af 013e 652e af3d 8117 bb3c 4d37 573e
000000e0: 5935 733e bb39 0cbe f873 57be e8df be3c
000000f0: 422f d1bd f061 57be acd3 09be e8b2 47be
00000100: ebc7 5ebd 9600 2cbd fb66 623d 1e06 78bd
00000110: c0f9 07bd f16a 9e3d a30a f63d 8ddc cdbd
00000120: ff29 6abd 1a97 36be d263 91bd 17b4 66bd
00000130: 85ef ef3d 2349 28bd 5755 6d3e 02de 2b3e
00000140: 6d03 403e e194 cbbc 41be 5a3e 6ef2 4d3e
00000150: 7d35 f6bd ec35 7cbe db21 473d 8a3f 28be
00000160: 7b2d 68be b108 8bbe 00a4 94bd 3b64 9a3e
00000170: 930f 40be 0a78 24be 34cd f4bc 40f5 653e
00000180: a911 3d3d 88e9 c9bd 5607 b8bd d531 acbc
00000190: 9f82 713e 9500 18bd ec9c 8abe 756b b53e
000001a0: dec5 483e 3438 8cbe efe0 75bd ba04 013e
000001b0: 8eb5 9fbd f012 42be c18a acbd 1c44 f33e
000001c0: 68df c3be f924 6fbe 02a8 a53e 5fe2 02bd
000001d0: 71f8 ecbd 85e2 8a3e 8735 a2be 1952 d83a
000001e0: 978b 643e 731f cfbe 4eef 83bd fe64 df3e
000001f0: fb23 7cbd 05cc 91be fc79 78bd d24a 5bbd
00000200: 49ac debc 7399 0fbc f1b5 ab3e 366c 2b3e
00000210: fa4f 39be 56e7 973e 8102 213e 3155 e9bd
00000220: fbda c5bd 71cb 803d db81 04be 2851 4fbe
00000230: 20c2 f33d 92a7 a93d 84f6 2bbd ec6e 11be
00000240: b91d 58bc 2af4 073e 6607 46be c3e7 b7bd
00000250: 63c7 643e c37f b2bd 8fe8 863d a97f fe3d
00000260: 462c 793d 3811 2b3d 7058 2abc 9b5b 80bd
00000270: b414 f5bc fa84 bfbd 12a3 e93d c017 e33c
00000280: c2ec 35bd 7908 023e aeb9 a0be 7d38 a03d
00000290: 9b27 023e e512 42bb e282 6abd 1aaa d1bb
000002a0: 0352 d6bb f329 363e 53e6 adbd a7eb ef3c
000002b0: a517 503e fb74 80be 7758 e5bd 3207 2a3e
000002c0: 0549 afbe d366 56bd b52c a83d 8ed6 b0bc
000002d0: d05e 8b3d 80d9 ebbe fff1 6e3b 6b45 343e
000002e0: 2749 cbbd bbdd 053d d20e c13c f224 fd3d
000002f0: c254 99bd 77b6 753c bd60 bfbe 5b82 3ebe
00000300: be91 7dbe e3e9 b0be c635 fb3c 2b93 8dbe
00000310: 19d4 0bbd 9656 d53d 32c7 b5bd 0dbc 093e
00000320: 3a16 353e d02b f63c 8df7 98be 7764 d0bd
00000330: 1abd 98be 0085 943d 4181 193e 6a33 523e
00000340: 9ba3 f7bd f855 2dbd f51f 2bbe 922c f6bd
00000350: a4c3 c83d a6e2 103e 39c6 4d3e 1b85 a9bd
00000360: e40b d0bb ff34 7abe 1a2e c8bd 8c92 1dbe
00000370: 576b 64be 55e6 803e eb8e b23d 9e6b b03e
00000380: b6bd 203e cd66 503d 0bc7 443d 3391 c3bd
00000390: 07a4 13be 1313 a8bd 078a b3bb cf38 323d
000003a0: 3539 b83d b8b4 cfbc ceff 08be 0d1a a73e
000003b0: db96 9f3d cd58 383e ed0d 513e e765 e3bd
000003c0: 9e97 1f3e 2ed6 5b3c 6b3d 67bd e487 acbc
000003d0: 15ad 81bc 2d2d 73bd c1ad 2a3e bb32 b1bd
000003e0: 569e c63d 8cc9 da3d 8396 5b3c a20d 253e
000003f0: dbee 863c 7701 0ebe 0326 1d3d 10b0 78be

norm2.weight f4 [10]
1.0603411 1.0425669 1.0630254 1.0609974 0.93223774 1.1149716 1.1522892 1.1855717
0.9684874 1.1145793
00000000: 42b9 873f d572 853f 3711 883f c3ce 873f
00000010: 22a7 6e3f 64b7 8e3f 367e 933f d0c0 973f
00000020: caee 773f 89aa 8e3f

norm2.bias f4 [10]
-0.25316513 0.2365965 0.46403822 -0.20859411 0.3578829 -0.30770236 0.0729119 -0.15880083
0.4856276 -0.42533034
00000000: dc9e 81be 5a46 723e 6b96 ed3e b299 55be
00000010: 6d3c b73e 2a8b 9dbe d652 953d af9c 22be
00000020: 2ea4 f83e e6c4 d9be

tns1.weight f4 [16, 10, 1, 1]
0.1778524 -0.008168648 -0.12285517 0.19675705 0.14444509 0.51165617 0.25993934 -0.13473982
-0.23865692 -0.06575251 -0.07627353 0.03154109 0.17306228 -0.25484028 -0.17237592 0.119658545
0.05850514 -0.2533871 0.35365778 0.32984918 0.11353731 0.020149304 0.36427107 0.5445558
0.088434316 -0.16198704 -0.23463735 0.46704257 -0.5278628 0.058582645 0.71683097 -0.1666253
-0.20762335 -0.09005002 0.026420148 -0.4920327 -0.22429661 -0.08366201 0.07638467 0.38112143
-0.060630746 -0.054469474 -0.22572368 -0.26250532 0.4455953 -0.4934308 0.020109355 -0.10850928
-0.48495063 0.28614208 0.34376833 -0.19030364 0.26396462 0.0106152585 -0.4060213 0.5181542
0.31664225 0.3953914 0.19832608 0.40515867 0.04874824 0.0032597585 -0.5331297 0.113965616
-0.24875467 -0.075549684 -0.19403742 0.7147438 -0.7829978 -0.24940516 -0.05653105 -0.11256949
0.056568634 0.5528552 -0.01718337 0.024989916 -0.1950099 -0.4426733 0.34794274 0.20713861
0.12785557 0.083613984 0.07717589 0.453962 -0.23945567 -0.08786019 0.9122724 0.10897311
-0.079158224 0.076780066 0.37361082 0.44812486 -0.29405618 -0.20560151 -0.2208714 0.23307744
0.2651686 0.20492302 0.023693955 0.34869483 -0.31269968 -0.553001 -0.33213988 -0.4046831
-0.3376007 0.32272893 0.22516976 -0.27231926 -0.6197606 0.109964706 0.19048832 -0.097920455
0.62723273 -0.15597802 -0.3794413 0.08068718 0.080381215 -0.21056396 -0.48024708 -0.117125176
0.759645 -0.5300218 -0.15096441 -0.008718937 -0.3107762 0.5541786 0.20364197 -0.15425302
0.1192796 -0.5035914 0.3271487 -0.012494806 0.119423814 0.1321589 0.30468866 -0.032680355
0.12795563 -0.32028335 -0.22355616 0.6646755 -6.686487e-05 0.53259695 -0.44626817 0.005661216
-0.42709094 0.36668605 0.070011884 -0.050035805 -0.4171495 -0.3370125 0.072435044 -0.12477973
-0.497091 0.4764503 0.40020025 -0.22521104 -0.20739067 -0.26000372 -0.5619323 -0.45709643
00000000: f11e 363e cbd5 05bc 7e9b fbbd ae7a 493e
00000010: 6ae9 133e e6fb 023f c516 853e 3cf9 09be
00000020: 7b62 74be 41a9 86bd 4c35 9cbd 3b31 013d
00000030: 3d37 313e 6d7a 82be 5083 30be 8a0f f53d
00000040: 16a3 6f3d f4bb 81be a212 b53e fee1 a83e
00000050: 4086 e83d 2710 a53c bd81 ba3e 0268 0b3f
00000060: 0d1d b53d eedf 25be c644 70be 3420 ef3e
00000070: 0422 07bf 5bf4 6f3d 3c82 373f d39f 2abe
00000080: 379b 54be 256c b8bd 116f d83c b6eb fbbe
00000090: 03ae 65be fd56 abbd 916f 9c3d 5922 c33e
000000a0: f257 78bd 621b 5fbd 1c24 67be 1967 86be
000000b0: 1125 e43e f6a2 fcbe 60bc a43c 1d3a debd
000000c0: 734b f8be 3781 923e 6702 b03e f5de 42be
000000d0: 5f26 873e 9feb 2d3c 06e2 cfbe c1a5 043f
000000e0: ef1e a23e be70 ca3e fe15 4b3e f570 cf3e
000000f0: 3cac 473d aca1 553b 307b 08bf ce66 e93d
00000100: 8bb9 7ebe cbb9 9abd bfb1 46be 73f9 363f
00000110: 8b72 48bf 1164 7fbe 1a8d 67bd d58a e6bd
00000120: 83b4 673d eb87 0d3f 24c4 8cbc a7b7 cc3c
00000130: adb0 47be 13a6 e2be 8d25 b23e 251c 543e
00000140: 92ec 023e cf3d ab3d 650e 9e3d b56d e83e
00000150: de33 75be 0bf0 b3bd af8a 693f 4b2d df3d
00000160: b51d a2bd de3e 9d3d eb49 bf3e 9f70 e53e
00000170: 888e 96be 3489 52be 1d2c 62be daab 6e3e
00000180: 2ec4 873e 57d7 513e d319 c23c 2188 b23e
00000190: 2c1a a0be 7991 0dbf 3d0e aabe a032 cfbe
000001a0: 00da acbe ba3c a53e e792 663e 6e6d 8bbe
000001b0: a1a8 1ebf 2d35 e13d 5f0f 433e 858a c8bd
000001c0: 5392 203f b4b8 1fbe 2146 c2be 523f a53d
000001d0: e89e a43d 149e 57be f2e2 f5be 53df efbd
000001e0: 1878 423f 82af 07bf 6a96 1abe dfd9 0ebc
000001f0: 0f1e 9fbe a6de 0d3f 8587 503e 81f4 1dbe
00000200: dd48 f43d 5eeb 00bf 0980 a73e 04b7 4cbc
00000210: 7994 f43d aa54 073e 2700 9c3e d6db 05bd
00000220: cd06 033e 2efc a3be e8eb 64be 2c28 2a3f
00000230: ce39 8cb8 4658 083f 437d e4be b981 b93b
00000240: aaab dabe 46be bb3e 6462 8f3d 58f2 4cbd
00000250: 9f94 d5be e78c acbe d358 943d 848c ffbd
00000260: b682 febe 4bf1 f33e 0ce7 cc3e b99d 66be
00000270: 385e 54be 351f 85be ccda 0fbf 8b08 eabe

conv3.weight f4 [24, 16, 3, 3]
0.052727174 0.074833475 -0.0250898 -0.048622232 0.08879601 0.08407158 -0.04003904 -0.058956824
-0.056282472 0.021089366 0.03574922 -0.14145893 -0.01070821 0.16716391 -0.1660352 -0.088628545
0.016003374 -0.13163222 -0.021642156 0.16456549 0.058455657 0.01997853 0.20666844 0.0024974593
-0.022670971 -0.071800515 0.0055063413 -0.016353767 -0.031878132 -0.13460068 0.11876437 0.07402643
-0.10240413 0.09273879 0.112368405 -0.05819734 -0.1643112 -0.20089632 -0.20538898 0.05520839
0.041396916 0.029333083 -0.14124566 0.02834457 -0.09648172 -0.24590974 -0.052561313 -0.0757699
-0.04301931 0.13136016 0.022805458 -0.06344854 -0.09719435 -0.14907031 0.038865462 0.051258974
-0.20666033 -0.051239666 -0.003252211 -0.25074276 0.019777436 0.16946653 -0.064177856 0.031458344
-0.048117634 -0.25632718 0.059820093 0.14032032 -0.13428934 -0.04897519 0.11975994 -0.047465485
0.08512592 0.009256934 -0.0599084 0.06502699 0.27863923 0.2481367 -0.19869071 -0.24310413
-0.14549252 0.084986076 0.13742448 -0.16368279 0.099278815 0.34630954 -0.067454584 -0.10822305
0.038966812 -0.21849369 -0.11630628 -0.15567906 0.009476435 -0.0214223 -0.042339027 0.2508464
0.012670075 -0.037260734 0.22330986 -0.07041032 0.09324146 -0.06250486 -0.066869505 0.23486488
0.11178102 -0.13911425 -0.026702015 -0.043537673 -0.09340741 -0.15390322 0.010384734 0.09846019
0.023753125 0.14270253 -0.007829887 0.05799005 0.11571111 -0.033824824 0.06860544 -0.13331166
0.08250816 0.28679857 0.032269884 -0.17196974 0.036001842 -0.1985336 0.1825781 0.07198754
-0.274782 0.07260658 0.27806452 -0.1495755 0.048318863 0.05138303 -0.022939907 -0.07973628
0.08574601 -0.103194565 -0.076653965 0.054738503 -0.056938946 -0.052104868 0.1391564 -0.088093154
-0.17912082 -0.047405876 0.116199 0.0009881502 0.0045567434 0.04123486 -0.1624071 -0.12550835
-0.021396125 0.11170053 0.039165013 -0.07289365 0.13882677 0.25106284 0.032133695 0.2599058
0.10926821 -0.06964762 -0.05945576 0.03050748 -0.026046857 0.07516834 0.0001504876 0.015436616
-0.058195684 -0.04730131 -0.18163204 0.105027 -0.014382271 -0.11124773 -0.036868732 -0.21674931
-0.09042668 -0.0040292703 -0.13833669 -0.08457607 0.18309593 0.20356697 -0.030941378 0.162913
-0.1298576 -0.13920768 0.121387966 -0.07644517 0.086404555 0.25541565 0.051181328 0.16553724
0.060177166 0.31877202 0.14774786 0.088824786 0.036152788 -0.04958104 0.10712283 0.1518886
-0.024915654 0.11253403 -0.025881132 0.043382384 -0.0030507874 -0.024097823 0.022429114 0.0005108303
-0.06913556 0.005669066 0.05268928 0.055505875 -0.0772197 0.047783967 -0.12675293 -0.12250086
-0.33725017 -0.08636684 0.08579583 -0.045329012 0.028869437 0.029670626 -0.054274578 -0.061256293
0.17082722 -0.05791598 -0.094450295 0.056167662 -0.03257875 0.033456657 0.045288984 0.048266906
0.046115965 -0.041105412 -0.009214061 -0.08011053 -0.0048518353 0.019499907 -0.053271934 0.038228337
-0.0752704 -0.14100422 0.056274112 -0.0782163 0.0030122302 0.23957136 0.017583853 0.25443715
0.1585853 -0.0402185 0.0067603826 -0.14239165 0.045589793 -0.024323111 0.17680924 -0.025807638
00000000: 73f8 573d 4b42 993d 2089 cdbc 1b28 47bd
00000010: afda b53d b82d ac3d faff 23bd b67c 71bd
00000020: 7388 66bd 9bc3 ac3c c66d 123d 9cda 10be
00000030: 7d71 2fbc 042d 2b3e 2205 2abe e282 b5bd
00000040: 8219 833c 99ca 06be e44a b1bc db83 283e
00000050: 336f 6f3d 04aa a33c e4a0 533e 6aac 233b
00000060: 79b8 b9bc 260c 93bd 8a6e b43b 56f8 85bc
00000070: a592 02bd c3d4 09be bc3a f33d 2b9b 973d
00000080: 42b9 d1bd d6ed bd3d 6821 e63d 5660 6ebd
00000090: 3241 28be c4b7 4dbe 7d51 52be 3122 623d
000000a0: d08f 293d ef4b f03c b4a2 10be df32 e83c
000000b0: 3598 c5bd c3cf 7bbe 884a 57bd 402d 9bbd
000000c0: 0435 30bd 4783 063e 83d2 ba3c 4ff1 81bd
000000d0: d50d c7bd e3a5 18be 6431 1f3d eef4 513d
000000e0: c49e 53be afe0 51bd 0c23 55bb 5b61 80be
000000f0: 4a04 a23c a288 2d3e ae6f 83bd 77da 003d
00000100: ff16 45bd 513d 83be ea05 753d 21b0 0f3e
00000110: 2583 09be 359a 48bd b344 f53d 2b6b 42bd
00000120: 8056 ae3d 65aa 173c 8362 75bd df2c 853d
00000130: cda9 8e3e 8c17 7e3e 9475 4bbe 4af0 78be
00000140: fefb 14be 2e0d ae3d 01b9 0c3e 769c 27be
00000150: b152 cb3d 7c4f b13e a125 8abd 0ca4 ddbd
00000160: aa9b 1f3d cfbc 5fbe fd31 eebd 556a 1fbe
00000170: 0d43 1b3c d27d afbc b06b 2dbd f06e 803e
00000180: 2596 4f3c b69e 18bd 57ab 643e 4933 90bd
00000190: 61f5 be3d 8c02 80bd e1f2 88bd 6b80 703e
000001a0: 73ed e43d f773 0ebe 2fbe dabc 8f54 32bd
000001b0: 624c bfbd ce98 1dbe bb24 2a3c 7fa5 c93d
000001c0: ea95 c23c 9d20 123e ed48 00bc fa86 6d3d
000001d0: f2f9 ec3d e68b 0abd 0281 8c3d da82 08be
000001e0: 0afa a83d 43d7 923e 6d2d 043d d618 30be
000001f0: ab76 133d 644c 4bbe c1f5 3a3e 346e 933d
00000200: 3ab0 8cbe c2b2 943d 795e 8e3e 522a 19be
00000210: 00ea 453d 0377 523d 79ec bbbc c64c a3bd
00000220: 9b9b af3d ac57 d3bd c1fc 9cbd 7b35 603d
00000230: d038 69bd ea6b 55bd 047f 0e3e 2f6a b4bd
00000240: 736b 37be aa2c 42bd bef9 ed3d d284 813a
00000250: bc50 953b e2e5 283d 0c4e 26be 4385 00be
00000260: ed46 afbc 3fc3 e43d 7e6b 203d 4449 95bd
00000270: 9b28 0e3e 4f8b 803e 9f9e 033d 5f12 853e
00000280: 03c8 df3d 69a3 8ebd e287 73bd d3ea f93c
00000290: 3860 d5bc dcf1 993d 35cc 1d39 dce9 7c3c
000002a0: 995e 6ebd 05bf 41bd c0fd 39be 6518 d73d
000002b0: 9ea3 6bbc dad5 e3bd ab03 17bd 88f3 5dbe
000002c0: a031 b9bd f807 84bb 22a8 0dbe 3836 adbd
000002d0: 807d 3b3e dc73 503e c678 fdbc aad2 263e
000002e0: 64f9 04be 758c 0ebe 419a f83d 498f 9cbd
000002f0: dff4 b03d d7c5 823e 83a3 513d 9882 293e
00000300: 557c 763d 1636 a33e 374b 173e c5e9 b53d
00000310: f214 143d 7d15 4bbd 3763 db3d af88 1b3e
00000320: ea1b ccbc 3e78 e63d ab04 d4bc bab1 313d
00000330: b8ef 47bb cc68 c5bc 43bd b73c 3ee9 053a
00000340: f296 8dbd 93c3 b93b b7d0 573d 215a 633d
00000350: 5d25 9ebd 1fb9 433d 85cb 01be bbe1 fabd
00000360: 0eac acbe 19e1 b0bd b9b5 af3d eaaa 39bd
00000370: 997f ec3c d00f f33c 054f 5ebd e1e7 7abd
00000380: 55ed 2e3e 4f39 6dbd 286f c1bd 1010 663d
00000390: 4c71 05bd d909 093d f180 393d 85b3 453d
000003a0: 18e4 3c3d 265e 28bd 93f6 16bc fd10 a4bd
000003b0: 25fc 9ebb 45be 9f3c ac33 5abd 5195 1c3d
000003c0: 5e27 9abd 6963 10be af7f 663d de2f a0bd
000003d0: d668 453b 3252 753e 030c 903c 9645 823e
000003e0: 2f64 223e 27bc 24bd 3386 dd3b 1ecf 11be
000003f0: 5dbc 3a3d 4341 c7bc 7b0d 353e 8a6a d3bc

norm3.weight f4 [24]
1.1679254 0.9179274 1.0399557 0.93301207 1.0135285 1.0273727 0.9700737 0.956746
0.9218141 0.98879236 1.1725724 1.1446466 0.95188224 1.1091677 0.9524835 1.1296703
1.137104 0.8803287 0.99037105 1.0953732 1.0660634 1.0815982 1.0805672 0.8578577
00000000: 947e 953f 4afd 6a3f 451d 853f e1d9 6e3f
00000010: 4dbb 813f f380 833f c056 783f 4eed 743f
00000020: 02fc 6b3f 7f21 7d3f da16 963f c883 923f
00000030: 8eae 733f 35f9 8d3f f5d5 733f 0999 903f
00000040: a08c 913f 395d 613f f588 7d3f 3035 8c3f
00000050: c474 883f cf71 8a3f 0750 8a3f 909c 5b3f

norm3.bias f4 [24]
0.1370636 -0.39072075 0.14295407 -0.40632313 0.08268065 0.0952493 -0.10266843 -0.02129854
-0.023167491 -0.04981847 0.20992917 0.071330555 -0.30280435 0.3508592 -0.18771365 0.16522373
0.026774092 0.07235574 0.118588425 0.2125358 0.2585517 0.31032687 0.03269756 -0.17915834
00000000: 665a 0c3e 8d0c c8be 8d62 123e 9609 d0be
00000010: 7954 a93d 1112 c33d d343 d2bd 477a aebc
00000020: c0c9 bdbc 740e 4cbd acf7 563e c115 923d
00000030: 2c09 9bbe d1a3 b33e 0238 40be 6930 293e
00000040: 5755 db3c 3f2f 943d 7dde f23d fca2 593e
00000050: e360 843e 2ae3 9e3e e0ed 053d 4975 37be

conv4.weight f4 [16, 24, 3, 3]
-0.17184441 -0.17382625 -0.14679162 0.15536067 -0.039291196 -0.13022588 0.19342664 0.07737401
-0.06087689 0.07109442 0.07993397 -0.026605614 0.06234697 -0.10805332 -0.033389702 -0.08266804
-0.06272359 -0.066859014 0.08334738 0.04025988 -0.081538536 0.19890442 0.04920501 -0.19442888
0.12517287 0.0016846894 -0.22245355 0.108793214 -0.07522251 -0.24751247 0.17346507 -0.17089918
-0.24463569 -0.0052027185 -0.05038207 0.04403777 -0.096960336 0.04018292 0.084979646 -0.12549238
-0.1522479 -0.020896096 -0.030641848 -0.09898974 -0.040820155 -0.16678655 0.0582639 0.08640752
-0.07515191 0.018642358 -0.02355466 0.051074464 0.13255395 0.05993413 -0.09562147 -0.15317307
-0.15091977 -0.23755625 -0.112175584 0.06656378 -0.00047465428 0.028958907 -0.005136191 0.14805752
-0.086659454 -0.22190693 0.11898322 0.14232968 -0.27837756 0.046091393 0.029776232 0.06094275
0.0704193 0.17477207 0.09272563 -0.08612443 -0.0925311 0.1274337 -0.23115337 -0.037582442
0.06971703 0.17403221 -0.07651849 0.075893536 -0.004874118 0.06033609 0.05998538 -0.012690456
0.0889864 0.034254596 -0.036341034 0.0003841761 0.01538377 0.10756704 0.07539249 -0.03795975
0.09257273 0.09273677 -0.0066960845 -0.124651894 -0.17423578 0.10389658 0.03332027 -0.218211
-0.16013898 0.0397515 -0.100737505 -0.06836312 0.019886293 -0.061147805 -0.12278455 -0.33149028
-0.15091766 -0.0132625885 -0.28810605 -0.23121078 0.15814024 -0.0006288382 -0.069011934 -0.00078469
-0.014778313 -0.010968189 0.1249057 0.012622924 0.03650149 0.049874295 -0.24351372 -0.02234799
0.024736544 -0.11598233 -0.2550049 -0.0826393 -0.04188129 -0.1647084 -0.19941877 -0.0012481594
0.021413961 -0.018482205 -0.038354266 -0.08077322 0.10627421 -0.030154346 -0.032464124 -0.022462629
-0.14002621 -0.28260845 0.1189603 -0.008212918 -0.07660348 -0.12081461 0.10070388 0.095259085
0.012230527 -0.14092556 0.015969165 0.10000737 -0.26613238 -0.056669563 0.23934484 -0.041104637
-0.05529839 0.035628647 0.025959209 0.012232081 -0.0071599344 -0.05120102 -0.17592412 0.12573211
-0.008227651 -0.083566 0.041353367 -0.03348757 0.06942392 0.101033516 0.026882695 -0.15600638
0.14050356 0.07299037 -0.026229663 0.016424216 -0.048657 0.105270766 0.15969354 -0.081796944
0.095475264 0.09855592 0.011378957 0.07513608 0.112824686 0.024253068 0.21306089 0.0515287
0.12209025 0.115249775 0.030855859 0.13239925 -0.06965455 -0.06469107 0.11232183 -0.030009728
0.05611812 -0.014569953 -0.2683715 -0.087829806 -0.009845543 -0.17788288 -0.25028723 -0.025619416
0.04552918 -0.03601364 -0.12691118 -0.11994383 -0.10959004 -0.022977281 -0.17487721 -0.06278118
0.05213394 -0.03789636 0.015751716 0.23055351 0.029592821 0.05446548 -0.025539808 -0.016804084
-0.06969568 -0.17604074 -0.15039682 0.046438094 0.11519146 0.11707151 0.07696802 -0.0170274
-0.24606791 -0.15890484 -0.012864884 0.06578662 0.047996998 0.03803831 -0.029097635 0.059447486
0.03912455 0.08999344 -0.007979866 0.04659344 0.1800639 0.0672739 -0.13808641 0.06673025
0.08479584 -0.1948639 -0.28649113 -0.018146824 -0.094976015 -0.061660003 0.06486537 -0.038572825
00000000: fbf7 2fbe 82ff 31be 8b50 16be de16 1f3e
00000010: ceef 20bd ef59 05be a211 463e 4476 9e3d
00000020: 0c5a 79bd f499 913d 6cb4 a33d 04f4 d9bc
00000030: 895f 7f3d 0f4b ddbd a4c3 08bd dd4d a9bd
00000040: 3a75 80bd 61ed 88bd 08b2 aa3d 8be7 243d
00000050: adfd a6bd 9aad 4b3e 318b 493d 5d18 47be
00000060: 512d 003e ccd0 dc3a ddca 63be face de3d
00000070: 420e 9abd e973 7dbe d4a0 313e 3200 2fbe
00000080: c781 7abe 917b aabb 6e5d 4ebd f360 343d
00000090: 2493 c6bd d896 243d cf09 ae3d 1381 00be
000000a0: e0e6 1bbe 4a2e abbc 9d04 fbbc 22bb cabd
000000b0: 0933 27bd 18ca 2abe 21a6 6e3d 6df6 b03d
000000c0: 3fe9 99bd dcb7 983c b4f5 c0bc 7533 513d
000000d0: 39bc 073e 7e7d 753d 30d5 c3bd 67d9 1cbe
000000e0: b68a 1abe f241 73be 50bc e5bd 9752 883d
000000f0: 05db f8b9 3b3b ed3c 7e4d a8bb 649c 173e
00000100: 837a b1bd 923b 63be 79ad f33d dfbe 113e
00000110: 8187 8ebe 54ca 3c3d 49ed f33c 1b9f 793d
00000120: fe37 903d 73f7 323e efe6 bd3d 0162 b0bd
00000130: f280 bdbd fb7d 023e 78b3 6cbe 0cf0 19bd
00000140: cdc7 8e3d 8035 323e bab5 9cbd 126e 9b3d
00000150: 11b7 9fbb fa22 773d 3bb3 753d a1eb 4fbc
00000160: 803e b63d 8c4e 0c3d 56da 14bd 3e6b c939
00000170: 350c 7c3c 1c4c dc3d 6167 9a3d af7b 1bbd
00000180: c596 bd3d c7ec bd3d d46a dbbb 7e49 ffbd
00000190: dd6a 32be bbc7 d43d d67a 083d b472 5fbe
000001a0: 79fb 23be 78d2 223d 774f cebd f701 8cbd
000001b0: 94e8 a23c 1f76 7abd 7776 fbbd 18b9 a9be
000001c0: 298a 1abe 544b 59bc a382 93be 85c2 6cbe
000001d0: 84ef 213e 9ed8 24ba 2156 8dbd a8b3 4dba
000001e0: bd20 72bc ebb3 33bc 8fce ff3d 61d0 4e3c
000001f0: 9682 153d fd48 4c3d a95b 79be 2213 b7bc
00000200: 4ba4 ca3c 2588 edbd 0190 82be cb3e a9bd
00000210: b78b 2bbd 52a9 28be 6f34 4cbe 4899 a3ba
00000220: 556c af3c fe67 97bc 5d19 1dbd 6e6c a5bd
00000230: 4ba6 d93d 3f06 f7bc 1af9 04bd 8c03 b8bc
00000240: 0863 0fbe 0eb2 90be 75a1 f33d 7a8f 06bc
00000250: 49e2 9cbd a66d f7bd d63d ce3d 3217 c33d
00000260: 8c62 483c ca4e 10be c4d1 823c aad0 cc3d
00000270: 8142 88be 581e 68bd d016 753e 565d 28bd
00000280: 9180 62bd 58ef 113d 68a8 d43c 1169 483c
00000290: e29d eabb 29b8 51bd 7425 34be ebbf 003e
000002a0: 45cd 06bc a724 abbd 2662 293d 432a 09bd
000002b0: 212e 8e3d a9ea ce3d 1939 dc3c 23c0 1fbe
000002c0: 2ae0 0f3e fa7b 953d 97df d6bc 148c 863c
000002d0: 904c 47bd 3398 d73d b486 233e 2885 a7bd
000002e0: 8988 c33d b0d7 c93d ce6e 3a3c f2e0 993d
000002f0: a110 e73d 5fae c63c a22c 5a3e c20f 533d
00000300: 740a fa3d 1308 ec3d 6dc5 fc3c ab93 073e
00000310: 0ba7 8ebd c07c 84bd fd08 e63d f6d6 f5bc
00000320: 1ddc 653d d0b6 6ebc fd67 89be 1de0 b3bd
00000330: 334f 21bc ee26 36be a625 80be cfdf d1bc
00000340: ce7c 3a3d 0a83 13bd 01f5 01be 1ca5 f5bd
00000350: be70 e0bd da3a bcbc 0313 33be 6b93 80bd
00000360: 668a 553d 3739 1bbd be09 813c 3816 6c3e
00000370: a56c f23c 3217 5f3d dc38 d1bc b8a8 89bc
00000380: 9cbc 8ebd 0644 34be a001 1abe df35 3e3d
00000390: 80e9 eb3d 30c3 ef3d 69a1 9d3d 0c7d 8bbc
000003a0: 3af9 7bbe f3b7 22be 3cc7 52bc 23bb 863d
000003b0: 8098 443d 0fce 1b3d 2a5e eebc 357f 733d
000003c0: 1041 203d 7b4e b83d fcbd 02bc c3d8 3e3d
000003d0: ac62 383e e6c6 893d 8666 0dbe dfa9 883d
000003e0: 71a9 ad3d 678a 47be f7ae 92be a6a8 94bc
000003f0: c982 c2bd 338f 7cbd 23d8 843d 8afe 1dbd

norm4.weight f4 [16]
1.2034979 1.1125877 1.0302995 1.0466573 1.1896602 1.1266788 1.1352651 0.9774614
1.1170155 1.0795654 0.97751045 0.89409304 1.049119 1.1318698 1.14505 1.0853455
00000000: 380c 9a3f 4669 8e3f dbe0 833f def8 853f
00000010: c946 983f 0337 903f 5e50 913f e93a 7a3f
00000020: 5dfa 8e3f 332f 8a3f 203e 7a3f 48e3 643f
00000030: 8849 863f 1ce1 903f 0091 923f 9aec 8a3f

norm4.bias f4 [16]
-0.0872789 0.013289311 0.01982736 0.066128686 -0.11936433 -0.12612298 -0.06314521 -0.21392937
-0.0024053901 -0.09483393 -0.10397897 -0.3116754 -0.24827474 -0.003109209 0.0007751459 -0.10056664
00000000: 48bf b2bd 69bb 593c fd6c a23c 7a6e 873d
00000010: 4975 f4bd 6226 01be 4752 81bd 4d10 5bbe
00000020: c0a3 1dbb 4b38 c2bd edf2 d4bd eb93 9fbe
00000030: bc3b 7ebe dfc3 4bbb 2933 4b3a e2f5 cdbd

conv5.weight f4 [32, 16, 3, 3]
0.10905639 0.0074297013 0.06864055 -0.05197024 -0.08255748 -0.012328502 0.028892562 -0.013165679
0.014126395 -0.06071858 -0.091750465 0.05664586 0.03484152 -0.09810804 -0.00040296357 0.10249095
-0.05958873 -0.07289144 0.15185949 0.10900461 0.030685658 0.11152926 0.034728013 0.035927594
0.14090309 -0.044566695 0.020112997 0.015549015 -0.038683444 -0.10063538 -0.12424966 -0.21147111
-0.092161514 -0.02583637 -0.036756806 -0.093019396 0.120069884 0.004674214 -0.14926828 0.0069022807
-0.23940799 -0.01203503 0.06135412 -0.20252927 0.023203399 -0.056319755 0.088165015 -0.007613445
-0.08264971 -0.08350986 -0.029424498 -0.01340366 0.012942499 0.11324183 -0.007783307 -0.033216447
0.08238922 0.084432386 -0.11475918 -0.029496528 -0.022617768 -0.13441096 0.104026124 0.06773891
0.14900243 0.0057171034 0.17635264 0.0790409 -0.017990569 0.20501612 0.042386208 -0.044458117
-0.03398277 0.05868225 0.0027908555 -0.03260305 0.09382438 -0.052216217 0.22343968 0.21695268
0.015146446 -0.115028925 -0.19957048 -0.13756777 -0.06644046 -0.16022804 -0.06587515 0.038745463
-0.051021606 -0.1139635 -0.03814386 0.036149513 0.058577586 0.22043394 -0.025901435 0.022749878
0.13992424 0.13935673 0.121492915 -0.039761562 -0.17729403 -0.12714836 -0.14159757 -0.15443553
-0.040031854 -0.06952358 -0.2002054 0.024919966 0.074506745 0.044653773 0.0068051764 0.15127519
0.07068741 -0.061676506 0.16235507 -0.052920062 -0.027489427 0.10415634 -0.01475964 -0.1316749
0.11070995 -0.0048014023 -0.085561976 0.041048095 -0.0060448823 0.025387425 0.1319509 0.067902915
0.029086687 0.14094463 0.13953991 -0.0046476363 0.156931 0.027269289 -0.09659196 0.06957078
-0.013543242 -0.00794799 0.11273461 -0.17303069 -0.116485566 0.025669761 -0.08305198 -0.09199008
-0.01800748 -0.1508865 -0.11528766 -0.09613445 -0.023282971 -0.20608234 -0.21412203 -0.0023912136
-0.13692337 0.116974436 -0.06910123 0.23151827 0.07204342 0.093341954 0.10121576 -0.05650741
-0.08662393 0.03253933 0.14459981 0.05294658 -0.030873181 0.002285076 -0.10590397 -0.1276423
-0.09865736 -0.06283267 -0.09799043 -0.022992456 -0.037967518 0.03225153 0.12371899 -0.06693543
0.06939138 0.088384755 -0.06817429 0.15215755 0.121486165 -0.018768476 -0.14822851 -0.029714368
-0.1551495 -0.091395974 0.0088839745 -0.05957798 -0.080671474 0.064127095 0.0842079 0.064707115
-0.06856468 -0.11694712 -0.06106286 -0.11624477 0.046770744 -0.002740087 0.17405681 0.18495785
-0.018250836 0.10813539 0.04145031 -0.034530275 -0.055402078 -0.098333105 -0.16983521 0.056515533
0.13151702 0.06580095 -0.024407914 -0.10863803 -0.23605162 -0.0058732345 -0.07346601 -0.2126982
0.050058488 0.0032429723 -0.08428739 -0.13834757 -0.11636289 -0.026939977 -0.011546771 -0.13221891
-0.13573326 0.10199368 -0.047423508 0.08387617 -0.02407933 -0.113926545 -0.08923412 0.077638835
0.03358996 -0.06311618 0.002597633 0.06032662 0.061232653 0.03697858 0.013671182 0.085851535
0.00068000145 -0.061463356 0.041170627 0.18553343 0.051732026 -0.021180391 -0.00398144 -0.18461892
-0.26206377 -0.04027259 -0.14663146 -0.15002218 0.20856932 0.22788928 0.065936245 0.12206421
00000000: f558 df3d da74 f33b 6b93 8c3d bfde 54bd
00000010: e513 a9bd 7cfd 49bc 18b0 ec3c dcb4 57bc
00000020: 6572 673c 0cb4 78bd abe7 bbbd 7d05 683d
00000030: fbb5 0e3d deec c8bd db44 d3b9 c6e6 d13d
00000040: 5013 74bd 1b48 95bd 0e81 1b3e cf3d df3d
00000050: 7d60 fb3c 7469 e43d f63e 0e3d d028 133d
00000060: e648 103e 918b 36bd 03c4 a43c 4cc1 7e3c
00000070: 8872 1ebd ec19 cebd 9b76 febd e28b 58be
00000080: 2dbf bcbd cca6 d3bc 4e8e 16bd f480 bebd
00000090: 33e7 f53d 262a 993b c9d9 18be 872c e23b
000000a0: 5e27 75be 932e 45bc 754e 7b3d d563 4fbe
000000b0: 0e15 be3c 8baf 66bd dc8f b43d 357a f9bb
000000c0: 4044 a9bd 3807 abbd a50b f1bc 069b 5bbc
000000d0: c60c 543c 55eb e73d 1d0b ffbb f80d 08bd
000000e0: aebb a83d e3ea ac3d dc06 ebbd b4a2 f1bc
000000f0: e648 b9bc 07a3 09be a60b d53d b3ba 8a3d
00000100: 1894 183e 8a56 bb3b c995 343e 32e0 a13d
00000110: f560 93bc bfef 513e 299d 2d3d b719 36bd
00000120: 8431 0bbd cd5c 703d c9e6 363b c78a 05bd
00000130: ff26 c03d ace0 55bd 5fcd 643e d828 5e3e
00000140: cd28 783c 4994 ebbd 345c 4cbe 91de 0cbe
00000150: f011 88bd d212 24be 8de9 86bd 90b3 1e3d
00000160: 08fc 50bd b265 e9bd bc3c 1cbd 8311 143d
00000170: 0def 6f3d 6fb9 613e 3f2f d4bc f45d ba3c
00000180: 4d48 0f3e 88b3 0e3e 47d1 f83d 05dd 22bd
00000190: 918c 35be 2e33 02be f4fe 10be 5924 1ebe
000001a0: 71f8 23bd 6162 8ebd a502 4dbe f524 cc3c
000001b0: fe96 983d e0e6 363d f5fd de3b e2e7 1a3e
000001c0: 90c4 903d 81a0 7cbd 6840 263e b5c2 58bd
000001d0: 8231 e1bc eb4f d53d 6bd2 71bc c9d5 06be
000001e0: e6bb e23d 1555 9dbb 1e3b afbd 0c22 283d
000001f0: 2614 c6bb 4af9 cf3c 231e 073e af10 8b3d
00000200: 3447 ee3c ca53 103e 8de3 0e3e 334b 98bb
00000210: 85b2 203e d863 df3c 01d2 c5bd 207b 8e3d
00000220: 79e4 5dbc 4938 02bc 67e1 e63d f52e 31be
00000230: fc8f eebd 6449 d23c 2817 aabd 4c65 bcbd
00000240: 6c84 93bc fe81 1abe f01b ecbd 23e2 c4bd
00000250: eebb bebc 4007 53be ce42 5bbe e8b5 1cbb
00000260: a435 0cbe 4b90 ef3d f284 8dbd 2013 6d3e
00000270: 808b 933d 112a bf3d 354a cf3d 5074 67bd
00000280: e367 b1bd f647 053d f911 143e 83de 583d
00000290: c1e9 fcbc 37c1 153b 2ee4 d8bd aab4 02be
000002a0: df0c cabd 6aae 80bd 35af c8bd ad5a bcbc
000002b0: d483 1bbd 2e1a 043d 6260 fd3d 7115 89bd
000002c0: 111d 8e3d 1103 b53d f69e 8bbd 30cf 1b3e
000002d0: bdcd f83d 59c0 99bc 37c9 17be 8c6b f3bc
000002e0: 83df 1ebe d02d bbbd 178e 113c 0a08 74bd
000002f0: 1637 a5bd 1155 833d 3175 ac3d 2a85 843d
00000300: a46b 8cbd f981 efbd 0d1d 7abd bd11 eebd
00000310: ae92 3f3d 0893 33bb f33b 323e 9765 3d3e
00000320: c782 95bc 1676 dd3d cdc7 293d 9e6f 0dbd
00000330: 4aed 62bd de62 c9bd 48e9 2dbe d57c 673d
00000340: 66ac 063e a6c2 863d 1bf3 c7bc 9e7d debd
00000350: 84b7 71be 4374 c0bb 5975 96bd 8fcd 59be
00000360: 210a 4d3d 0c88 543b de9e acbd fcaa 0dbe
00000370: ab4f eebd 3ab1 dcbc ab2e 3dbc 6564 07be
00000380: a9fd 0abe 10e2 d03d 273f 42bd 45c7 ab3d
00000390: 0442 c5bc 5252 e9bd 61c0 b6bd 1c01 9f3d
000003a0: a095 093d 0e43 81bd 0d3d 2a3b 0c19 773d
000003b0: 17cf 7a3d da76 173d 18fd 5f3c eed2 af3d
000003c0: 2042 323a 00c1 7bbd 88a2 283d 7afc 3d3e
000003d0: f6e4 533d 8082 adbc bd76 82bb be0c 3dbe
000003e0: 392d 86be dff4 24bd 8f26 16be 6a9f 19be
000003f0: 3293 553e cf5b 693e 9509 873d cdfc f93d

norm5.weight f4 [32]
1.034932 1.0648446 0.98614115 0.9963328 1.071892 0.9957916 1.0407228 1.0132319
1.0062112 1.0437999 0.9612396 1.0591557 1.0725548 1.010153 1.0492541 0.9595655
0.9351793 0.95293653 1.0934067 0.9769196 1.0372976 1.0981005 1.0444963 1.0136358
1.0458639 0.9842681 1.040861 0.98119277 1.0456929 0.9995786 0.9428615 1.0497292
00000000: a778 843f d44c 883f bf73 7c3f ab0f 7f3f
00000010: c233 893f 33ec 7e3f 6836 853f 95b1 813f
00000020: 87cb 803f 3c9b 853f cc13 763f 6a92 873f
00000030: 7a49 893f b24c 813f f54d 863f 16a6 753f
00000040: e967 6f3f a6f3 733f c0f4 8b3f 6717 7a3f
00000050: 2bc6 843f 8f8e 8c3f 0eb2 853f d1be 813f
00000060: dede 853f fff8 7b3f ef3a 853f 732f 7b3f
00000070: 44d9 853f 62e4 7f3f 5f5f 713f 875d 863f

norm5.bias f4 [32]
-0.10692683 -0.08868125 -0.2131239 0.0358298 0.13135853 0.09972366 -0.26964065 -0.14055766
-0.1388756 -0.27159172 0.16361985 -0.24972785 -0.005050011 0.19066876 -0.088428214 -0.1558372
0.36082104 0.13886535 -0.31274343 0.17262729 0.12746397 0.015928825 -0.10476438 -0.09052035
-0.018246071 -0.11045333 -0.17872173 -0.10763865 -0.023887392 0.17761351 0.22130334 -0.15851565
00000000: 74fc dabd 849e b5bd 273d 5abe 45c2 123d
00000010: da82 063e eb3b cc3d 570e 8abe 59ee 0fbe
00000020: 6835 0ebe 120e 8bbe f68b 273e a8b8 7fbe
00000030: 907a a5bb ac3e 433e da19 b5bd c993 1fbe
00000040: 89bd b83e b832 0e3e e81f a0be 35c5 303e
00000050: ea85 023e 2b7d 823c b58e d6bd bc62 b9bd
00000060: c978 95bc 5b35 e2bd d402 37be a771 dcbd
00000070: 7eaf c3bc 51e0 353e 589d 623e ed51 22be

tns2.weight f4 [16, 32, 1, 1]
0.43637556 0.1093623 0.16677591 -0.3411951 -0.26815614 -0.08981098 0.32529995 0.18541259
0.49935725 -0.085875586 0.13956723 -0.08068751 -0.18542309 0.15658838 -0.2861314 -0.0764033
-0.19027613 -0.11717575 -0.26763603 -0.34403616 -0.2119078 0.103487544 -0.19977131 0.0054794955
-0.29246804 -0.13018836 0.0005882905 0.12717693 -0.13397814 0.04453257 0.11038946 0.13248289
0.06537305 -0.12934023 0.0101145655 -0.2226965 -0.43099952 -0.23463362 -0.12074188 0.24410594
-0.05250936 -0.24427857 -0.133465 0.090539604 0.2824344 -0.10539684 0.3903301 0.010142876
-0.27537853 -0.30952093 0.16915111 -0.18016395 -0.25614312 0.047054984 -0.1815318 -0.028173158
0.35859758 -0.14186688 -0.28929734 -0.22174953 -0.12763993 0.35279298 -0.07301391 0.4234074
-0.07429109 0.16526626 0.0671487 -0.40369973 -0.07823903 -0.40395653 -0.12194216 0.092408456
-0.04113629 0.079137206 0.05004192 0.13568361 -0.06255843 -0.015329699 0.15008669 0.23668021
-0.031528436 -0.3517626 0.28980243 -0.043448713 -0.09218192 -0.07576508 0.32150313 -0.014988108
-0.012986046 0.33322763 0.41980705 0.14003296 0.024256347 -0.12369793 0.017118528 -0.05237763
-0.23753983 -0.30250403 -0.057952985 0.058041677 -0.56708616 0.09437865 0.3182124 -0.082083456
-0.17121176 0.3381515 0.007920351 -0.16021317 -0.14227891 -0.30856666 0.10508915 0.12307121
-0.17264529 0.056644626 0.066917755 -0.19988404 -0.13926835 -0.14469583 -0.0009131946 0.20518662
-0.1904113 0.10875146 -0.05921444 -0.12971224 0.059625268 -0.35972437 0.15295744 -0.101748295
0.30592775 -0.24357663 0.066823825 0.11407592 -0.30656493 -0.07016212 -0.06425323 -0.2026119
0.2057886 0.41183898 0.013600595 0.014213425 0.08526623 -0.19980177 -0.23222503 0.25197312
-0.32875726 -0.13974163 0.02733801 -0.06995768 -0.025204433 0.42959887 -0.117020674 -0.22906876
0.08087463 0.1345719 0.08609799 0.047565915 -0.23427482 -0.16252787 -0.30290675 -0.14877796
-0.2908163 0.12668008 -0.14995171 -0.122026935 -0.19965047 0.1096102 0.18605715 0.4446843
0.26120088 0.00814187 -0.40920562 0.38257354 -0.17273375 -0.1393798 -0.14717413 0.350448
-0.32179067 -0.241697 0.08947238 -0.18489623 -0.20410646 -0.14569682 0.26401064 -0.11126973
-0.1857147 -0.19884485 0.009489219 0.124546714 -0.11232347 -0.16222538 -0.3028429 0.101515114
0.18357876 -0.18565421 0.48182064 -0.15121675 -0.12557504 -0.09885079 0.089148864 0.04667513
-0.1473213 0.33073655 0.08070645 0.07087825 -0.13266999 -0.2635064 0.0371336 -0.1676873
0.26189178 -0.25035474 -0.17638458 -0.15273844 0.25234818 0.078780875 0.145805 0.21416537
-0.0038549465 -0.007131445 0.08004302 0.1276544 -0.16597082 0.06292995 -0.083298475 0.44649825
0.22028875 0.124959186 0.07106521 0.10525398 0.096341655 0.14876007 0.007880696 -0.15941459
-0.025693819 0.36163762 -0.11718327 0.4105928 -0.19497325 -0.051681448 0.20474114 -0.028378522
-0.26010966 -0.005319877 0.25687373 0.1351515 -0.06477741 -0.28952363 -0.035649087 -0.0041824235
0.08967439 -0.19097789 0.10926904 0.5213588 -0.00061551464 -0.21494728 -0.104428686 -0.0029284742
00000000: 9e6c df3e 57f9 df3d 4ec7 2a3e 20b1 aebe
00000010: c34b 89be d2ee b7bd b78d a63e ccdc 3d3e
00000020: c1ab ff3e 8adf afbd b6ea 0e3e 7e3f a5bd
00000030: 8ddf 3dbe b458 203e d17f 92be 5579 9cbd
00000040: bfd7 42be d7f9 efbd 9707 89be 8225 b0be
00000050: 5cfe 58be 47f1 d33d da90 4cbe 578d b33b
00000060: 5fbe 95be 1950 05be 8237 1a3a ab3a 023e
00000070: 9131 09be c967 363d df13 e23d 98a9 073e
00000080: 4ee2 853d c471 04be 90b7 253c 8d0a 64be
00000090: f8ab dcbe cc43 70be 8547 f7bd e8f6 793e
000000a0: 0e14 57bd 2924 7abe 0dab 08be d46c b93d
000000b0: 3e9b 903e 4cda d7bd 59d9 c73e 4e2e 263c
000000c0: 6afe 8cbe 8779 9ebe f335 2d3e e67c 38be
000000d0: 3125 83be babc 403d 79e3 39be 65cb e6bc
000000e0: 1a9a b73e 8d45 11be c81e 94be 4f12 63be
000000f0: 0bb4 02be 48a1 b43e 5188 95bd dbc8 d83e
00000100: ed25 98bd 8f3b 293e 4285 893d bbb1 cebe
00000110: c93b a0bd 64d3 cebe d0bc f9bd a540 bd3d
00000120: 877e 28bd b012 a23d c2f8 4c3d a5f0 0a3e
00000130: a21e 80bd 6b29 7bbc 53b0 193e 4c5c 723e
00000140: f623 01bd 3a1a b4be fc60 943e 47f7 31bd
00000150: e0c9 bcbd b92a 9bbd 0f9c a43e ae90 75bc
00000160: 6dc3 54bc d09c aa3e f3f0 d63e cd64 0f3e
00000170: 3fb5 c63c 5755 fdbd 283c 8c3c ed89 56bd
00000180: a43d 73be cfe1 9abe 1c60 6dbd 1cbd 6d3d
00000190: 8f2c 11bf 9849 c13d bcec a23e 5f1b a8bd
000001a0: 2352 2fbe 3222 ad3e 5cc4 013c ec0e 24be
000001b0: 90b1 11be 73fc 9dbe fb38 d73d c20c fc3d
000001c0: edc9 30be 3204 683d 2d0c 893d 67ae 4cbe
000001d0: 5d9c 0ebe 252b 14be 7463 6fba 711c 523e
000001e0: 2efb 42be 16b9 de3d d78a 72bd 49d3 04be
000001f0: a039 743d cb2d b8be e0a0 1c3e 6961 d0bd
00000200: 90a2 9c3e 276c 79be eeda 883d a3a0 e93d
00000210: 14f6 9cbe 28b1 8fbd 3397 83bd 7e79 4fbe
00000220: 3fba 523e 8fdc d23e 08d5 5e3c 6ddf 683c
00000230: 10a0 ae3d d698 4cbe 66cc 6dbe 9f02 813e
00000240: df52 a8be 6e18 0fbe f6f3 df3c f945 8fbd
00000250: 8779 cebc 62f4 db3e 89a8 efbd 0091 6abe
00000260: 99a1 a53d 37cd 093e 2554 b03d 7ad4 423d
00000270: bde5 6fbe b56d 26be 9816 9bbe 4059 18be
00000280: e0e5 94be 6cb8 013e f18c 19be 42e9 f9bd
00000290: 2c71 4cbe 507b e03d c485 3e3e a9ad e33e
000002a0: 1fbc 853e 7a65 053c 6683 d1be aee0 c33e
000002b0: 1ee1 30be 94b9 0ebe d1b4 16be ec6d b33e
000002c0: bfc1 a4be 6b7f 77be 4c3d b73d 7055 3dbe
000002d0: 4901 51be 8c31 15be 672c 873e 62e1 e3bd
000002e0: ff2b 3ebe fc9d 4bbe ab78 1b3c 5912 ff3d
000002f0: d909 e6bd 691e 26be 390e 9bbe 28e7 cf3d
00000300: 12fc 3b3e 231c 3ebe 32b1 f63e 90d8 1abe
00000310: be96 00be 4872 cabd ae93 b63d 6c2e 3f3d
00000320: 65db 16be 4d56 a93e 6c49 a53d 9e28 913d
00000330: a4da 07be 50ea 86be 6719 183d 38b6 2bbe
00000340: ae16 863e 7f2e 80be 299e 34be 7767 1cbe
00000350: c833 813e de57 a13d e84d 153e 2b4e 5b3e
00000360: 45a3 7cbb e6ae e9bb 98ed a33d d6b7 023e
00000370: 41f4 29be 6be1 803d 6498 aabd 6b9b e43e
00000380: 6093 613e 9aea ff3d a38a 913d 668f d73d
00000390: c64e c53d 8f54 183e 091e 013c 943d 23be
000003a0: d87b d2bc 9128 b93e c8fd efbd 3839 d23e
000003b0: 11a7 47be edaf 53bd a9a7 513e 137a e8bc
000003c0: 182d 85be 5d52 aebb f484 833e 2865 0a3e
000003d0: 05aa 84bd 713c 94be c704 12bd b60c 89bb
000003e0: 35a7 b73d b58f 43be 72c8 df3d c577 053f
000003f0: 7d5a 21ba 241b 5cbe b5de d5bd a5eb 3fbb
