S9/Weights/model_bn.pth (torch, 674273 bytes, 56 tensors)

conv1.weight f4 [16, 3, 3, 3]
000000 53 a9 6b 3e 2b e8 b4 3d 2f 24 29 3f e8 b6 91 3f
       0.23013811 0.08833345 0.66070837 1.1383944
000010 1a 90 65 be 22 36 90 bf 70 4f 63 3b 82 11 de 3c
       -0.22418252 -1.126652 0.00346848 0.027107958
000020 09 a2 cd be 05 11 9c 3e f1 12 b7 be 27 54 95 bd
       -0.40162686 0.30481735 -0.3575664 -0.072914414
000030 89 94 98 3f 96 9e e6 be 77 dd cd bf f6 a3 c8 bd
       1.1920329 -0.45042866 -1.6083211 -0.09796898
000040 c2 b0 2d be ba bf 84 3d ac f8 09 3f 8d 0f 29 bd
       -0.16961959 0.064818814 0.5389507 -0.041274596
000050 73 6c b1 bd 88 ed b8 3f 36 ae 5d be d6 0a b7 bf
       -0.08663263 1.4447489 -0.21648487 -1.4300182
000060 d8 16 6d 3e 0d d7 ff 3e 4c d7 0e be 4a 7d 90 be
       0.23153245 0.49968758 -0.13949317 -0.28220588
000070 74 ee 96 be 5b 90 89 bd 5b e3 03 3c 9a f2 0b 3f
       -0.294788 -0.06716987 0.008049811 0.54667056
000080 cb ce 12 3f 5e 11 24 3e b2 e5 aa 3e 98 54 09 3f
       0.5734679 0.1602225 0.3337837 0.53644705
000090 cd bb 19 bf 13 18 f0 be 6a 92 00 bf 70 6f 19 be
       -0.60052186 -0.46893367 -0.5022341 -0.14983916
0000a0 36 20 bf 3e 73 86 af 3e e4 0d 2c 3d d5 16 9d 3c
       0.37329262 0.34282264 0.042005435 0.019175926
0000b0 99 81 dc 3d 84 20 bc 3c cc d2 3c be b4 f1 01 bd
       0.10766906 0.022964723 -0.18439788 -0.031724647
0000c0 b7 c5 01 3f cd 62 b5 3e 19 fd 44 3e 1d 35 69 3e
       0.50692314 0.35426942 0.19237174 0.22774167
0000d0 8d a9 d7 bd 14 0e 94 be 64 21 fb bd 2d 3a da bb
       -0.10530386 -0.2891699 -0.12262228 -0.006659767
0000e0 2c a0 79 be 3f c0 bc 3d 77 c3 0b 40 de 86 17 bf
       -0.24377507 0.092163555 2.1838052 -0.59190166
0000f0 d2 49 04 bf 8a 38 87 bf d3 1a a1 bd 8a dc d1 bd
       -0.5167514 -1.0564129 -0.078664444 -0.102471426
000100 30 c5 6c 3d 24 84 8c be 54 f2 d2 3e 00 6c 28 40
       0.05780524 -0.27444565 0.41200507 2.6315918
000110 22 5d 2b bf 22 9a 99 be 28 cb 9a bf c7 85 41 be
       -0.66938984 -0.30000407 -1.2093248 -0.18898688
000120 87 09 83 bf cc 76 00 bf f4 a2 f1 be 92 83 45 3e
       -1.0237283 -0.5018127 -0.47194636 0.19288471
000130 73 b2 09 40 8e 2b 47 be e0 a6 01 be 2b 54 16 bf
       2.1515167 -0.19450209 -0.12661314 -0.5872218
000140 42 64 83 3e a5 37 71 3c d2 c4 98 bf 6d 06 bb be
       0.25662428 0.014722739 -1.1935065 -0.3652834
000150 8d 7b c5 be e9 3f 96 3f 84 9a e0 3d ae 2e 7c bf
       -0.38570824 1.1738254 0.109669715 -0.9850873
000160 1c 23 ac 3e f8 4c e2 3e e5 8a 80 3c 5a 2d 2c bf
       0.33620536 0.44199347 0.01569123 -0.672567
000170 78 ef 38 3e 1c 9e 8c 3e 0a 59 f7 3f 7d f4 9e 3e
       0.180601 0.27464378 1.9324048 0.31045905
000180 e8 e7 00 bf 20 5f 1f 3f 22 50 58 3e 12 df 6e 3f
       -0.5035386 0.62254524 0.21124318 0.9330913
000190 08 1d 8a bf d7 a6 53 bf a8 28 4d 3f 59 bf 50 3f
       -1.079011 -0.8267645 0.8014016 0.81541973
0001a0 b8 72 94 bf dd 98 12 be b9 30 e4 bd 0d 85 50 bf
       -1.1597509 -0.14316125 -0.111421056 -0.8145302
0001b0 26 a2 87 3f 82 27 ad 3f 7d 46 15 3f 35 6b 97 be
       1.0596359 1.3527682 0.5831068 -0.2957398
0001c0 36 ce 30 bf e5 83 1b be d7 c8 07 bf 32 6f 7e bf
       -0.6906465 -0.15187033 -0.5304083 -0.9938842
0001d0 e4 e2 88 be 53 78 61 3f 06 44 92 3f d9 ea 3e 3f
       -0.26735604 0.88074225 1.1427009 0.745771
0001e0 57 13 bb be 76 ce 56 bf 5d 2f 15 be 76 38 a9 be
       -0.36538193 -0.83908784 -0.14568849 -0.3305089
0001f0 5c 55 71 bf f7 a9 8d be 46 dd aa 3e 5c 0a 0c 3f
       -0.94270873 -0.27668735 0.33371943 0.5470331
000200 1a 03 d4 3e bb 88 2e be 12 c8 64 bf 8f 3e 74 3d
       0.41408616 -0.17044346 -0.89367783 0.059629973
000210 a3 db 41 3e be 38 04 bf 73 5c 22 3d 9e 0b f4 be
       0.18931441 -0.5164908 0.039638948 -0.47665113
000220 f4 a1 7a bf 15 5e d0 be fc 17 3b 3e 47 ee bc bd
       -0.9790337 -0.4069678 0.18270868 -0.09225135
000230 7a 17 7d be 2d d5 1c 3f ba eb 62 3f f3 a0 fc 3e
       -0.24715987 0.6126278 0.8864094 0.49341545
000240 9e 19 2d bf 84 3a 81 bf f7 9a 36 bf bf fa 41 be
       -0.67617214 -1.0095983 -0.7133021 -0.18943308
000250 bb b4 05 bd 76 ee 9d be 56 9f 18 3f 47 37 a4 3f
       -0.03264306 -0.30845994 0.5961813 1.2829369
000260 19 a6 84 3f 36 b0 c3 be 24 66 41 bf cd 7b ca be
       1.0363189 -0.38220376 -0.7554648 -0.39547578
000270 bc 31 6f bc 87 be 86 be 3c bb 2b be 18 0c 83 3e
       -0.01459926 -0.26317236 -0.16770643 0.25595164
000280 a5 b8 4c 3f 70 3c 59 3f 89 b5 12 3e d3 87 4e bf
       0.79969245 0.84857845 0.14327063 -0.80676
000290 e8 f2 73 3f c2 f0 eb 3e 34 90 a2 3f ad a0 7c 3f
       0.9529252 0.4608212 1.2700257 0.9868267
0002a0 7d 1f 19 3d b2 cd 1c 3f 3c 9c 42 3d 0b 89 d8 be
       0.037383545 0.61251366 0.047512278 -0.42292055
0002b0 03 a2 fa bf 16 ee 75 3d 41 a6 8f be a1 2f 42 be
       -1.9580692 0.06004151 -0.2805653 -0.18963481
0002c0 11 7a e2 be 51 e6 1e bf e1 bf 08 3e d1 c8 28 bf
       -0.44233754 -0.62070185 0.13354446 -0.6593142
0002d0 fb 92 00 3f 39 36 86 bf 4a 9c 6e 3e 20 c0 c7 3d
       0.50224274 -1.0485297 0.23301807 0.09753442
0002e0 7e 8b 08 3e 96 92 4b 3e 10 5e 2d 3d a5 16 e3 3e
       0.13334462 0.19880137 0.042326033 0.44353214
0002f0 ea 57 09 3e ad df 42 be f6 9d 41 3e 78 47 07 be
       0.13412443 -0.19030638 0.18907914 -0.13210857
000300 69 0a fa bf 64 49 08 be f4 40 d9 3f 96 35 db 3e
       -1.9534427 -0.13309246 1.6972947 0.4281432
000310 b9 42 ac be 55 d3 83 3e 5a ea 89 3d af 52 33 3e
       -0.33644655 0.2574717 0.06734152 0.1751201
000320 8b 79 a5 be f9 f3 da bf 8f 70 ad bd f4 82 cb 3f
       -0.32319292 -1.7105705 -0.084687345 1.5899339
000330 64 9d 57 3f 17 bf 06 bf 7a d8 7d 3e 5d c5 df 3e
       0.84224534 -0.5263533 0.2478961 0.43705264
000340 e8 c3 98 3d d5 85 14 bf bf 21 bb bf 7f ba e0 be
       0.07459241 -0.5801671 -1.4619673 -0.43892285
000350 b0 fa 89 3f d1 74 09 3f a4 9c b6 be 17 92 d2 3e
       1.0779629 0.5369387 -0.35666382 0.41127083
000360 8c cb 6c 3e 88 92 76 bd fb 27 21 3d e1 6a c4 bd
       0.23124522 -0.060198337 0.03934477 -0.09590698
000370 3b 2a c1 bd d4 8c 24 bf 26 49 0f bf 33 41 3a bf
       -0.09431883 -0.64277387 -0.5597099 -0.72755736
000380 4c 97 21 bf fb 23 d8 be 8a 51 94 3c 28 76 66 ba
       -0.63121486 -0.4221495 0.018105287 -0.00087914104
000390 1c 18 aa 3d 18 dd 2d 3f 9a 53 8d be 39 ff 1f bf
       0.0830538 0.6791549 -0.27602845 -0.62498814
0003a0 0e 95 8e 3d 3b d7 57 bb bd ac 0a bf 18 1b ec 3e
       0.06962024 -0.0032934684 -0.5416983 0.4611442
0003b0 67 07 20 3e 0b 81 f0 3e c6 70 d7 3f 39 aa 95 3e
       0.15627824 0.46973452 1.6831291 0.29231432
0003c0 47 87 9f be 4d 8a 68 3f 0a b9 99 3e c1 ea c7 3e
       -0.31157896 0.9083603 0.30023986 0.3904629
0003d0 52 c1 24 3e 9b eb ae 3d 30 9a 00 c0 7c 92 be 3f
       0.16089371 0.08541032 -2.0094109 1.4888453
0003e0 1e 89 98 3e 9e 54 90 bd ef 1d df 3e 00 9b 3b bc
       0.29792112 -0.070473894 0.43577525 -0.011450529
0003f0 dc f9 8f 3e b7 bb bd 3d 3c 40 b5 3e 45 df 2c c0
       0.28120315 0.092643194 0.3540057 -2.7011273

norm1.weight f4 [16]
000000 56 a3 90 3f 4c 9c 4b 3f 1c 17 ee 3f b3 2d 9b 3f
       1.1299846 0.79535365 1.8600802 1.2123321
000010 ec d3 95 3f 32 01 9a 3f f8 a0 76 3f 19 dc a6 3f
       1.1705298 1.2031615 0.9633937 1.3035918
000020 87 a8 45 3f 9f 6e ce 3f 5d 4a b1 3f 95 d0 65 3f
       0.7721028 1.6127509 1.3850819 0.89771396
000030 8e 4f c6 3f d3 aa 84 3f 58 4a c6 3f 20 83 94 3f
       1.5493028 1.0364631 1.5491438 1.1602516

norm1.bias f4 [16]
000000 b0 b4 03 3e 01 0c 01 3e 12 c9 22 3f 36 d0 4a bc
       0.12861896 0.12602235 0.6358806 -0.012378743
000010 61 77 c6 3e 1a 67 b8 3e b2 6d 52 3d f1 6d bd 3e
       0.38762954 0.3601616 0.051374145 0.3699794
000020 c1 b9 ff 3d de fd 39 3f 57 35 33 3f a1 29 1c bf
       0.124866016 0.72652996 0.70003265 -0.6100102
000030 61 9d f0 3d 6b 4c 7e 3e cf ae c7 3e 42 02 a7 3e
       0.11748768 0.24833839 0.39000556 0.3261891

norm1.running_mean f4 [16]
000000 a9 ef 48 3f 45 12 2d 3f 96 c0 1a 3f 90 0e 03 3f
       0.7849069 0.67606 0.6045011 0.51194096
000010 56 11 7a 3f 83 58 87 3f 32 70 f0 3e 3c 9e 37 3f
       0.976827 1.0573887 0.46960598 0.7172582
000020 5d 65 0c 3f 06 be 20 3f 88 be d0 3e 06 7f 62 3f
       0.5484217 0.6278995 0.40770364 0.8847507
000030 e6 86 fb 3e 6c 74 9c 3e 7a c5 46 3f e5 86 8f 3e
       0.49126357 0.30557573 0.77645075 0.28032604

norm1.running_var f4 [16]
000000 b4 da 29 40 52 7e 88 3f a1 b0 ba 3f 3d 50 84 3f
       2.6539736 1.066355 1.4585153 1.0336987
000010 0d b3 7b 40 b4 98 9c 40 52 45 63 3f 44 39 07 40
       3.9328034 4.8936405 0.8877765 2.1128702
000020 fe 2b 82 3f 2f a8 d7 3f dd ce 42 3f ba a8 ea 3f
       1.0169675 1.68482 0.760969 1.8332741
000030 02 91 9f 3f 62 89 bb 3e 56 48 2c 40 f8 14 ab 3e
       1.2466128 0.36628252 2.691915 0.33414435

conv2.weight f4 [32, 16, 3, 3]
000000 d9 ae 33 be d9 68 84 bc 75 00 d6 3d 0d 19 97 3c
       -0.17547168 -0.016163277 0.10449306 0.018444562
000010 c5 1c 65 3d 17 14 c3 3e aa b8 e2 3d d5 65 cd be
       0.05593564 0.38101265 0.11070378 -0.40116754
000020 84 a0 20 3e 6d a9 04 3f 49 dd d4 3e a3 fa ff 3d
       0.15686232 0.51821023 0.41575077 0.12498977
000030 dd 86 8b 3d 77 10 50 bd 72 23 6f be 14 81 07 be
       0.068128325 -0.050796952 -0.23353365 -0.13232833
000040 f6 d6 46 bd d0 b8 df bd 91 88 d0 3c ec 22 1f be
       -0.048544846 -0.10923922 0.025455745 -0.15540665
000050 d8 23 68 3d c0 cb 7d be 31 74 4a 3d 5b 25 81 bd
       0.05667481 -0.24784756 0.049427215 -0.06305953
000060 7c 29 3f bd f8 ab 7a 3d 53 37 5e 3e f5 03 03 3e
       -0.046670422 0.06119916 0.21700792 0.12794478
000070 6b fb dc bd 64 6e 69 3e 7e 2e 3a bd 1a 5f 2b bf
       -0.10790142 0.22796017 -0.045454495 -0.6694199
000080 b4 07 44 bc 6b 64 09 be 48 2c d3 be ab 29 2d 3e
       -0.011964727 -0.13417213 -0.4124472 0.16910426
000090 58 70 16 3e 27 e3 c3 be 58 9e cc 3e 05 cb a1 3e
       0.14691293 -0.3825924 0.39964557 0.31600204
0000a0 48 22 c3 be ee cd af 3b 8a 70 46 3e 89 30 3c be
       -0.38112092 0.005365125 0.19378868 -0.1837789
0000b0 3d 6b 03 3e 5d 01 cc bd 9b 05 eb be d2 c9 4d be
       0.12833877 -0.099611975 -0.45902714 -0.2009652
0000c0 db ae db be a6 d6 45 bf 1d ba 60 bf 08 13 0d be
       -0.42906842 -0.7728065 -0.87783986 -0.13776791
0000d0 10 de a2 be f8 7c 86 be a7 69 99 3d 38 de 7d be
       -0.31810045 -0.2626722 0.07490855 -0.24791801
0000e0 8f 6e a6 3e e5 1d 16 3e 51 49 da bc 97 a9 46 3e
       0.32506225 0.14659841 -0.026646288 0.19400631
0000f0 bc 9a af 3e 7c 2b 0c be 78 b9 63 be c2 b6 92 bd
       0.3429774 -0.13688463 -0.2223872 -0.071637645
000100 33 50 05 bf 85 3e 04 be d7 8f 6a bd e2 d6 06 bf
       -0.520755 -0.12914474 -0.057266083 -0.52671635
000110 ff 66 3b be f3 9f 19 bc 34 51 0c bf f1 7d 81 3d
       -0.18301009 -0.009376514 -0.54811406 0.063228495
000120 a6 b2 bf 3d 06 83 c0 3e ab ab b6 3d 5d 07 b9 3c
       0.09360246 0.37599963 0.08919462 0.022586519
000130 9a 8a 95 3e 30 00 52 be 4d 99 b9 3d 10 4f 1e bd
       0.29207307 -0.20507884 0.09062443 -0.03864962
000140 f7 70 6f be 2e 8f db 3d 3e 69 b5 3d 82 01 15 3d
       -0.23382936 0.10720669 0.08857964 0.03637839
000150 31 01 8f 3d 4f d9 7e 3d 73 00 b1 be 4f 7a 29 3e
       0.06982649 0.06221896 -0.34570655 0.16550563
000160 f9 1a 28 be c1 89 c8 bd b1 08 84 3e e5 19 06 bf
       -0.16416539 -0.097918995 0.2578788 -0.5238326
000170 1f e8 1b 3e 29 15 0e be eb 22 9e be c6 8e e4 3d
       0.15225266 -0.1387526 -0.30886015 0.11160044
000180 d9 6a a1 3e 4e 70 7f 3d c6 23 84 3e 45 b9 d6 be
       0.3152683 0.06236296 0.25808543 -0.41938224
000190 f4 ee b7 bc c6 2d e6 bd af 40 13 be 6c 80 95 bd
       -0.022452809 -0.11239199 -0.14380144 -0.07299885
0001a0 cb 83 0d 3e f9 98 15 3e 79 e9 b3 3e 20 8b e7 3e
       0.13819806 0.14609136 0.35139063 0.4522333
0001b0 86 45 38 3e 14 8f 56 be 5e d5 26 3e 87 fc 3d bd
       0.17995271 -0.20953017 0.1629233 -0.046383407
0001c0 d8 79 26 be e5 b9 bd be da d5 8b bd 52 b2 d1 bd
       -0.16257417 -0.3705589 -0.06827898 -0.1023909
0001d0 ca 1e 6f be 09 e1 f9 bd 7a de 45 3e d2 48 13 3e
       -0.23351589 -0.12201125 0.1932315 0.14383247
0001e0 1c 71 56 be 2a 29 e6 bd 8f 1b a5 3d b0 71 36 bc
       -0.20941585 -0.1123832 0.08061897 -0.011135504
0001f0 eb 21 10 be 8b b0 17 3e d9 01 93 bd 6b 75 1a 3e
       -0.14075439 0.1481344 -0.07178087 0.15083854
000200 3a d3 97 3e 30 17 8e be 41 07 af be 66 0b de 3c
       0.2965334 -0.27752066 -0.34185222 0.027105045
000210 3e 54 eb be f3 62 f3 be 91 e1 4d 3e 8f 70 ef 3d
       -0.4596271 -0.4753643 0.20105578 0.11691391
000220 e9 a2 88 bd 45 8c c9 3c 52 dc 2c 3d 47 e0 08 bf
       -0.06671698 0.024603019 0.0422023 -0.5346722
000230 05 24 05 3e 91 20 03 3e 14 74 00 be f6 f2 8d 3e
       0.13002022 0.12805392 -0.1254428 0.27724427
000240 62 31 61 3c f4 ae 1f 3e 67 24 23 3d 16 eb 31 be
       0.013744684 0.15594083 0.039829638 -0.17374834
000250 af 15 f8 bd 7d cc b5 bd e1 b8 24 be 28 d7 04 be
       -0.12113511 -0.08876894 -0.1608615 -0.129727
000260 6d 51 2f be 75 ed bd 3d 09 ea 8d 3e 9a 47 2c 3d
       -0.17120905 0.09273807 0.27717617 0.042060472
000270 4d e9 d3 bb b2 e4 11 bc e4 11 2e be 67 09 b8 3c
       -0.0064670206 -0.008904623 -0.16999012 0.02246542
000280 c9 76 a3 3c 30 cd 42 be 05 0f 37 3e 8d a4 c8 bd
       0.019954102 -0.19023585 0.17876823 -0.097970106
000290 4e c3 92 3d be 4b 1a 3f 57 fb 87 3e d8 da 01 3d
       0.07166158 0.60271823 0.26558945 0.031702846
0002a0 65 a5 92 be 5a 24 9c be 61 f5 a9 3e a8 0f 2f 3e
       -0.2864181 -0.30496484 0.33195022 0.17095816
0002b0 1b 15 c4 3d 21 3e d8 bd d6 be 4e be af f4 f9 bd
       0.09574338 -0.10558725 -0.20189986 -0.12204873
0002c0 c6 64 0e be 81 79 a0 3d e6 88 ed bd 52 6f 04 be
       -0.1390563 0.07835675 -0.11598377 -0.1293309
0002d0 28 89 58 3e c2 c9 78 3e fc 39 2f 3e 50 dc 36 bd
       0.21146071 0.24295714 0.17111963 -0.0446437
0002e0 e1 45 03 3e f1 f5 93 bc 34 97 21 be 67 c2 15 3e
       0.12819625 -0.01806161 -0.15780336 0.1462494
0002f0 38 6e 13 3e c4 af 8b bd f6 8d 1e 3e b3 85 11 3b
       0.14397514 -0.06820634 0.15483841 0.0022204935
000300 d3 a5 91 bc 97 92 74 3e a9 14 0e 3e 09 2f b5 3e
       -0.017779266 0.23884045 0.13875069 0.35387447
000310 d5 b0 47 3e 75 a6 9c 3d cb 4b ff 3e b0 3f c6 3e
       0.1950105 0.07648937 0.49862513 0.38720465
000320 f3 ca 49 3e 5c 25 1b bc ab 55 db be 59 bb be be
       0.19706325 -0.009469356 -0.42838797 -0.3725231
000330 db 6d bf be 04 32 bc be 14 1a 05 be 8d f8 01 3f
       -0.373885 -0.3675691 -0.1299823 0.50769883
000340 92 c0 01 3e 1c d3 5a be 93 4c 10 3c a7 c1 09 bf
       0.12671116 -0.21369594 0.008807319 -0.53811115
000350 6b de e3 bd b4 8b 65 be ba fc 09 be 22 98 2d 3e
       -0.11126407 -0.22416574 -0.13475314 0.16952565
000360 11 91 92 be fb 39 99 3d d4 10 29 bd 02 88 e0 3d
       -0.28626302 0.07481762 -0.041275814 0.109634414
000370 44 3c 97 3e d0 f2 b6 3d 4d bf 22 be ad df 21 bd
       0.29538167 0.089330316 -0.15893288 -0.039519954
000380 20 a7 d4 3a b7 40 ad 3c 8f a6 35 3e 60 7f eb bd
       0.0016224124 0.021149023 0.17739318 -0.11498904
000390 2d 04 83 bd e2 c4 86 be 96 bc 49 be f1 fe 1e 3e
       -0.06397281 -0.26322085 -0.19700846 0.1552694
0003a0 08 ea 70 bd fc 65 51 be b3 ea fc 3e bc 68 bf 3e
       -0.05881694 -0.2044906 0.4939781 0.37384593
0003b0 4e f0 c3 3e 01 46 58 3e 6a 36 58 3c d4 6f ff bd
       0.38269275 0.21120454 0.013196567 -0.124725014
0003c0 e2 13 86 be ce 6f 26 bf 86 00 39 be 28 e2 7a 3e
       -0.26187044 -0.6501435 -0.18066606 0.24500334
0003d0 e0 c0 00 3f a9 80 c1 3e a8 71 2c be c5 f5 95 bd
       0.50294304 0.37793472 -0.16840231 -0.073222674
0003e0 a6 73 94 be f0 93 ca ba 42 17 58 bd e0 69 c5 be
       -0.28994483 -0.0015455466 -0.052756555 -0.3855734
0003f0 b5 fb 87 3d a9 0e 53 3e b4 37 a8 3e ef 34 6f 3c
       0.06639806 0.20611061 0.32854998 0.014600023

norm2.weight f4 [32]
000000 84 eb 97 3f a0 67 8b 3f 51 11 88 3f da 26 ac 3f
       1.1868749 1.0890999 1.0630285 1.3449357
000010 9b d6 af 3f 5a a2 8f 3f a1 e7 6d 3f 71 08 72 3f
       1.3737367 1.1221421 0.9293156 0.9454413
000020 5b f2 d0 3f 3f b4 96 3f 39 51 8d 3f c1 df 8e 3f
       1.6323961 1.1773757 1.1040412 1.1162034
000030 08 73 96 3f 5c de 99 3f cb 6f 87 3f 8f 7e 91 3f
       1.1753855 1.2020984 1.0580992 1.1366748
000040 35 8f ac 3f 49 12 8c 3f ea 68 81 3f 36 48 78 3f
       1.3481203 1.094308 1.0110142 0.96985185
000050 78 21 92 3f 38 bd 70 3f d1 e4 8f 3f c9 14 8c 3f
       1.1416464 0.94038725 1.1241704 1.0943843
000060 62 98 77 3f df 78 87 3f 1f 22 ca 3f 3c 9f 86 3f
       0.9671689 1.0583762 1.5791663 1.0517344
000070 8b b0 91 3f ce 71 9b 3f 0c 09 8f 3f f4 1f 96 3f
       1.1382002 1.2144105 1.1174636 1.1728501

norm2.bias f4 [32]
000000 10 61 53 3b b6 0d 9c bd 20 a0 ae 3e b6 8a fc 3d
       0.0032253899 -0.07619803 0.3410654 0.123311445
000010 ab 27 39 3e 12 56 1d 3e 1f 6d 5e 3e de fc cd bc
       0.18081538 0.15364864 0.21721314 -0.02514499
000020 4d f0 63 3e 39 1a c0 bd a0 61 8f bd e5 a1 7d 3e
       0.22259636 -0.093800016 -0.07001042 0.24768789
000030 1a e4 bc 3d 7f 36 0a 3d 2e 06 07 3e 64 da af 3e
       0.092231944 0.033743378 0.13185951 0.34346306
000040 01 b3 cb 3d 0d 0b dc 3d b7 bd fd bd 96 68 4c 3e
       0.09946252 0.10744295 -0.12389701 0.19961771
000050 96 60 eb 3c ef a9 a6 3d 73 60 18 3d 8a 75 90 ba
       0.02873258 0.08137881 0.037201356 -0.0011021357
000060 b7 c5 9d bd 63 05 e5 be ed 34 7b 3e b5 6e 5c be
       -0.07703727 -0.44730672 0.24531908 -0.21526606
000070 67 95 c9 3e b6 99 01 3e e2 6b e9 3d c8 75 19 3e
       0.39371797 0.12656292 0.1139753 0.14986336

norm2.running_mean f4 [32]
000000 78 ad 9e 3f 2f f8 a5 3f 81 9d 87 3f 24 34 d8 3f
       1.2396688 1.2966365 1.0594941 1.6890912
000010 47 ee 9a 3f dd 50 75 3f e9 4b 25 3f 8c fe 80 3f
       1.2103966 0.9582651 0.64568955 1.0077682
000020 b2 0b 03 40 60 ed 4d 3f 65 5a b8 3f d8 16 84 3f
       2.0475888 0.8044033 1.4402586 1.0319471
000030 fc fc 7f 3f 1b 24 ca 3f d5 48 8f 3f 96 5e 85 3f
       0.999954 1.5792269 1.1194102 1.041949
000040 f3 72 dc 3f 01 44 77 3f 91 6c 14 3f 6b 74 80 3f
       1.722258 0.9658814 0.5797816 1.0035528
000050 d2 e3 89 3f 32 5f 9b 3f ae ac 82 3f cb c1 4c 3f
       1.077265 1.2138426 1.0208948 0.79983205
000060 73 25 e6 3e dc 53 89 3f 3e f1 df 3f 54 7a 6b 3f
       0.44950446 1.0728717 1.7495496 0.9198353
000070 81 92 9b 3f f7 68 a5 3f 67 44 77 3f 45 11 b4 3f
       1.2154084 1.2922658 0.9658875 1.406777

norm2.running_var f4 [32]
000000 7f 52 53 40 0b c9 8e 40 b8 a0 4e 40 32 ad 1e 41
       3.3019102 4.4620414 3.2285595 9.917284
000010 71 d1 ef 40 40 c8 38 40 3c 74 94 3f 36 39 2b 40
       7.4943166 2.8872223 1.1597972 2.6753669
000020 45 2e 98 41 63 af 0a 40 e2 32 c3 40 89 dc 1f 40
       19.022593 2.1669548 6.0999613 2.4978354
000030 9e ed 14 40 11 32 95 40 68 20 74 40 26 ae 25 40
       2.327003 4.6623616 3.814478 2.5887542
000040 45 54 4d 41 9f b3 0c 40 0c 8a 13 40 5f 13 22 40
       12.833074 2.1984632 2.3053007 2.5324323
000050 73 7f 66 40 18 0e 82 40 50 c6 65 40 f0 1b f5 3f
       3.601529 4.0642204 3.590229 1.9149151
000060 08 11 54 3f 23 d9 0a 40 20 59 9b 41 42 65 10 40
       0.8283849 2.169503 19.418518 2.2561803
000070 92 ad 49 40 17 06 e6 40 81 02 19 40 31 3b 86 40
       3.151219 7.1882434 2.3907778 4.1947255

conv3.weight f4 [32, 32, 3, 3]
000000 5b c1 f3 3d c9 e6 07 be fe b2 d7 bd 35 99 4e bd
       0.11902114 -0.13271631 -0.10532187 -0.05043908
000010 30 9c 81 be b5 b3 14 be d4 c9 d1 bd 2f f8 0f be
       -0.25314474 -0.14521678 -0.10243574 -0.14059518
000020 12 0f 45 be c2 8e cd 3d 1d 08 69 bd 84 1f 95 3d
       -0.1924403 0.100369945 -0.056892503 0.07281402
000030 48 59 3b 3e 3d 02 1e bd 0b 5c b5 3d b0 d9 80 3d
       0.18295777 -0.038576353 0.088554464 0.062915206
000040 58 25 5d ba 48 8e 1a 3d d9 3b 01 be f6 d0 44 3d
       -0.00084360456 0.037733346 -0.12620486 0.048050843
000050 65 0f 88 be 6c a0 df bb ad a8 c1 bd 3b c3 23 be
       -0.26574245 -0.0068245437 -0.094560005 -0.15992443
000060 db 37 c4 bd cc 67 26 be 1c 60 12 bd 3a 02 ce 3b
       -0.09580966 -0.16250533 -0.03573619 0.0062868865
000070 8f d8 af be 04 b7 1b bf 5d e7 e6 be 4a d6 46 bf
       -0.3434491 -0.60826135 -0.4509839 -0.7767073
000080 92 1b 3c bf d9 07 04 bf 6d a5 24 bf 39 fd f1 be
       -0.7347957 -0.51574475 -0.6431492 -0.47263506
000090 3c 4f 14 be 57 9f 0a bd 3c 07 64 3d 5f 81 fd 3d
       -0.1448335 -0.033843365 0.05567096 0.12378191
0000a0 df 9f e5 3e ec 2c b3 3e a1 97 41 3e ce b6 b4 3e
       0.44848534 0.3499521 0.18905498 0.3529572
0000b0 18 20 eb 3e 6d b9 0d 3e 14 72 2f 3e 15 1d 4f bc
       0.45922923 0.13840266 0.17133361 -0.012641211
0000c0 29 ef 61 3e 03 ec 92 3d 3c ba c9 bd e9 f0 f5 3d
       0.22063889 0.07173922 -0.098499745 0.120088406
0000d0 a4 2f bc 3d 13 4a e5 bd 14 ae 46 be b4 a0 c1 bb
       0.09188774 -0.11195769 -0.19402343 -0.00590905
0000e0 50 65 09 bd 55 a7 28 3c e0 d2 8e bd 87 05 ae 3d
       -0.033543885 0.010293801 -0.06973815 0.08497148
0000f0 eb d9 a2 3d e5 44 c3 3c e1 04 17 3e 29 e0 e8 3c
       0.07951721 0.023836562 0.14747955 0.0284272
000100 88 8a 06 be 4f 68 2e be 54 ec f5 bd 86 fa bf be
       -0.13138783 -0.17031978 -0.12007967 -0.37495822
000110 1b b8 e9 bc a4 8f 20 be f2 e6 ca be bb 67 98 be
       -0.028530171 -0.15679795 -0.39629322 -0.2976664
000120 18 9f b1 bb d1 74 72 3b 05 ff 5d 3d a9 00 ec 3d
       -0.005420577 0.0036995898 0.054198284 0.115235634
000130 f2 79 ff 3d cf 5c 3e bd 25 ec bf 3d 5d 52 e2 bd
       0.12474431 -0.046475228 0.09371213 -0.11050866
000140 98 6a af 3d e5 e3 bc 3e 12 22 93 3e 84 80 8a bd
       0.08565253 0.3689262 0.2873693 -0.06762794
000150 9f 00 e7 3d ec 5b 2c bd 41 d6 ba be 26 e5 2e 3c
       0.11279415 -0.04207985 -0.36491588 0.01067475
000160 5c 6b 20 be ba b4 1f be e0 75 1c 3e 48 b2 ef 3d
       -0.15665954 -0.15596285 0.1527934 0.11703926
000170 6f 23 8f 3e c5 2a 8f 3e c5 43 b6 be df 38 2d be
       0.2795672 0.27962318 -0.3559858 -0.16916226
000180 71 53 c2 bc c3 82 da be 71 e7 d7 bd 6b 86 a7 3d
       -0.023721429 -0.42677888 -0.10542191 0.08179935
000190 bb bd cc 3d 30 89 c6 bc f0 91 1d 3e 2a 29 2b 3e
       0.09997126 -0.024235338 0.15387702 0.16714922
0001a0 42 18 ba 3d b3 1b d8 3d 2a ca 59 bc 02 24 55 3e
       0.09086658 0.10552158 -0.013292829 0.20814517
0001b0 3c e2 8f bd 61 80 03 be c3 db be 3d a0 db bb bd
       -0.07025573 -0.12841941 0.0931926 -0.091727495
0001c0 02 1e e4 3d 79 9a 79 3e d3 3a 01 be 52 af 35 3d
       0.11138536 0.24375333 -0.12620096 0.04435665
0001d0 a2 be 68 be bb fd 33 3d 5e 08 63 be 46 35 c3 be
       -0.2272897 0.043943148 -0.2217116 -0.38126582
0001e0 f0 a9 c3 bd 18 9a c1 be 97 dd 99 be 03 35 26 bd
       -0.095538974 -0.37812877 -0.30051872 -0.0405779
0001f0 c0 a1 c8 be 1a df 33 be cd 8b 4f bd 16 3e d4 3b
       -0.39185905 -0.17565575 -0.050670434 0.006477128
000200 1c 58 4a bd ea b2 18 be 03 99 5e bc a0 50 7c be
       -0.049400434 -0.14912 -0.0135862855 -0.24640131
000210 fe a4 00 be 7f 0c 0d bd b4 80 b2 3b ce ff 52 3e
       -0.1256294 -0.034435745 0.0054474715 0.20605394
000220 94 18 46 3d 15 c4 24 be c6 ce 0a 3d 8a 3e ba bb
       0.048363283 -0.16090424 0.0338886 -0.005683725
000230 ea e7 69 bd 9f 3c 31 bd c1 35 ab bd 06 fd 61 bc
       -0.057105936 -0.043270703 -0.08359862 -0.013793236
000240 4c 73 4b 3e b7 51 b4 bc 46 75 87 bd eb bb 73 bb
       0.19868201 -0.02201162 -0.06614165 -0.0037190865
000250 d1 a2 5c 3d e9 d5 78 3d da 42 ad 3d 21 df 81 3d
       0.05386621 0.060750876 0.084600165 0.063413866
000260 98 cc 7b bd 47 b6 88 3d cd a2 56 3e 8d be 00 bd
       -0.061474413 0.06675392 0.20960541 -0.031431723
000270 d3 80 d4 3b 73 19 a8 bd c3 82 9a 3c 29 48 29 be
       0.0064850836 -0.08207979 0.01886118 -0.16531433
000280 7d 15 35 be 96 fc f2 bd 75 c5 81 3e 15 af 06 3e
       -0.17683978 -0.11864583 0.2534596 0.13152726
000290 95 ae 23 bd fc 45 52 3e 4d 33 c0 3d 1f bd ad be
       -0.039961416 0.2053451 0.09384785 -0.3393335
0002a0 25 5d 9b bd 91 e0 8f be 3f 73 08 bd 54 ac 06 bd
       -0.07586125 -0.28101018 -0.033313032 -0.03287919
0002b0 2a 07 12 bd 65 e6 15 be 91 95 1f 3d f0 0c 82 3d
       -0.035651363 -0.1463867 0.038960997 0.06350124
0002c0 78 c7 19 3e 9a 65 fa bd 87 60 82 3c 8e 10 0d 3e
       0.15017498 -0.1222641 0.015915168 0.13775846
0002d0 b9 65 01 3c 03 32 3b be 2d 89 ef 3d 73 2a 48 3e
       0.007897788 -0.18280797 0.11696086 0.19547443
0002e0 9f 31 b2 3c ee 21 a8 3e 4f b9 63 3d 35 03 04 3e
       0.021752177 0.32838386 0.055596646 0.12891848
0002f0 7b 56 6d 3e 14 e7 fe bd 48 0a d6 bd c4 b6 75 bd
       0.23177521 -0.124464184 -0.1045118 -0.059988752
000300 a0 20 d7 bd f7 c7 0c 3d 02 87 70 3e 06 e7 4a 3e
       -0.105042696 0.03437039 0.23489001 0.19814691
000310 2a 7a 2c 3d b9 bd 9e 3d 39 ba 6e 3e 87 12 02 be
       0.042108692 0.077510305 0.23313226 -0.1270238
000320 b5 24 6d be e9 5d 97 bd 15 f1 9c be 7b 01 71 be
       -0.23158534 -0.07390959 -0.3065268 -0.23535721
000330 58 19 0f be 9d 1a 9a be 59 97 d0 3d ba dc 67 3d
       -0.13974512 -0.3009843 0.10185117 0.056606986
000340 f5 4e ab 3c f9 29 37 bc 0d 71 12 3d b2 25 44 bd
       0.020911673 -0.011179441 0.035752345 -0.04788751
000350 04 e0 ef bd d5 39 27 be e6 81 1a be fa ce 67 3d
       -0.117126495 -0.16330655 -0.15088615 0.056593873
000360 2a bb e0 3d 04 7b fc 3d 57 66 f0 3d ee e4 d5 3d
       0.10973199 0.12328151 0.1173827 0.104440555
000370 44 53 8b be 75 88 aa 3c 96 df 11 be 68 cf 93 be
       -0.27211964 0.02081702 -0.14245448 -0.28869176
000380 6f c8 68 be d1 b2 19 3e 15 6b 24 bc a0 a3 31 3d
       -0.2273271 0.1500962 -0.010035296 0.043368936
000390 a4 45 5c 3e 7d 9c 66 3e 3d f6 07 3d 85 04 3d bd
       0.21510941 0.22520633 0.033193815 -0.04614689
0003a0 4c 10 34 ba 8a 56 0c bd 41 0f d0 3d 8e eb e9 be
       -0.00068688835 -0.034262218 0.101591595 -0.45687526
0003b0 95 23 15 bf 41 1f 0e be 84 00 1e bf 27 70 05 bf
       -0.5825742 -0.1387911 -0.61719537 -0.52124256
0003c0 cd 1c 64 be e1 b0 1f bf 78 a9 cc be f2 f2 e1 3d
       -0.22276612 -0.6237927 -0.39973044 0.11032666
0003d0 6b fd d6 3c dd 01 81 3b f5 c0 e6 b9 9c 94 dc bd
       0.026243886 0.0039369897 -0.00044012783 -0.107705325
0003e0 f9 01 d0 bd b5 cf 01 be d4 ff 20 be 25 f9 b7 bd
       -0.10156626 -0.1267689 -0.1572259 -0.089830674
0003f0 be 37 e0 bd bd 40 07 be c6 6e e7 bd 74 a3 c7 bd
       -0.10948132 -0.1320829 -0.11300425 -0.09747973

norm3.weight f4 [32]
000000 ff 5d 8c 3f eb 5e 77 3f 69 97 99 3f 84 6a 88 3f
       1.0966185 0.9662921 1.1999332 1.0657506
000010 97 48 97 3f 9f ae a7 3f d8 9d 9c 3f 69 dd b2 3f
       1.1819028 1.3100165 1.223567 1.3973819
000020 18 9a 8f 3f 6a a1 6e 3f d0 4f 9f 3f 92 64 8b 3f
       1.1218901 0.9321505 1.2446232 1.0890067
000030 04 75 96 3f 5f 5d 76 3f 51 fd 8a 3f 84 2c 93 3f
       1.175446 0.96236223 1.0858556 1.149796
000040 88 44 ac 3f 0d 80 8d 3f 13 b4 9f 3f e7 1e 89 3f
       1.3458414 1.1054703 1.2476829 1.0712556
000050 d2 59 a3 3f 69 76 7c 3f 37 08 84 3f 4e 4d 89 3f
       1.2761786 0.9861818 1.0315007 1.0726717
000060 a1 63 89 3f 04 a2 c1 3f a6 e0 80 3f a6 41 8d 3f
       1.0733529 1.5127568 1.0068557 1.1035659
000070 44 2f ad 3f 5e 91 87 3f b8 f1 9a 3f ac c6 88 3f
       1.3530049 1.0591238 1.2105017 1.068563

norm3.bias f4 [32]
000000 99 c7 93 39 91 be b5 bc 40 3d b5 3d ad 5c b2 be
       0.00028186737 -0.022185596 0.08849573 -0.3483633
000010 69 42 8f bc 4c 0e 39 bc 3d 0f fe 3d bf 99 5c 3e
       -0.017487722 -0.011294913 0.1240525 0.21543024
000020 72 0a 63 3e 47 67 5b bd 1d dd 12 be 69 b0 9a bd
       0.22171953 -0.05356529 -0.1434216 -0.07553179
000030 48 37 fc bc 81 8a b1 3e 0d 09 4d 3e 68 06 f9 bc
       -0.030788079 0.34675983 0.20022984 -0.030398563
000040 a6 2b 3e 3e 8b 2f 08 be 75 87 1a 3e d8 34 ba bd
       0.18571338 -0.13299386 0.15090735 -0.090921104
000050 ad 38 97 3c 3f 7c 36 3c 82 4e 51 3e 3a ba a5 bd
       0.018459642 0.011138021 0.20440105 -0.080921605
000060 58 06 26 be 90 e2 4e 3e 6c f1 dc 3d 6b 44 c2 3c
       -0.16213357 0.20203614 0.10788235 0.023714265
000070 69 48 01 3e ff fe 7c 3d ca f5 19 3c 55 a4 fe bd
       0.12625279 0.06176662 0.00939698 -0.124336876

norm3.running_mean f4 [32]
000000 57 85 a8 3f b7 89 eb 3f bc fb 91 3f 8f 31 ca 3f
       1.3165692 1.8401402 1.1404948 1.5796374
000010 79 33 c7 3f 81 dd 16 40 97 49 a5 3f 3b 44 be 3f
       1.5562583 2.3572695 1.2913083 1.4864572
000020 82 aa 0c 40 b9 da cc 3f 75 df af 3f 66 cb 96 3f
       2.197907 1.6004249 1.3740069 1.1780822
000030 98 50 94 3f 93 71 9a 3f 7c d2 f0 3f f9 60 6d 3f
       1.1587095 1.206591 1.8814235 0.92726094
000040 49 9f b8 3f 33 01 11 40 09 ba af 3f 3a 72 98 3f
       1.442361 2.2656982 1.3728648 1.1909859
000050 d0 a3 02 40 e8 ba 8b 3f 9f d2 99 3f f4 eb 9e 3f
       2.0412483 1.0916414 1.2017401 1.2415757
000060 69 4f b0 3f aa 44 04 40 17 67 bb 3f e7 4e ed 3f
       1.3774234 2.066691 1.4640836 1.8539704
000070 91 67 b2 3f 04 0e e3 3f f3 41 a6 3f f7 17 8d 3f
       1.3937856 1.7738652 1.2988876 1.1022938

norm3.running_var f4 [32]
000000 6f cc 9f 40 04 d0 12 41 3a 31 ba 40 92 ce 09 41
       4.9937053 9.175785 5.818509 8.612932
000010 25 dd f4 40 d4 65 58 41 2a 7d e6 40 18 e2 1a 41
       7.651995 13.52486 7.202779 9.680199
000020 8f 94 f8 40 8a 68 b0 40 49 71 ec 40 43 f1 85 40
       7.7681346 5.512761 7.3888288 4.185701
000030 3b 6d 49 40 36 55 29 40 72 5c c1 40 c8 57 81 40
       3.147292 2.6458259 6.042535 4.0419655
000040 f5 b6 00 41 a3 9a 16 41 5d cb ec 40 2f b8 c1 40
       8.044667 9.412753 7.3998246 6.0537333
000050 0a bc 49 41 0b c2 6a 40 4c ef 88 40 44 b9 d3 40
       12.608408 3.6680934 4.279211 6.6163654
000060 6a 8e 9c 40 fb 06 68 41 93 ef db 40 ff 86 dd 40
       4.8923845 14.501704 6.872995 6.922729
000070 01 a1 06 41 58 61 39 41 7d 51 cf 40 29 ea b4 40
       8.414308 11.586266 6.4786973 5.653584

dilated_conv1.weight f4 [32, 32, 3, 3]
000000 2d 53 08 bd 2d 8c 86 3d 42 cf 3e 3d 52 2e 91 bd
       -0.033282448 0.06569705 0.046584375 -0.07088913
000010 29 cb 7b 3d f8 98 9f 3c d1 b2 f6 bd 97 d3 0e bd
       0.061473045 0.01948212 -0.12045825 -0.034869757
000020 36 96 c5 bd b0 8f 3e be 44 58 35 be c4 d6 e2 be
       -0.09647791 -0.186095 -0.17709452 -0.44304478
000030 72 3a eb 3e 5c 9f 63 3e 02 24 86 be c7 d3 3b 3e
       0.45943028 0.2222876 -0.26199347 0.18342505
000040 96 3b 87 3e 2e 09 b3 bc 26 2f d1 3b 5d 35 eb 3c
       0.26412648 -0.021854963 0.0063837944 0.028711969
000050 03 1c fa 3c 91 90 00 3d f7 8b 42 3e f3 7f a7 3d
       0.030530935 0.03138787 0.18998705 0.08178701
000060 e7 95 cf 3b b0 ec 67 bd f4 ac f7 bc 1a a5 3b 3e
       0.0063350084 -0.056622207 -0.030233838 0.183247
000070 e3 ab 17 3e 67 83 7a 3e a6 b5 b3 3c 3a b6 7b 3d
       0.14811663 0.24464189 0.021937203 0.06145308
000080 e9 10 1c 3d 6f d0 9d bc a3 8d 13 3d de 79 45 3e
       0.038102064 -0.019264428 0.036023747 0.1928477
000090 20 f5 99 bd df 87 10 3d 25 76 e8 bb 40 d2 75 be
       -0.07517457 0.035285827 -0.007094162 -0.24005985
0000a0 52 80 e3 bd 59 cc 01 be 5a 51 87 3d 2b a5 3e be
       -0.111084595 -0.12675609 0.066073135 -0.18617694
0000b0 2a ef dc be d4 21 1e be b4 d9 ae bd cf 35 43 bd
       -0.43151218 -0.15442592 -0.08537617 -0.047658738
0000c0 07 3b 1a 3e 22 ef 74 bd e3 f8 5a be 63 fe 70 bd
       0.1506158 -0.059798367 -0.21384005 -0.058836352
0000d0 d6 5f 2c 3e 20 a2 2d be 77 99 0b 3e 15 94 4e 3e
       0.16833434 -0.16956377 0.13632761 0.20173676
0000e0 f0 cc ca 3d aa 54 34 3e ca 61 02 be 20 58 5b be
       0.0990237 0.17610422 -0.12732616 -0.21420336
0000f0 e8 64 d2 3e c2 ca 39 3d 72 b2 62 bd 8e 50 aa bc
       0.4109261 0.04535938 -0.05534596 -0.020790365
000100 ab de 95 bd 52 1b a2 3d 82 4c 42 be ad c2 a6 bd
       -0.07317861 0.07915367 -0.18974498 -0.081426
000110 d9 e2 14 be 27 3f 86 3b 74 47 d2 bd c7 a5 dc 3d
       -0.1453966 0.004096884 -0.10267535 0.10773807
000120 ef 3b 64 be 11 42 7f bc 9a 50 83 3e 8e b8 31 be
       -0.22288488 -0.015579716 0.25647432 -0.17355558
000130 1d 15 df bd ab 4e 25 3e ec dd 17 be 89 8e db bc
       -0.10892699 0.1614329 -0.1483075 -0.026801364
000140 b3 40 44 3e e6 25 c0 3b 08 10 de bc be aa db bd
       0.19165306 0.005863893 -0.027107254 -0.10725926
000150 74 79 ab 3c 28 02 89 3d 7d 47 35 be 64 7b 41 bd
       0.020931937 0.066898644 -0.17703052 -0.047236815
000160 df 4a c1 bd 9c f9 84 be ca 98 99 3d 2f 60 b6 3d
       -0.09438109 -0.25971687 0.07499845 0.08905064
000170 25 5c 7f be e0 27 b1 3d 79 79 f9 bc 82 74 4e be
       -0.24937494 0.08650184 -0.03045343 -0.20161632
000180 7d 59 a3 3c 79 5b 0a be b8 c4 9b bd 4e cf e5 bb
       0.019940132 -0.13511457 -0.076058805 -0.007013238
000190 18 d7 ab 3d a3 6f 87 3d 1e 57 90 bd a9 23 9e 3d
       0.08390635 0.0661309 -0.07047866 0.077216454
0001a0 d8 d6 94 3d dd e6 97 3c b4 c5 8e 3e 74 74 6d bc
       0.07267541 0.018542701 0.2788521 -0.014493097
0001b0 8e ca a9 3d 7a 07 50 bd 20 fe 63 bd 81 e9 75 ba
       0.08290587 -0.05078838 -0.055662274 -0.0009380803
0001c0 89 cf f6 bd 53 d0 8e be 12 f7 35 3c b9 e5 bd 3d
       -0.12051303 -0.27893314 0.011106269 0.09272332
0001d0 72 6b 95 bb c4 b8 bf 3e 7c af e4 bd 0e f4 89 3d
       -0.0045599276 0.37445652 -0.111662835 0.06736003
0001e0 fa ed a6 3d 97 98 4f be ca 54 38 be df b9 99 3c
       0.08150859 -0.20273052 -0.18001094 0.018765388
0001f0 5f c4 39 be 6b 1e bb bc 3d cf 87 bd cf 1a 49 bd
       -0.18141316 -0.022841653 -0.066313244 -0.049097832
000200 85 7f 5b 3e bf a2 be bd e5 20 9d bd 1b 2a b7 3e
       0.21435364 -0.09308385 -0.0767229 0.3577431
000210 c3 99 1d be 66 26 b9 bd 83 bd 0c 3e 90 21 b3 be
       -0.15390687 -0.09040527 0.13744168 -0.34986544
000220 22 ee 9b be 0c 97 d6 be d3 16 20 bd 72 17 ff bd
       -0.30455118 -0.41912115 -0.039084267 -0.12455644
000230 8c e2 5d bd 68 2c 7b bd 3e 36 b1 bd 57 13 97 be
       -0.05417113 -0.061321646 -0.08652924 -0.29506943
000240 7c 2a 2d 3d 18 05 86 bd 2f aa 34 bd 17 a0 3f 3e
       0.042276844 -0.0654394 -0.044107612 0.18713413
000250 22 5b 28 3e ff 41 3a bd 48 0b 43 3e ab c4 d6 3c
       0.16441014 -0.045473095 0.19047272 0.026216825
000260 7e 05 d5 3c 8a 51 0c 3e 14 79 a8 3d 6b 8f 12 be
       0.026003595 0.1370298 0.08226219 -0.14312522
000270 1d 57 19 3e 97 90 e7 3d 86 db 80 3d b7 6b 14 3e
       0.14974637 0.11306875 0.06291871 0.14494215
000280 a5 62 40 3e c3 51 89 3e 36 5b 5f 3e 36 dc 6b be
       0.1878763 0.26820192 0.21812138 -0.23033223
000290 1e 65 93 be 95 d9 53 3e d6 0e 16 be 6b 68 05 be
       -0.28788084 0.2068847 -0.14654097 -0.13028114
0002a0 74 92 91 bc 5b 94 90 be 6b e6 57 bd 94 25 06 3e
       -0.01777003 -0.28238186 -0.052709978 0.13100272
0002b0 23 78 a1 3c e3 21 c3 be 20 72 a5 3e 7e b1 db 3d
       0.019710606 -0.3811179 0.32313633 0.10727213
0002c0 3d ac 9d be d9 88 f3 3e b8 70 84 3e 7d 66 8b 3d
       -0.3079547 0.47565344 0.25867248 0.068066575
0002d0 c9 34 a2 bd 6e 7f 35 bd b9 93 91 3c 62 c6 4a bd
       -0.07920224 -0.04431098 0.017770635 -0.0495056
0002e0 9d dd 08 3e 9a 78 76 3e 8b d9 d1 be 4c 15 a7 bd
       0.13365789 0.24069443 -0.40986285 -0.08158359
0002f0 21 77 68 3e 24 e8 7c be ef a6 eb bc 61 d4 58 be
       0.22701694 -0.2469793 -0.028766124 -0.21174766
000300 af b2 89 bd 6a a7 b9 3e b5 f0 ce 3c ca d9 11 3e
       -0.06723534 0.3626054 0.025261262 0.14243236
000310 a2 95 e8 3e cb 3a d2 bd e4 82 e5 bd 1d 2e e8 bd
       0.4542666 -0.1026512 -0.11206606 -0.113369204
000320 a6 5c 3d be 81 44 b0 3d e4 7e 47 3e aa bb 17 3e
       -0.18492374 0.08606816 0.19481999 0.14817682
000330 b7 66 51 3d 9e 4e c8 bc 4c 0c 88 3d 81 98 b2 bd
       0.051123347 -0.02445155 0.066429704 -0.08720494
000340 fa db f1 bd 48 02 1d 3d c9 75 d6 bd 27 f1 10 be
       -0.11809535 0.038332254 -0.104716845 -0.14154492
000350 0e 1e 01 3d 10 45 c8 be b4 b3 c5 be 5f 8f f5 bd
       0.031522803 -0.3911519 -0.38613665 -0.119902365
000360 5e a9 58 3d 83 df dc ba 62 86 e3 bc 5c 6c 8e bd
       0.052895896 -0.001685128 -0.02777404 -0.06954262
000370 01 2e 63 bd 0b ea 64 3e 40 d3 89 bd 01 2f 80 bb
       -0.055463795 0.22354905 -0.06729746 -0.0039118533
000380 6f 28 db 3d 10 22 3e bd da 02 28 bd 65 6e 8a be
       0.107010715 -0.046419203 -0.041018344 -0.2703735
000390 ee db 6d 3e 8e b1 55 bd 0a d4 90 bd 37 8b a6 3d
       0.23228428 -0.052171282 -0.07071693 0.08132022
0003a0 02 f7 1b be 78 1e 23 bd 68 88 27 be a1 5c 20 be
       -0.15230945 -0.03982398 -0.16360629 -0.15660335
0003b0 41 c8 7c be 79 09 4f 3e ae 18 2e be f7 34 a4 be
       -0.24685766 0.20218457 -0.17001602 -0.3207166
0003c0 9c 3a 97 3c f7 35 b8 bd 59 24 c8 be 8a d2 4b bc
       0.018460564 -0.08994668 -0.3909023 -0.012440333
0003d0 a3 13 f0 3c 3b 70 e7 be 10 13 1b 3e 02 a3 45 3c
       0.029306239 -0.45202813 0.1514399 0.01206279
0003e0 9e 76 93 be 77 67 bc bc fe 33 7b bd 02 2a 81 bd
       -0.28801435 -0.022998555 -0.06132888 -0.063068405
0003f0 b0 08 ae bd 88 7d 9e bd d2 25 b2 bc ba 09 38 be
       -0.08497751 -0.07738787 -0.02174655 -0.1797246

dilated_norm1.weight f4 [32]
000000 31 ac 8d 3f 19 08 9e 3f de 91 98 3f 2d 8a 8d 3f
       1.1068174 1.2346221 1.1919515 1.1057793
000010 c9 75 95 3f 06 71 90 3f 5c 5f 92 3f e1 1f 87 3f
       1.167657 1.1284492 1.1435351 1.0556604
000020 b6 dc 91 3f 6a ac 9c 3f 9e 04 8c 3f 6e 70 a6 3f
       1.1395481 1.2240117 1.0938909 1.3003061
000030 81 03 a3 3f 5e e8 95 3f 65 8f 8b 3f 86 ff a8 3f
       1.2735444 1.1711538 1.0903136 1.320298
000040 c9 19 92 3f 9d a3 95 3f 50 b8 94 3f 46 e8 97 3f
       1.1414119 1.1690556 1.1618748 1.1867759
000050 09 3b 9c 3f 10 eb 85 3f d8 b1 93 3f 3c a5 91 3f
       1.2205516 1.046236 1.1538649 1.137855
000060 34 55 81 3f fd 7a 7e 3f b6 73 8c 3f 5a 7c 8a 3f
       1.0104127 0.99406415 1.0972812 1.0819199
000070 1a f4 8b 3f 53 fb 94 3f a5 c1 92 3f 0f 51 8f 3f
       1.0933869 1.1639198 1.1465346 1.1196612

dilated_norm1.bias f4 [32]
000000 4e 7c c1 bc 47 5a 22 3e 3c 93 3c 3d ed a5 b1 3e
       -0.023618843 0.1585475 0.04603885 0.34696904
000010 53 2c 89 3e de 20 ca bd a0 c8 9c be 14 e7 44 3d
       0.2679163 -0.0986955 -0.30621815 0.048071936
000020 71 4a 1c 3e d3 6f cd 3e 34 3b 9e 3c 5f 67 aa 3d
       0.15262772 0.40124378 0.01931534 0.08320498
000030 86 b5 59 bc da bb 0e bd 49 b5 b2 be 3d 59 a0 bc
       -0.0132879075 -0.034847118 -0.34903935 -0.019573802
000040 82 ba 0e 3f c0 28 a2 3e c1 ea 3c 3f 2d c4 0b bd
       0.5575334 0.31671715 0.73795706 -0.034122635
000050 87 dc 37 3d 62 f8 0a 3d 98 b4 53 be d5 d4 02 be
       0.044888046 0.033928283 -0.2067436 -0.12776501
000060 e0 92 27 be f9 87 47 bd b2 a3 ad 3d 89 94 96 be
       -0.16364622 -0.048713658 0.08478488 -0.29410198
000070 1c 28 0e ba db 66 ba bd 91 d4 a2 bd 0d c3 15 be
       -0.0005422847 -0.091016494 -0.079507 -0.14625187

dilated_norm1.running_mean f4 [32]
000000 5c 69 d6 3f 73 34 f2 3f d3 0d 4c 40 ff 6e 20 40
       1.6750903 1.8922256 3.1883438 2.5067747
000010 2f f3 2f 40 76 12 d5 3f 66 86 d1 3f 77 fa 18 40
       2.7492177 1.6646259 1.636914 2.3902872
000020 30 d1 fc 3f 5e cb ee 3f 4d 5a f7 3f 1d aa ef 3f
       1.9751339 1.8655813 1.9324433 1.872379
000030 d0 06 e7 3f 1a 56 04 40 7e b9 ed 3f 11 b2 b5 3f
       1.8048954 2.0677552 1.8572233 1.4194967
000040 14 c3 be 3f da 42 01 40 df 09 d4 3f 5a 10 e1 3f
       1.4903283 2.0197053 1.6565512 1.7583115
000050 63 39 d2 3f 4b 02 b3 3f 07 5c f8 3f 1d a5 ec 3f
       1.6423763 1.3985075 1.9403085 1.8487889
000060 dc 06 e0 3f 2a cc f2 3f 15 84 2d 40 85 d8 a9 3f
       1.7502093 1.8968556 2.7111866 1.3269202
000070 c3 c9 12 40 e5 d8 d5 3f 2c f6 b7 3f 58 5b dd 3f
       2.2935646 1.6706816 1.4372001 1.7293501

dilated_norm1.running_var f4 [32]
000000 1b fe 12 41 21 34 22 41 b1 c7 4a 41 90 c8 1a 41
       9.187037 10.137727 12.673753 9.673965
000010 a0 cc 49 41 6e 4c dc 40 d8 7a fa 40 36 f5 0a 41
       12.612457 6.88433 7.8274956 8.684866
000020 c1 8a ed 40 cb cc e1 40 52 8d 30 41 51 01 3a 41
       7.4231877 7.056249 11.034502 11.625321
000030 14 fb 19 41 3a 9f 23 41 5a 29 14 41 74 2b 10 41
       9.623798 10.226374 9.260096 9.010609
000040 16 98 c2 40 4f 29 04 41 36 0f c8 40 95 22 20 41
       6.081065 8.260085 6.251857 10.008443
000050 44 ac 1e 41 4c 44 d7 40 f6 81 15 41 2c cf da 40
       9.917057 6.727087 9.344229 6.8377895
000060 82 5a fe 40 a4 6c df 40 5b 7b 37 41 d0 99 bb 40
       7.9485483 6.982012 11.467616 5.862526
000070 48 0c 2e 41 fa aa fa 40 e1 d5 eb 40 a1 43 f1 40
       10.877998 7.833371 7.3698583 7.5395055

conv4.weight f4 [32, 32, 3, 3]
000000 46 05 5f 3e 44 60 4c 3e 92 20 90 3c 4d b9 aa 3e
       0.21779355 0.19958597 0.017593656 0.33344498
000010 ab b8 d5 3e 8e ea ba 3e 3d e0 c2 bd af 5d bf 3c
       0.41742453 0.36507076 -0.09515426 0.023360102
000020 69 d9 22 3b aa 5d 93 3d 4d 20 88 3d 5d d3 7d 3b
       0.0024848825 0.071955994 0.06646786 0.0038730719
000030 ce 0d 85 3e 3f 0b 3d bd a9 6a 2e bd 3a 26 02 be
       0.25987095 -0.046153303 -0.042582188 -0.12709895
000040 00 cf 0a bf 40 24 a6 be 47 a1 4b 3d 25 04 ae 3d
       -0.54222107 -0.32449532 0.049714353 0.08496884
000050 84 b3 e6 3d 1b a3 7d 3e a0 6a 60 3d 37 97 ae bd
       0.11264709 0.24769251 0.054789186 -0.08524936
000060 30 57 81 bd d1 52 8b bd b5 ba 37 be 42 75 83 be
       -0.06315458 -0.06802905 -0.17942317 -0.25675398
000070 6c 65 d6 bd 47 d0 a7 be ec 66 e1 3d fe 62 3a 3e
       -0.104685634 -0.3277609 0.11005959 0.18201825
000080 c1 10 a0 bc af 6c c5 3d e7 cf 97 3d d1 a0 8e be
       -0.019539239 0.096398704 0.07412701 -0.27857068
000090 07 d3 be 3c 74 32 0b be f0 dc 4f 3c c2 87 ba 3d
       0.023293985 -0.13593465 0.012686953 0.09107925
0000a0 77 16 64 bd c8 31 bd 3d 93 d2 de 3c 6b ef 1c 3e
       -0.055685487 0.09238011 0.027200019 0.15325706
0000b0 c2 2a 44 3c 25 89 9e bd d9 bb f1 bd d8 ed 8c be
       0.011973085 -0.07741002 -0.11803407 -0.2752521
0000c0 12 40 93 be 22 10 98 be 2a ad 17 be 7b c7 78 bd
       -0.2875982 -0.29699808 -0.1481215 -0.060737114
0000d0 95 a5 07 be 0b a4 07 be b5 c2 f3 bd 18 85 67 3d
       -0.13246758 -0.13246171 -0.11902372 0.056523412
0000e0 39 f7 54 3e 0b 5b df bd 9b ff 0e 3e 44 05 98 3e
       0.20797433 -0.10906037 0.13964693 0.29691517
0000f0 e5 1f 10 bd 7a 64 9f 3d be 1c c3 bd dd dc b5 bd
       -0.035186667 0.07782836 -0.095269665 -0.08880017
000100 11 6f 22 3e 7d 55 5a 3e 87 19 90 3c f4 24 ff 3d
       0.15862681 0.21321674 0.017590297 0.1245822
000110 8e ed d2 3d 43 67 8a 3d bf 32 02 3d f3 ef ca bd
       0.10299216 0.06757977 0.031786676 -0.09909048
000120 b9 85 28 be c0 be 80 3d 5d ce 1f be 23 3f 72 3e
       -0.16457261 0.06286383 -0.15606065 0.23656897
000130 de a6 a4 3e aa a6 a0 3d e1 81 b4 bd 7e ab cd bd
       0.3215856 0.07844289 -0.08813835 -0.10042475
000140 23 65 88 be 8f d0 e5 3c 54 df cd 3d 5a 70 45 bd
       -0.2663966 0.02805355 0.10052362 -0.04820285
000150 8a 51 e0 be c7 bc 1e 3c c8 5a 58 3e 52 25 7f be
       -0.4381221 0.009688563 0.2112838 -0.2491658
000160 3b 4e a9 be 6d f9 25 be 80 b6 11 be d0 7b 0c be
       -0.33067498 -0.1620843 -0.14229774 -0.13719106
000170 0a 63 09 bc d6 fb 7b bc 4c a4 c0 be ea 4a 9a be
       -0.008385429 -0.015379867 -0.3762535 -0.3013528
000180 39 9b 9b 3d d7 a5 da bb 98 00 82 be dd d7 c0 bd
       0.07597966 -0.0066726017 -0.25391078 -0.09416173
000190 9d 17 2b bd 28 95 f4 bd 73 7a d0 3d 17 90 37 3d
       -0.041770566 -0.11942512 0.10179605 0.04481515
0001a0 dd 04 20 be af 60 81 3d bb 4e e4 bd 81 b6 90 bd
       -0.15626855 0.06317269 -0.11147829 -0.0706606
0001b0 14 7b d6 3d 65 f4 e3 3d b3 8f 81 3d fa 50 88 3e
       0.10472694 0.11130599 0.063262366 0.2662428
0001c0 2c 30 79 3c 2a 35 e9 bd ac ea a2 be a7 1d 21 be
       0.015209239 -0.11387093 -0.31819665 -0.15733968
0001d0 82 53 34 3d 8d 2d 30 3e d8 2d aa 3e ee a4 46 3c
       0.04402495 0.17204876 0.332381 0.012124283
0001e0 0d 53 1e bd 4b 56 55 bd 9b 3f 98 bc eb 5e 4f 3e
       -0.038653422 -0.05208425 -0.018585017 0.20251052
0001f0 c7 b1 0a 3e 1a 12 61 3e 0b fa 74 3e 92 8c ed 3d
       0.13544379 0.21979561 0.23923509 0.11599077
000200 3d 8a f1 3d 82 3e 73 3e ec ae 5a 3e 75 2e ac 3e
       0.11793945 0.23754314 0.2135579 0.33629194
000210 34 78 ba 3d 68 a0 9e 3d 3b cd 45 3e 4a 2d 8c be
       0.09104958 0.07745439 0.1931657 -0.27378303
000220 92 03 3b bd b0 44 f7 bd a9 98 a7 be 68 54 12 be
       -0.0456577 -0.12073648 -0.32733658 -0.14290011
000230 d4 cd 7a 3d bf 33 c0 bd 76 35 33 3c 49 9a f8 bd
       0.06123145 -0.0938487 0.010938039 -0.121388026
000240 d5 92 dd bd 43 78 3d 3e 68 d6 dc be df 8b b4 bc
       -0.108190216 0.18502907 -0.4313233 -0.022039352
000250 3b 03 5d 3e 84 6f d8 3d 9d f5 4d 3e c2 6b c8 3d
       0.21583264 0.10568145 0.20113225 0.09786178
000260 a7 8b 47 bd ff 6d cf 3d 47 55 f7 3d c2 dc 1f be
       -0.048717167 0.10128402 0.12076812 -0.15611556
000270 3c 3c 8c bd c9 e7 25 be 56 b6 22 be 3b 26 84 bd
       -0.06847426 -0.162017 -0.15889868 -0.064526044
000280 9f a5 cd be 11 0a c1 bd 55 40 54 be 71 6c 5d 3e
       -0.4016542 -0.09425748 -0.20727666 0.21623398
000290 2d f1 56 bd 10 35 3e be 02 ee de 3e b4 49 d9 3e
       -0.052476097 -0.18574929 0.4354096 0.42439044
0002a0 90 a0 6d be 1e dc 60 3d 14 9f c7 3d 67 84 b7 bd
       -0.23205781 0.05489742 0.097471386 -0.089608006
0002b0 13 c2 97 3d 22 85 ce 3d 79 68 3d 3e aa 14 9b 3e
       0.074100636 0.10083987 0.18496884 0.30289203
0002c0 01 da 1e 3e 9f 4f c2 3d 1a a3 3c 3e 58 5d 0d 3e
       0.1551285 0.09487843 0.18421593 0.13805139
0002d0 c7 f8 4a 3d f3 a7 2d 3d f2 bc 16 3d 59 05 0d bc
       0.04955366 0.042396497 0.036801286 -0.008607232
0002e0 2b 82 93 be 39 4f 9f be b3 f6 49 be d8 9a 16 bc
       -0.28810248 -0.3111513 -0.19723015 -0.009192191
0002f0 90 da 34 3c fe 13 4a 3d e1 25 a5 3b 33 51 e8 3d
       0.0110384375 0.049335472 0.005039916 0.113436125
000300 6d 36 9a 3e a8 7d 69 bd e0 63 67 be 4c 36 e1 bc
       0.3011965 -0.0570046 -0.22596693 -0.027491711
000310 e2 74 93 bd a9 ed 58 3d 1c 27 aa be bf f5 a6 3d
       -0.07200028 0.052961025 -0.33232963 0.08152341
000320 3f 73 25 bd a9 31 09 be a0 59 66 3e 21 86 8a 3e
       -0.04039311 -0.1339785 0.22495127 0.27055457
000330 33 bf 7b be f2 5d f4 bd b0 63 af 3d c1 65 e4 3d
       -0.24584655 -0.11931981 0.08563936 0.111522205
000340 11 2e 82 be c4 38 c8 bd 84 2d 7c be f3 69 74 3e
       -0.2542577 -0.09776452 -0.24626738 0.23868541
000350 93 2d 5f 3d 06 45 b1 bd 8c 8a 3d 3e 22 ce 47 3d
       0.054486822 -0.08655743 0.18509883 0.048780568
000360 6a 32 15 3e 56 c4 24 3d e5 6c 2d 3d fc 8f 9b 3d
       0.14570013 0.040226303 0.042340178 0.07595822
000370 61 6c 80 3d b9 ea 9a bd a9 03 ef bd c2 0c 88 bc
       0.06270672 -0.07564301 -0.1167062 -0.016607646
000380 e3 f7 97 bc de 79 a8 be 5e 56 5c 3d 78 1b 26 be
       -0.018550819 -0.32905477 0.053793304 -0.16221416
000390 0d c9 63 be 1e d1 a9 3c e0 e6 48 bd ad 30 4b be
       -0.22244664 0.020729598 -0.049048305 -0.19842787
0003a0 9b 65 9a be 53 30 7b be 29 76 26 3e 95 5a 74 3d
       -0.30155644 -0.24530153 0.16256012 0.0596567
0003b0 db 6e e4 3d 8d 9d 92 be 3e 0d 50 be 54 0c 74 3d
       0.111539565 -0.28635827 -0.20317551 0.05958207
0003c0 01 ec 2d be 44 2e 59 bc 65 97 63 3d e6 4c a5 3d
       -0.1698456 -0.0132556595 0.055564303 0.08071308
0003d0 25 fa ac 3b 9c 30 02 3f 2f f3 e3 b8 12 19 40 bd
       0.005278843 0.5085542 -0.000108695 -0.04689891
0003e0 24 d8 b3 3d 6c ca b9 bc f3 14 2f be 2e 68 af be
       0.0878146 -0.02267953 -0.17097835 -0.3425917
0003f0 5f c7 b0 3b 7f fd f7 3d 16 08 8e bc 55 c5 3c 3e
       0.0053948606 0.121088974 -0.01733784 0.18434651

norm4.weight f4 [32]
000000 51 0c 88 3f 6b e7 9d 3f d1 ef 9b 3f 64 e3 92 3f
       1.0628759 1.2336248 1.2182561 1.1475644
000010 d0 c3 9b 3f 90 fa 94 3f f1 10 98 3f a5 c1 94 3f
       1.2169132 1.1638966 1.188017 1.1621596
000020 89 89 87 3f 92 55 96 3f cc 24 9b 3f 58 f2 8a 3f
       1.0588847 1.1744864 1.2120605 1.0855207
000030 a3 7c 9d 3f c0 6a 95 3f e0 18 97 3f 9a d6 8a 3f
       1.2303661 1.1673203 1.1804466 1.0846741
000040 44 a0 94 3f 92 41 89 3f e2 0f 8d 3f 63 22 98 3f
       1.1611409 1.0723135 1.1020472 1.1885494
000050 fa ef 8f 3f 22 4e 8c 3f 6a 67 96 3f 6d 5e a2 3f
       1.124511 1.0961344 1.175031 1.2685066
000060 c8 7d 90 3f 7c 90 9a 3f 63 a3 9d 3f b0 52 a0 3f
       1.1288385 1.2075343 1.2315487 1.2525234
000070 8d ac 94 3f 2c 97 9b 3f 86 1a 8d 3f 85 f1 8b 3f
       1.1615158 1.2155509 1.1023719 1.0933081

norm4.bias f4 [32]
000000 76 74 11 be b2 c9 17 bd c8 b5 71 bd b4 02 f4 bd
       -0.14204583 -0.037057586 -0.05901125 -0.11914578
000010 10 31 3e bd 03 91 51 3e 34 2b f3 bd c2 1e ca 3e
       -0.04643351 0.20465474 -0.11873475 0.3947659
000020 22 c6 93 be 50 f8 e8 bd c8 f2 73 be e6 61 91 3c
       -0.288621 -0.11375487 -0.23823082 0.017746877
000030 bc 84 1e be ce 8b a4 3c 77 20 19 3e fb 30 26 3c
       -0.15480322 0.020086195 0.1495379 0.010143514
000040 f1 4e 52 be e0 c3 a7 3d 7c 5a 3e bc 7c 74 f1 3b
       -0.20537926 0.08191657 -0.011618253 0.0073686223
000050 c3 2a 12 be ca 8c d6 3e ff e3 81 3c 9b 3b 85 bd
       -0.14274125 0.4190429 0.015855787 -0.065055095
000060 21 96 81 be 43 44 b4 bd d6 1a dd 3e 17 20 09 3e
       -0.25309852 -0.088020824 0.43184537 0.13391148
000070 61 5f 13 bd 21 7d 13 bd ef 44 03 3a 11 41 ef bd
       -0.035979632 -0.036008004 0.00050075253 -0.11682332

norm4.running_mean f4 [32]
000000 18 2a a9 3f fa 9e b9 3f 71 cd 96 3f b8 c0 a9 3f
       1.3215971 1.4501641 1.1781446 1.3261938
000010 09 1f 91 3f 30 98 3e 40 d0 7c c3 3f 76 bc 2b 40
       1.1337596 2.9780388 1.5272465 2.6833777
000020 d9 45 3e 3f 02 4c db 3f 7c 7e cb 3f 35 55 c3 3f
       0.7432533 1.7132571 1.5897975 1.5260378
000030 c7 a3 32 40 da 19 fb 3f 61 01 13 40 3f 05 ae 3f
       2.7912462 1.9617264 2.2969592 1.3595351
000040 ef 39 cb 3f 13 ce eb 3f 7a 29 ed 3f d7 24 15 40
       1.5877055 1.8422264 1.8528283 2.3303735
000050 96 e5 26 40 0b 05 c8 3f 45 e0 c2 3f 15 08 31 40
       2.6077628 1.5626539 1.5224692 2.7661183
000060 1f 50 d9 3f ac 57 a5 3f c7 e3 eb 3f 9d 54 39 40
       1.6977576 1.291738 1.8428887 2.8957894
000070 cf be bc 3f 67 6c 52 3f ad 43 e0 3f dc 75 cc 3f
       1.474573 0.8219666 1.7520653 1.5973468

norm4.running_var f4 [32]
000000 45 ee aa 40 31 be 05 41 28 c2 b4 40 31 0d be 40
       5.3415856 8.358933 5.6487007 5.9391103
000010 5c 36 b6 40 e1 76 4a 41 23 48 f1 40 93 d6 13 41
       5.6941357 12.654023 7.5400558 9.239886
000020 3f e2 63 40 b1 8b e1 40 e9 a4 0b 41 4e db c8 40
       3.560684 7.048302 8.727761 6.2767706
000030 d5 06 44 41 0c c0 d2 40 fd 63 1f 41 de 16 d5 40
       12.251668 6.585943 9.961911 6.6590414
000040 86 6c b7 40 43 aa f8 40 84 ea df 40 68 49 15 41
       5.7319975 7.770784 6.9973774 9.330421
000050 79 65 24 41 6a cc e9 40 c6 b7 df 40 89 94 48 41
       10.274774 7.306203 6.9911833 12.536263
000060 1a f3 bb 40 27 8e d8 40 63 80 fa 40 5a 60 49 41
       5.8734255 6.7673526 7.828172 12.586023
000070 6d 8f ce 40 da 9e 6a 40 65 48 ef 40 e6 73 d9 40
       6.455008 3.6659455 7.477587 6.7953978
